…
I0926 19:17:38.696960 10151 net.cpp:313] The NetState phase (0) differed from the phase (1) specified by a rule in layer loss1/top-3
I0926 19:17:38.698777 10151 net.cpp:49] Initializing net from parameters: 
name: "GoogleNet_Inception_v3"
state {
  phase: TRAIN
}
layer {
  name: "data"
  type: "Data"
  top: "data"
  top: "label"
  include {
    phase: TRAIN
  }
  transform_param {
    mirror: true
    crop_size: 224
    mean_file: "/media/red/BRIDGE/data/BOT/mean.binaryproto"
  }
  data_param {
    source: "/media/red/DATA/data/BOT/ccrvc_train_lmdb"
    batch_size: 16
    backend: LMDB
  }
}
layer {
  name: "conv1/3x3_s2"
  type: "Convolution"
  bottom: "data"
  top: "conv1/3x3_s2"
  param {
    lr_mult: 1
    decay_mult: 1
  }
  param {
    lr_mult: 2
    decay_mult: 0
  }
  convolution_param {
    num_output: 32
    pad: 1
    kernel_size: 3
    stride: 1
    weight_filler {
      type: "msra"
    }
    bias_filler {
      type: "constant"
      value: 0.2
    }
  }
}
layer {
  name: "bn1"
  type: "BatchNorm"
  bottom: "conv1/3x3_s2"
  top: "bn1"
  param {
    lr_mult: 0
  }
  param {
    lr_mult: 0
  }
  param {
    lr_mult: 0
  }
  include {
    phase: TRAIN
  }
  batch_norm_param {
    use_global_stats: false
  }
}
layer {
  name: "conv1/3x3_s1_scale"
  type: "Scale"
  bottom: "bn1"
  top: "bn1"
  param {
    lr_mult: 1
    decay_mult: 1
  }
  param {
    lr_mult: 1
    decay_mult: 0
  }
  scale_param {
    axis: 1
    num_axes: 1
    filler {
      type: "constant"
      value: 1.0000001
    }
    bias_term: true
    bias_filler {
      type: "constant"
      value: 0
    }
  }
}
layer {
  name: "prelu1_11"
  type: "PReLU"
  bottom: "bn1"
  top: "bn1"
  param {
    lr_mult: 0
  }
  prelu_param {
    filler {
      type: "constant"
      value: 0.1
    }
  }
}
layer {
  name: "conv2/3x3_s1"
  type: "Convolution"
  bottom: "bn1"
  top: "conv2/3x3_s1"
  param {
    lr_mult: 1
    decay_mult: 1
  }
  param {
    lr_mult: 2
    decay_mult: 0
  }
  convolution_param {
    num_output: 32
    pad: 1
    kernel_size: 3
    stride: 1
    weight_filler {
      type: "msra"
    }
    bias_filler {
      type: "constant"
      value: 0.2
    }
  }
}
layer {
  name: "bn2"
  type: "BatchNorm"
  bottom: "conv2/3x3_s1"
  top: "bn2"
  param {
    lr_mult: 0
  }
  param {
    lr_mult: 0
  }
  param {
    lr_mult: 0
  }
  include {
    phase: TRAIN
  }
  batch_norm_param {
    use_global_stats: false
  }
}
layer {
  name: "conv2/3x3_s1_scale"
  type: "Scale"
  bottom: "bn2"
  top: "bn2"
  param {
    lr_mult: 1
    decay_mult: 1
  }
  param {
    lr_mult: 1
    decay_mult: 0
  }
  scale_param {
    axis: 1
    num_axes: 1
    filler {
      type: "constant"
      value: 1.0000001
    }
    bias_term: true
    bias_filler {
      type: "constant"
      value: 0
    }
  }
}
layer {
  name: "prelu1_2"
  type: "PReLU"
  bottom: "bn2"
  top: "bn2"
  param {
    lr_mult: 0
  }
  prelu_param {
    filler {
      type: "constant"
      value: 0.1
    }
  }
}
layer {
  name: "conv3/3x3_s1"
  type: "Convolution"
  bottom: "bn2"
  top: "conv3/3x3_s1"
  param {
    lr_mult: 1
    decay_mult: 1
  }
  param {
    lr_mult: 2
    decay_mult: 0
  }
  convolution_param {
    num_output: 32
    pad: 1
    kernel_size: 3
    stride: 1
    weight_filler {
      type: "msra"
    }
    bias_filler {
      type: "constant"
      value: 0.2
    }
  }
}
layer {
  name: "bn3"
  type: "BatchNorm"
  bottom: "conv3/3x3_s1"
  top: "bn3"
  param {
    lr_mult: 0
  }
  param {
    lr_mult: 0
  }
  param {
    lr_mult: 0
  }
  include {
    phase: TRAIN
  }
  batch_norm_param {
    use_global_stats: false
  }
}
layer {
  name: "conv3/3x3_s1_scale"
  type: "Scale"
  bottom: "bn3"
  top: "bn3"
  param {
    lr_mult: 1
    decay_mult: 1
  }
  param {
    lr_mult: 1
    decay_mult: 0
  }
  scale_param {
    axis: 1
    num_axes: 1
    filler {
      type: "constant"
      value: 1.0000001
    }
    bias_term: true
    bias_filler {
      type: "constant"
      value: 0
    }
  }
}
layer {
  name: "prelu1_3"
  type: "PReLU"
  bottom: "bn3"
  top: "bn3"
  param {
    lr_mult: 0
  }
  prelu_param {
    filler {
      type: "constant"
      value: 0.1
    }
  }
}
layer {
  name: "pool1/3x3_s2"
  type: "Pooling"
  bottom: "bn3"
  top: "pool1/3x3_s2"
  pooling_param {
    pool: MAX
    kernel_size: 3
    stride: 2
    pad: 1
  }
}
layer {
  name: "conv4/3x3_s1"
  type: "Convolution"
  bottom: "pool1/3x3_s2"
  top: "conv4/3x3_s1"
  param {
    lr_mult: 1
    decay_mult: 1
  }
  param {
    lr_mult: 2
    decay_mult: 0
  }
  convolution_param {
    num_output: 32
    pad: 1
    kernel_size: 3
    stride: 1
    weight_filler {
      type: "msra"
    }
    bias_filler {
      type: "constant"
      value: 0.2
    }
  }
}
layer {
  name: "bn4"
  type: "BatchNorm"
  bottom: "conv4/3x3_s1"
  top: "bn4"
  param {
    lr_mult: 0
  }
  param {
    lr_mult: 0
  }
  param {
    lr_mult: 0
  }
  include {
    phase: TRAIN
  }
  batch_norm_param {
    use_global_stats: false
  }
}
layer {
  name: "conv4/3x3_s1_scale"
  type: "Scale"
  bottom: "bn4"
  top: "bn4"
  param {
    lr_mult: 1
    decay_mult: 1
  }
  param {
    lr_mult: 1
    decay_mult: 0
  }
  scale_param {
    axis: 1
    num_axes: 1
    filler {
      type: "constant"
      value: 1.0000001
    }
    bias_term: true
    bias_filler {
      type: "constant"
      value: 0
    }
  }
}
layer {
  name: "prelu1_4"
  type: "PReLU"
  bottom: "bn4"
  top: "bn4"
  param {
    lr_mult: 0
  }
  prelu_param {
    filler {
      type: "constant"
      value: 0.1
    }
  }
}
layer {
  name: "conv5/3x3_s2"
  type: "Convolution"
  bottom: "bn4"
  top: "conv5/3x3_s2"
  param {
    lr_mult: 1
    decay_mult: 1
  }
  param {
    lr_mult: 2
    decay_mult: 0
  }
  convolution_param {
    num_output: 32
    pad: 1
    kernel_size: 3
    stride: 2
    weight_filler {
      type: "msra"
    }
    bias_filler {
      type: "constant"
      value: 0.2
    }
  }
}
layer {
  name: "bn5"
  type: "BatchNorm"
  bottom: "conv5/3x3_s2"
  top: "bn5"
  param {
    lr_mult: 0
  }
  param {
    lr_mult: 0
  }
  param {
    lr_mult: 0
  }
  include {
    phase: TRAIN
  }
  batch_norm_param {
    use_global_stats: false
  }
}
layer {
  name: "conv5/3x3_s2_scale"
  type: "Scale"
  bottom: "bn5"
  top: "bn5"
  param {
    lr_mult: 1
    decay_mult: 1
  }
  param {
    lr_mult: 1
    decay_mult: 0
  }
  scale_param {
    axis: 1
    num_axes: 1
    filler {
      type: "constant"
      value: 1.0000001
    }
    bias_term: true
    bias_filler {
      type: "constant"
      value: 0
    }
  }
}
layer {
  name: "prelu1_5"
  type: "PReLU"
  bottom: "bn5"
  top: "bn5"
  param {
    lr_mult: 0
  }
  prelu_param {
    filler {
      type: "constant"
      value: 0.1
    }
  }
}
layer {
  name: "conv6/3x3_s1"
  type: "Convolution"
  bottom: "bn5"
  top: "conv6/3x3_s1"
  param {
    lr_mult: 1
    decay_mult: 1
  }
  param {
    lr_mult: 2
    decay_mult: 0
  }
  convolution_param {
    num_output: 32
    pad: 1
    kernel_size: 3
    stride: 2
    weight_filler {
      type: "msra"
    }
    bias_filler {
      type: "constant"
      value: 0.2
    }
  }
}
layer {
  name: "bn6"
  type: "BatchNorm"
  bottom: "conv6/3x3_s1"
  top: "bn6"
  param {
    lr_mult: 0
  }
  param {
    lr_mult: 0
  }
  param {
    lr_mult: 0
  }
  include {
    phase: TRAIN
  }
  batch_norm_param {
    use_global_stats: false
  }
}
layer {
  name: "conv6/3x3_s1_scale"
  type: "Scale"
  bottom: "bn6"
  top: "bn6"
  param {
    lr_mult: 1
    decay_mult: 1
  }
  param {
    lr_mult: 1
    decay_mult: 0
  }
  scale_param {
    axis: 1
    num_axes: 1
    filler {
      type: "constant"
      value: 1.0000001
    }
    bias_term: true
    bias_filler {
      type: "constant"
      value: 0
    }
  }
}
layer {
  name: "prelu1_6"
  type: "PReLU"
  bottom: "bn6"
  top: "bn6"
  param {
    lr_mult: 0
  }
  prelu_param {
    filler {
      type: "constant"
      value: 0.1
    }
  }
}
layer {
  name: "inception_3a/1x1"
  type: "Convolution"
  bottom: "bn6"
  top: "inception_3a/1x1"
  param {
    lr_mult: 1
    decay_mult: 1
  }
  param {
    lr_mult: 2
    decay_mult: 0
  }
  convolution_param {
    num_output: 64
    kernel_size: 1
    weight_filler {
      type: "msra"
    }
    bias_filler {
      type: "constant"
      value: 0.2
    }
  }
}
layer {
  name: "bn_inception_3a/1x1"
  type: "BatchNorm"
  bottom: "inception_3a/1x1"
  top: "bn_inception_3a/1x1"
  param {
    lr_mult: 0
  }
  param {
    lr_mult: 0
  }
  param {
    lr_mult: 0
  }
  include {
    phase: TRAIN
  }
  batch_norm_param {
    use_global_stats: false
  }
}
layer {
  name: "bn_inception_3a_scale"
  type: "Scale"
  bottom: "bn_inception_3a/1x1"
  top: "bn_inception_3a/1x1"
  param {
    lr_mult: 1
    decay_mult: 1
  }
  param {
    lr_mult: 1
    decay_mult: 0
  }
  scale_param {
    axis: 1
    num_axes: 1
    filler {
      type: "constant"
      value: 1.0000001
    }
    bias_term: true
    bias_filler {
      type: "constant"
      value: 0
    }
  }
}
layer {
  name: "prelu1_bn_inception_3a"
  type: "PReLU"
  bottom: "bn_inception_3a/1x1"
  top: "bn_inception_3a/1x1"
  param {
    lr_mult: 0
  }
  prelu_param {
    filler {
      type: "constant"
      value: 0.1
    }
  }
}
layer {
  name: "inception_3a/3x3_reduce"
  type: "Convolution"
  bottom: "bn6"
  top: "inception_3a/3x3_reduce"
  param {
    lr_mult: 1
    decay_mult: 1
  }
  param {
    lr_mult: 2
    decay_mult: 0
  }
  convolution_param {
    num_output: 96
    kernel_size: 1
    weight_filler {
      type: "msra"
    }
    bias_filler {
      type: "constant"
      value: 0.2
    }
  }
}
layer {
  name: "bn_inception_3a_3x3reduce"
  type: "BatchNorm"
  bottom: "inception_3a/3x3_reduce"
  top: "bn_inception_3a_3x3reduce"
  param {
    lr_mult: 0
  }
  param {
    lr_mult: 0
  }
  param {
    lr_mult: 0
  }
  include {
    phase: TRAIN
  }
  batch_norm_param {
    use_global_stats: false
  }
}
layer {
  name: "bn_inception_3a_3x3reduce_scale"
  type: "Scale"
  bottom: "bn_inception_3a_3x3reduce"
  top: "bn_inception_3a_3x3reduce"
  param {
    lr_mult: 1
    decay_mult: 1
  }
  param {
    lr_mult: 1
    decay_mult: 0
  }
  scale_param {
    axis: 1
    num_axes: 1
    filler {
      type: "constant"
      value: 1.0000001
    }
    bias_term: true
    bias_filler {
      type: "constant"
      value: 0
    }
  }
}
layer {
  name: "prelu1_bn_inception_3a_3x3reduce"
  type: "PReLU"
  bottom: "bn_inception_3a_3x3reduce"
  top: "bn_inception_3a_3x3reduce"
  param {
    lr_mult: 0
  }
  prelu_param {
    filler {
      type: "constant"
      value: 0.1
    }
  }
}
layer {
  name: "inception_3a/3x3"
  type: "Convolution"
  bottom: "bn_inception_3a_3x3reduce"
  top: "inception_3a/3x3"
  param {
    lr_mult: 1
    decay_mult: 1
  }
  param {
    lr_mult: 2
    decay_mult: 0
  }
  convolution_param {
    num_output: 128
    pad: 1
    kernel_size: 3
    weight_filler {
      type: "msra"
    }
    bias_filler {
      type: "constant"
      value: 0.2
    }
  }
}
layer {
  name: "bn_inception_3a/3x3"
  type: "BatchNorm"
  bottom: "inception_3a/3x3"
  top: "bn_inception_3a/3x3"
  param {
    lr_mult: 0
  }
  param {
    lr_mult: 0
  }
  param {
    lr_mult: 0
  }
  include {
    phase: TRAIN
  }
  batch_norm_param {
    use_global_stats: false
  }
}
layer {
  name: "bn_inception_3a/3x3_scale"
  type: "Scale"
  bottom: "bn_inception_3a/3x3"
  top: "bn_inception_3a/3x3"
  param {
    lr_mult: 1
    decay_mult: 1
  }
  param {
    lr_mult: 1
    decay_mult: 0
  }
  scale_param {
    axis: 1
    num_axes: 1
    filler {
      type: "constant"
      value: 1.0000001
    }
    bias_term: true
    bias_filler {
      type: "constant"
      value: 0
    }
  }
}
layer {
  name: "prelu1_bn_inception_3a/3x3"
  type: "PReLU"
  bottom: "bn_inception_3a/3x3"
  top: "bn_inception_3a/3x3"
  param {
    lr_mult: 0
  }
  prelu_param {
    filler {
      type: "constant"
      value: 0.1
    }
  }
}
layer {
  name: "inception_3a/3x3x2_reduce"
  type: "Convolution"
  bottom: "bn6"
  top: "inception_3a/3x3x2_reduce"
  param {
    lr_mult: 1
    decay_mult: 1
  }
  param {
    lr_mult: 2
    decay_mult: 0
  }
  convolution_param {
    num_output: 16
    kernel_size: 1
    weight_filler {
      type: "msra"
    }
    bias_filler {
      type: "constant"
      value: 0.2
    }
  }
}
layer {
  name: "bn_inception_3a/3x3x2"
  type: "BatchNorm"
  bottom: "inception_3a/3x3x2_reduce"
  top: "bn_inception_3a/3x3x2"
  param {
    lr_mult: 0
  }
  param {
    lr_mult: 0
  }
  param {
    lr_mult: 0
  }
  include {
    phase: TRAIN
  }
  batch_norm_param {
    use_global_stats: false
  }
}
layer {
  name: "bn_inception_3a/3x3x2_scale"
  type: "Scale"
  bottom: "bn_inception_3a/3x3x2"
  top: "bn_inception_3a/3x3x2"
  param {
    lr_mult: 1
    decay_mult: 1
  }
  param {
    lr_mult: 1
    decay_mult: 0
  }
  scale_param {
    axis: 1
    num_axes: 1
    filler {
      type: "constant"
      value: 1.0000001
    }
    bias_term: true
    bias_filler {
      type: "constant"
      value: 0
    }
  }
}
layer {
  name: "prelu1_bn_inception_3a/3x3x2"
  type: "PReLU"
  bottom: "bn_inception_3a/3x3x2"
  top: "bn_inception_3a/3x3x2"
  param {
    lr_mult: 0
  }
  prelu_param {
    filler {
      type: "constant"
      value: 0.1
    }
  }
}
layer {
  name: "inception_3a/3x3x2_1"
  type: "Convolution"
  bottom: "bn_inception_3a/3x3x2"
  top: "inception_3a/3x3x2_1"
  param {
    lr_mult: 1
    decay_mult: 1
  }
  param {
    lr_mult: 2
    decay_mult: 0
  }
  convolution_param {
    num_output: 32
    pad: 1
    kernel_size: 3
    weight_filler {
      type: "msra"
    }
    bias_filler {
      type: "constant"
      value: 0.2
    }
  }
}
layer {
  name: "bn_inception_3a/3x3x2_1"
  type: "BatchNorm"
  bottom: "inception_3a/3x3x2_1"
  top: "bn_inception_3a/3x3x2_1"
  param {
    lr_mult: 0
  }
  param {
    lr_mult: 0
  }
  param {
    lr_mult: 0
  }
  include {
    phase: TRAIN
  }
  batch_norm_param {
    use_global_stats: false
  }
}
layer {
  name: "bn_inception_3a/3x3x2_1_scale"
  type: "Scale"
  bottom: "bn_inception_3a/3x3x2_1"
  top: "bn_inception_3a/3x3x2_1"
  param {
    lr_mult: 1
    decay_mult: 1
  }
  param {
    lr_mult: 1
    decay_mult: 0
  }
  scale_param {
    axis: 1
    num_axes: 1
    filler {
      type: "constant"
      value: 1.0000001
    }
    bias_term: true
    bias_filler {
      type: "constant"
      value: 0
    }
  }
}
layer {
  name: "prelu1_bn_inception_3a/3x3x2_1"
  type: "PReLU"
  bottom: "bn_inception_3a/3x3x2_1"
  top: "bn_inception_3a/3x3x2_1"
  param {
    lr_mult: 0
  }
  prelu_param {
    filler {
      type: "constant"
      value: 0.1
    }
  }
}
layer {
  name: "inception_3a/3x3x2_2"
  type: "Convolution"
  bottom: "bn_inception_3a/3x3x2_1"
  top: "inception_3a/3x3x2_2"
  param {
    lr_mult: 1
    decay_mult: 1
  }
  param {
    lr_mult: 2
    decay_mult: 0
  }
  convolution_param {
    num_output: 32
    pad: 1
    kernel_size: 3
    weight_filler {
      type: "msra"
    }
    bias_filler {
      type: "constant"
      value: 0.2
    }
  }
}
layer {
  name: "bn_inception_3a/3x3x2_2"
  type: "BatchNorm"
  bottom: "inception_3a/3x3x2_2"
  top: "bn_inception_3a/3x3x2_2"
  param {
    lr_mult: 0
  }
  param {
    lr_mult: 0
  }
  param {
    lr_mult: 0
  }
  include {
    phase: TRAIN
  }
  batch_norm_param {
    use_global_stats: false
  }
}
layer {
  name: "bn_inception_3a/3x3x2_2_scale"
  type: "Scale"
  bottom: "bn_inception_3a/3x3x2_2"
  top: "bn_inception_3a/3x3x2_2"
  param {
    lr_mult: 1
    decay_mult: 1
  }
  param {
    lr_mult: 1
    decay_mult: 0
  }
  scale_param {
    axis: 1
    num_axes: 1
    filler {
      type: "constant"
      value: 1.0000001
    }
    bias_term: true
    bias_filler {
      type: "constant"
      value: 0
    }
  }
}
layer {
  name: "prelu1_bn_inception_3a/3x3x2_2"
  type: "PReLU"
  bottom: "bn_inception_3a/3x3x2_2"
  top: "bn_inception_3a/3x3x2_2"
  param {
    lr_mult: 0
  }
  prelu_param {
    filler {
      type: "constant"
      value: 0.1
    }
  }
}
layer {
  name: "inception_3a/pool"
  type: "Pooling"
  bottom: "bn6"
  top: "inception_3a/pool"
  pooling_param {
    pool: MAX
    kernel_size: 3
    stride: 1
    pad: 1
  }
}
layer {
  name: "inception_3a/pool_proj"
  type: "Convolution"
  bottom: "inception_3a/pool"
  top: "inception_3a/pool_proj"
  param {
    lr_mult: 1
    decay_mult: 1
  }
  param {
    lr_mult: 2
    decay_mult: 0
  }
  convolution_param {
    num_output: 32
    kernel_size: 1
    weight_filler {
      type: "msra"
    }
    bias_filler {
      type: "constant"
      value: 0.2
    }
  }
}
layer {
  name: "bn_inception_3a/pool_proj"
  type: "BatchNorm"
  bottom: "inception_3a/pool_proj"
  top: "bn_inception_3a/pool_proj"
  param {
    lr_mult: 0
  }
  param {
    lr_mult: 0
  }
  param {
    lr_mult: 0
  }
  include {
    phase: TRAIN
  }
  batch_norm_param {
    use_global_stats: false
  }
}
layer {
  name: "bn_inception_3a/pool_proj_scale"
  type: "Scale"
  bottom: "bn_inception_3a/pool_proj"
  top: "bn_inception_3a/pool_proj"
  param {
    lr_mult: 1
    decay_mult: 1
  }
  param {
    lr_mult: 1
    decay_mult: 0
  }
  scale_param {
    axis: 1
    num_axes: 1
    filler {
      type: "constant"
      value: 1.0000001
    }
    bias_term: true
    bias_filler {
      type: "constant"
      value: 0
    }
  }
}
layer {
  name: "prelu1_bn_inception_3a/pool"
  type: "PReLU"
  bottom: "bn_inception_3a/pool_proj"
  top: "bn_inception_3a/pool_proj"
  param {
    lr_mult: 0
  }
  prelu_param {
    filler {
      type: "constant"
      value: 0.1
    }
  }
}
layer {
  name: "inception_3a/output"
  type: "Concat"
  bottom: "bn_inception_3a/1x1"
  bottom: "bn_inception_3a/3x3"
  bottom: "bn_inception_3a/3x3x2_2"
  bottom: "bn_inception_3a/pool_proj"
  top: "inception_3a/output"
}
layer {
  name: "inception_3b/1x1"
  type: "Convolution"
  bottom: "inception_3a/output"
  top: "inception_3b/1x1"
  param {
    lr_mult: 1
    decay_mult: 1
  }
  param {
    lr_mult: 2
    decay_mult: 0
  }
  convolution_param {
    num_output: 64
    kernel_size: 1
    weight_filler {
      type: "msra"
    }
    bias_filler {
      type: "constant"
      value: 0.2
    }
  }
}
layer {
  name: "bn_inception_3b/1x1"
  type: "BatchNorm"
  bottom: "inception_3b/1x1"
  top: "bn_inception_3b/1x1"
  param {
    lr_mult: 0
  }
  param {
    lr_mult: 0
  }
  param {
    lr_mult: 0
  }
  include {
    phase: TRAIN
  }
  batch_norm_param {
    use_global_stats: false
  }
}
layer {
  name: "bn_inception_3b/1x1_scale"
  type: "Scale"
  bottom: "bn_inception_3b/1x1"
  top: "bn_inception_3b/1x1"
  param {
    lr_mult: 1
    decay_mult: 1
  }
  param {
    lr_mult: 1
    decay_mult: 0
  }
  scale_param {
    axis: 1
    num_axes: 1
    filler {
      type: "constant"
      value: 1.0000001
    }
    bias_term: true
    bias_filler {
      type: "constant"
      value: 0
    }
  }
}
layer {
  name: "prelu1_bn_inception_3b"
  type: "PReLU"
  bottom: "bn_inception_3b/1x1"
  top: "bn_inception_3b/1x1"
  param {
    lr_mult: 0
  }
  prelu_param {
    filler {
      type: "constant"
      value: 0.1
    }
  }
}
layer {
  name: "inception_3b/3x3_reduce"
  type: "Convolution"
  bottom: "inception_3a/output"
  top: "inception_3b/3x3_reduce"
  param {
    lr_mult: 1
    decay_mult: 1
  }
  param {
    lr_mult: 2
    decay_mult: 0
  }
  convolution_param {
    num_output: 96
    kernel_size: 1
    weight_filler {
      type: "msra"
    }
    bias_filler {
      type: "constant"
      value: 0.2
    }
  }
}
layer {
  name: "bn_inception_3b_3x3reduce"
  type: "BatchNorm"
  bottom: "inception_3b/3x3_reduce"
  top: "bn_inception_3b_3x3reduce"
  param {
    lr_mult: 0
  }
  param {
    lr_mult: 0
  }
  param {
    lr_mult: 0
  }
  include {
    phase: TRAIN
  }
  batch_norm_param {
    use_global_stats: false
  }
}
layer {
  name: "bn_inception_3b_3x3reduce_scale"
  type: "Scale"
  bottom: "bn_inception_3b_3x3reduce"
  top: "bn_inception_3b_3x3reduce"
  param {
    lr_mult: 1
    decay_mult: 1
  }
  param {
    lr_mult: 1
    decay_mult: 0
  }
  scale_param {
    axis: 1
    num_axes: 1
    filler {
      type: "constant"
      value: 1.0000001
    }
    bias_term: true
    bias_filler {
      type: "constant"
      value: 0
    }
  }
}
layer {
  name: "prelu1_bn_inception_3b_3x3reduce"
  type: "PReLU"
  bottom: "bn_inception_3b_3x3reduce"
  top: "bn_inception_3b_3x3reduce"
  param {
    lr_mult: 0
  }
  prelu_param {
    filler {
      type: "constant"
      value: 0.1
    }
  }
}
layer {
  name: "inception_3b/3x3"
  type: "Convolution"
  bottom: "bn_inception_3b_3x3reduce"
  top: "inception_3b/3x3"
  param {
    lr_mult: 1
    decay_mult: 1
  }
  param {
    lr_mult: 2
    decay_mult: 0
  }
  convolution_param {
    num_output: 128
    pad: 1
    kernel_size: 3
    weight_filler {
      type: "msra"
    }
    bias_filler {
      type: "constant"
      value: 0.2
    }
  }
}
layer {
  name: "bn_inception_3b/3x3"
  type: "BatchNorm"
  bottom: "inception_3b/3x3"
  top: "bn_inception_3b/3x3"
  param {
    lr_mult: 0
  }
  param {
    lr_mult: 0
  }
  param {
    lr_mult: 0
  }
  include {
    phase: TRAIN
  }
  batch_norm_param {
    use_global_stats: false
  }
}
layer {
  name: "bn_inception_3b/3x3_scale"
  type: "Scale"
  bottom: "bn_inception_3b/3x3"
  top: "bn_inception_3b/3x3"
  param {
    lr_mult: 1
    decay_mult: 1
  }
  param {
    lr_mult: 1
    decay_mult: 0
  }
  scale_param {
    axis: 1
    num_axes: 1
    filler {
      type: "constant"
      value: 1.0000001
    }
    bias_term: true
    bias_filler {
      type: "constant"
      value: 0
    }
  }
}
layer {
  name: "prelu1_bn_inception_3b/3x3"
  type: "PReLU"
  bottom: "bn_inception_3b/3x3"
  top: "bn_inception_3b/3x3"
  param {
    lr_mult: 0
  }
  prelu_param {
    filler {
      type: "constant"
      value: 0.1
    }
  }
}
layer {
  name: "inception_3b/3x3x2_reduce"
  type: "Convolution"
  bottom: "inception_3a/output"
  top: "inception_3b/3x3x2_reduce"
  param {
    lr_mult: 1
    decay_mult: 1
  }
  param {
    lr_mult: 2
    decay_mult: 0
  }
  convolution_param {
    num_output: 16
    kernel_size: 1
    weight_filler {
      type: "msra"
    }
    bias_filler {
      type: "constant"
      value: 0.2
    }
  }
}
layer {
  name: "bn_inception_3b/3x3x2"
  type: "BatchNorm"
  bottom: "inception_3b/3x3x2_reduce"
  top: "bn_inception_3b/3x3x2"
  param {
    lr_mult: 0
  }
  param {
    lr_mult: 0
  }
  param {
    lr_mult: 0
  }
  include {
    phase: TRAIN
  }
  batch_norm_param {
    use_global_stats: false
  }
}
layer {
  name: "bn_inception_3b/3x3x2_scale"
  type: "Scale"
  bottom: "bn_inception_3b/3x3x2"
  top: "bn_inception_3b/3x3x2"
  param {
    lr_mult: 1
    decay_mult: 1
  }
  param {
    lr_mult: 1
    decay_mult: 0
  }
  scale_param {
    axis: 1
    num_axes: 1
    filler {
      type: "constant"
      value: 1.0000001
    }
    bias_term: true
    bias_filler {
      type: "constant"
      value: 0
    }
  }
}
layer {
  name: "prelu1_bn_inception_3b/3x3x2"
  type: "PReLU"
  bottom: "bn_inception_3b/3x3x2"
  top: "bn_inception_3b/3x3x2"
  param {
    lr_mult: 0
  }
  prelu_param {
    filler {
      type: "constant"
      value: 0.1
    }
  }
}
layer {
  name: "inception_3b/3x3x2_1"
  type: "Convolution"
  bottom: "bn_inception_3b/3x3x2"
  top: "inception_3b/3x3x2_1"
  param {
    lr_mult: 1
    decay_mult: 1
  }
  param {
    lr_mult: 2
    decay_mult: 0
  }
  convolution_param {
    num_output: 32
    pad: 1
    kernel_size: 3
    weight_filler {
      type: "msra"
    }
    bias_filler {
      type: "constant"
      value: 0.2
    }
  }
}
layer {
  name: "bn_inception_3b/3x3x2_1"
  type: "BatchNorm"
  bottom: "inception_3b/3x3x2_1"
  top: "bn_inception_3b/3x3x2_1"
  param {
    lr_mult: 0
  }
  param {
    lr_mult: 0
  }
  param {
    lr_mult: 0
  }
  include {
    phase: TRAIN
  }
  batch_norm_param {
    use_global_stats: false
  }
}
layer {
  name: "bn_inception_3b/3x3x2_1_scale"
  type: "Scale"
  bottom: "bn_inception_3b/3x3x2_1"
  top: "bn_inception_3b/3x3x2_1"
  param {
    lr_mult: 1
    decay_mult: 1
  }
  param {
    lr_mult: 1
    decay_mult: 0
  }
  scale_param {
    axis: 1
    num_axes: 1
    filler {
      type: "constant"
      value: 1.0000001
    }
    bias_term: true
    bias_filler {
      type: "constant"
      value: 0
    }
  }
}
layer {
  name: "prelu1_bn_inception_3b/3x3x2_1"
  type: "PReLU"
  bottom: "bn_inception_3b/3x3x2_1"
  top: "bn_inception_3b/3x3x2_1"
  param {
    lr_mult: 0
  }
  prelu_param {
    filler {
      type: "constant"
      value: 0.1
    }
  }
}
layer {
  name: "inception_3b/3x3x2_2"
  type: "Convolution"
  bottom: "bn_inception_3b/3x3x2_1"
  top: "inception_3b/3x3x2_2"
  param {
    lr_mult: 1
    decay_mult: 1
  }
  param {
    lr_mult: 2
    decay_mult: 0
  }
  convolution_param {
    num_output: 32
    pad: 1
    kernel_size: 3
    weight_filler {
      type: "msra"
    }
    bias_filler {
      type: "constant"
      value: 0.2
    }
  }
}
layer {
  name: "bn_inception_3b/3x3x2_2"
  type: "BatchNorm"
  bottom: "inception_3b/3x3x2_2"
  top: "bn_inception_3b/3x3x2_2"
  param {
    lr_mult: 0
  }
  param {
    lr_mult: 0
  }
  param {
    lr_mult: 0
  }
  include {
    phase: TRAIN
  }
  batch_norm_param {
    use_global_stats: false
  }
}
layer {
  name: "bn_inception_3b/3x3x2_2_scale"
  type: "Scale"
  bottom: "bn_inception_3b/3x3x2_2"
  top: "bn_inception_3b/3x3x2_2"
  param {
    lr_mult: 1
    decay_mult: 1
  }
  param {
    lr_mult: 1
    decay_mult: 0
  }
  scale_param {
    axis: 1
    num_axes: 1
    filler {
      type: "constant"
      value: 1.0000001
    }
    bias_term: true
    bias_filler {
      type: "constant"
      value: 0
    }
  }
}
layer {
  name: "prelu1_bn_inception_3b/3x3x2_2"
  type: "PReLU"
  bottom: "bn_inception_3b/3x3x2_2"
  top: "bn_inception_3b/3x3x2_2"
  param {
    lr_mult: 0
  }
  prelu_param {
    filler {
      type: "constant"
      value: 0.1
    }
  }
}
layer {
  name: "inception_3b/pool"
  type: "Pooling"
  bottom: "inception_3a/output"
  top: "inception_3b/pool"
  pooling_param {
    pool: MAX
    kernel_size: 3
    stride: 1
    pad: 1
  }
}
layer {
  name: "inception_3b/pool_proj"
  type: "Convolution"
  bottom: "inception_3b/pool"
  top: "inception_3b/pool_proj"
  param {
    lr_mult: 1
    decay_mult: 1
  }
  param {
    lr_mult: 2
    decay_mult: 0
  }
  convolution_param {
    num_output: 32
    kernel_size: 1
    weight_filler {
      type: "msra"
    }
    bias_filler {
      type: "constant"
      value: 0.2
    }
  }
}
layer {
  name: "bn_inception_3b/pool_proj"
  type: "BatchNorm"
  bottom: "inception_3b/pool_proj"
  top: "bn_inception_3b/pool_proj"
  param {
    lr_mult: 0
  }
  param {
    lr_mult: 0
  }
  param {
    lr_mult: 0
  }
  include {
    phase: TRAIN
  }
  batch_norm_param {
    use_global_stats: false
  }
}
layer {
  name: "bn_inception_3b/pool_proj_scale"
  type: "Scale"
  bottom: "bn_inception_3b/pool_proj"
  top: "bn_inception_3b/pool_proj"
  param {
    lr_mult: 1
    decay_mult: 1
  }
  param {
    lr_mult: 1
    decay_mult: 0
  }
  scale_param {
    axis: 1
    num_axes: 1
    filler {
      type: "constant"
      value: 1.0000001
    }
    bias_term: true
    bias_filler {
      type: "constant"
      value: 0
    }
  }
}
layer {
  name: "prelu1_bn_inception_3b/pool"
  type: "PReLU"
  bottom: "bn_inception_3b/pool_proj"
  top: "bn_inception_3b/pool_proj"
  param {
    lr_mult: 0
  }
  prelu_param {
    filler {
      type: "constant"
      value: 0.1
    }
  }
}
layer {
  name: "inception_3b/output"
  type: "Concat"
  bottom: "bn_inception_3b/1x1"
  bottom: "bn_inception_3b/3x3"
  bottom: "bn_inception_3b/3x3x2_2"
  bottom: "bn_inception_3b/pool_proj"
  top: "inception_3b/output"
}
layer {
  name: "inception_3c/1x1"
  type: "Convolution"
  bottom: "inception_3b/output"
  top: "inception_3c/1x1"
  param {
    lr_mult: 1
    decay_mult: 1
  }
  param {
    lr_mult: 2
    decay_mult: 0
  }
  convolution_param {
    num_output: 64
    kernel_size: 1
    weight_filler {
      type: "msra"
    }
    bias_filler {
      type: "constant"
      value: 0.2
    }
  }
}
layer {
  name: "bn_inception_3c/1x1"
  type: "BatchNorm"
  bottom: "inception_3c/1x1"
  top: "bn_inception_3c/1x1"
  param {
    lr_mult: 0
  }
  param {
    lr_mult: 0
  }
  param {
    lr_mult: 0
  }
  include {
    phase: TRAIN
  }
  batch_norm_param {
    use_global_stats: false
  }
}
layer {
  name: "bn_inception_3c/1x1_scale"
  type: "Scale"
  bottom: "bn_inception_3c/1x1"
  top: "bn_inception_3c/1x1"
  param {
    lr_mult: 1
    decay_mult: 1
  }
  param {
    lr_mult: 1
    decay_mult: 0
  }
  scale_param {
    axis: 1
    num_axes: 1
    filler {
      type: "constant"
      value: 1.0000001
    }
    bias_term: true
    bias_filler {
      type: "constant"
      value: 0
    }
  }
}
layer {
  name: "prelu1_bn_inception_3c"
  type: "PReLU"
  bottom: "bn_inception_3c/1x1"
  top: "bn_inception_3c/1x1"
  param {
    lr_mult: 0
  }
  prelu_param {
    filler {
      type: "constant"
      value: 0.1
    }
  }
}
layer {
  name: "inception_3c/3x3_reduce"
  type: "Convolution"
  bottom: "inception_3b/output"
  top: "inception_3c/3x3_reduce"
  param {
    lr_mult: 1
    decay_mult: 1
  }
  param {
    lr_mult: 2
    decay_mult: 0
  }
  convolution_param {
    num_output: 96
    kernel_size: 1
    weight_filler {
      type: "msra"
    }
    bias_filler {
      type: "constant"
      value: 0.2
    }
  }
}
layer {
  name: "bn_inception_3c_3x3reduce"
  type: "BatchNorm"
  bottom: "inception_3c/3x3_reduce"
  top: "bn_inception_3c_3x3reduce"
  param {
    lr_mult: 0
  }
  param {
    lr_mult: 0
  }
  param {
    lr_mult: 0
  }
  include {
    phase: TRAIN
  }
  batch_norm_param {
    use_global_stats: false
  }
}
layer {
  name: "bn_inception_3c_3x3reduce_scale"
  type: "Scale"
  bottom: "bn_inception_3c_3x3reduce"
  top: "bn_inception_3c_3x3reduce"
  param {
    lr_mult: 1
    decay_mult: 1
  }
  param {
    lr_mult: 1
    decay_mult: 0
  }
  scale_param {
    axis: 1
    num_axes: 1
    filler {
      type: "constant"
      va
I0926 19:17:38.700253 10151 layer_factory.hpp:77] Creating layer data
I0926 19:17:38.700634 10151 net.cpp:91] Creating Layer data
I0926 19:17:38.700641 10151 net.cpp:399] data -> data
I0926 19:17:38.700672 10151 net.cpp:399] data -> label
I0926 19:17:38.700682 10151 data_transformer.cpp:25] Loading mean file from: /media/red/BRIDGE/data/BOT/mean.binaryproto
I0926 19:17:38.701375 10158 db_lmdb.cpp:35] Opened lmdb /media/red/DATA/data/BOT/ccrvc_train_lmdb
I0926 19:17:38.715271 10151 data_layer.cpp:41] output data size: 16,3,224,224
I0926 19:17:38.728427 10151 net.cpp:141] Setting up data
I0926 19:17:38.728449 10151 net.cpp:148] Top shape: 16 3 224 224 (2408448)
I0926 19:17:38.728453 10151 net.cpp:148] Top shape: 16 (16)
I0926 19:17:38.728456 10151 net.cpp:156] Memory required for data: 9633856
I0926 19:17:38.728463 10151 layer_factory.hpp:77] Creating layer conv1/3x3_s2
I0926 19:17:38.728483 10151 net.cpp:91] Creating Layer conv1/3x3_s2
I0926 19:17:38.728487 10151 net.cpp:425] conv1/3x3_s2 <- data
I0926 19:17:38.728497 10151 net.cpp:399] conv1/3x3_s2 -> conv1/3x3_s2
I0926 19:17:39.000449 10151 net.cpp:141] Setting up conv1/3x3_s2
I0926 19:17:39.000470 10151 net.cpp:148] Top shape: 16 32 224 224 (25690112)
I0926 19:17:39.000473 10151 net.cpp:156] Memory required for data: 112394304
I0926 19:17:39.000502 10151 layer_factory.hpp:77] Creating layer bn1
I0926 19:17:39.000520 10151 net.cpp:91] Creating Layer bn1
I0926 19:17:39.000540 10151 net.cpp:425] bn1 <- conv1/3x3_s2
I0926 19:17:39.000548 10151 net.cpp:399] bn1 -> bn1
I0926 19:17:39.000712 10151 net.cpp:141] Setting up bn1
I0926 19:17:39.000717 10151 net.cpp:148] Top shape: 16 32 224 224 (25690112)
I0926 19:17:39.000720 10151 net.cpp:156] Memory required for data: 215154752
I0926 19:17:39.000726 10151 layer_factory.hpp:77] Creating layer conv1/3x3_s1_scale
I0926 19:17:39.000751 10151 net.cpp:91] Creating Layer conv1/3x3_s1_scale
I0926 19:17:39.000754 10151 net.cpp:425] conv1/3x3_s1_scale <- bn1
I0926 19:17:39.000775 10151 net.cpp:386] conv1/3x3_s1_scale -> bn1 (in-place)
I0926 19:17:39.000841 10151 layer_factory.hpp:77] Creating layer conv1/3x3_s1_scale
I0926 19:17:39.000988 10151 net.cpp:141] Setting up conv1/3x3_s1_scale
I0926 19:17:39.001005 10151 net.cpp:148] Top shape: 16 32 224 224 (25690112)
I0926 19:17:39.001008 10151 net.cpp:156] Memory required for data: 317915200
I0926 19:17:39.001010 10151 layer_factory.hpp:77] Creating layer prelu1_11
I0926 19:17:39.001032 10151 net.cpp:91] Creating Layer prelu1_11
I0926 19:17:39.001036 10151 net.cpp:425] prelu1_11 <- bn1
I0926 19:17:39.001055 10151 net.cpp:386] prelu1_11 -> bn1 (in-place)
I0926 19:17:39.003047 10151 net.cpp:141] Setting up prelu1_11
I0926 19:17:39.003064 10151 net.cpp:148] Top shape: 16 32 224 224 (25690112)
I0926 19:17:39.003067 10151 net.cpp:156] Memory required for data: 420675648
I0926 19:17:39.003072 10151 layer_factory.hpp:77] Creating layer conv2/3x3_s1
I0926 19:17:39.003095 10151 net.cpp:91] Creating Layer conv2/3x3_s1
I0926 19:17:39.003098 10151 net.cpp:425] conv2/3x3_s1 <- bn1
I0926 19:17:39.003103 10151 net.cpp:399] conv2/3x3_s1 -> conv2/3x3_s1
I0926 19:17:39.004426 10151 net.cpp:141] Setting up conv2/3x3_s1
I0926 19:17:39.004436 10151 net.cpp:148] Top shape: 16 32 224 224 (25690112)
I0926 19:17:39.004463 10151 net.cpp:156] Memory required for data: 523436096
I0926 19:17:39.004472 10151 layer_factory.hpp:77] Creating layer bn2
I0926 19:17:39.004494 10151 net.cpp:91] Creating Layer bn2
I0926 19:17:39.004498 10151 net.cpp:425] bn2 <- conv2/3x3_s1
I0926 19:17:39.004501 10151 net.cpp:399] bn2 -> bn2
I0926 19:17:39.004669 10151 net.cpp:141] Setting up bn2
I0926 19:17:39.004674 10151 net.cpp:148] Top shape: 16 32 224 224 (25690112)
I0926 19:17:39.004676 10151 net.cpp:156] Memory required for data: 626196544
I0926 19:17:39.004680 10151 layer_factory.hpp:77] Creating layer conv2/3x3_s1_scale
I0926 19:17:39.004686 10151 net.cpp:91] Creating Layer conv2/3x3_s1_scale
I0926 19:17:39.004703 10151 net.cpp:425] conv2/3x3_s1_scale <- bn2
I0926 19:17:39.004706 10151 net.cpp:386] conv2/3x3_s1_scale -> bn2 (in-place)
I0926 19:17:39.004745 10151 layer_factory.hpp:77] Creating layer conv2/3x3_s1_scale
I0926 19:17:39.004957 10151 net.cpp:141] Setting up conv2/3x3_s1_scale
I0926 19:17:39.004962 10151 net.cpp:148] Top shape: 16 32 224 224 (25690112)
I0926 19:17:39.004964 10151 net.cpp:156] Memory required for data: 728956992
I0926 19:17:39.004968 10151 layer_factory.hpp:77] Creating layer prelu1_2
I0926 19:17:39.004973 10151 net.cpp:91] Creating Layer prelu1_2
I0926 19:17:39.004989 10151 net.cpp:425] prelu1_2 <- bn2
I0926 19:17:39.004992 10151 net.cpp:386] prelu1_2 -> bn2 (in-place)
I0926 19:17:39.006976 10151 net.cpp:141] Setting up prelu1_2
I0926 19:17:39.006991 10151 net.cpp:148] Top shape: 16 32 224 224 (25690112)
I0926 19:17:39.006994 10151 net.cpp:156] Memory required for data: 831717440
I0926 19:17:39.006999 10151 layer_factory.hpp:77] Creating layer conv3/3x3_s1
I0926 19:17:39.007021 10151 net.cpp:91] Creating Layer conv3/3x3_s1
I0926 19:17:39.007025 10151 net.cpp:425] conv3/3x3_s1 <- bn2
I0926 19:17:39.007031 10151 net.cpp:399] conv3/3x3_s1 -> conv3/3x3_s1
I0926 19:17:39.007915 10151 net.cpp:141] Setting up conv3/3x3_s1
I0926 19:17:39.007923 10151 net.cpp:148] Top shape: 16 32 224 224 (25690112)
I0926 19:17:39.007925 10151 net.cpp:156] Memory required for data: 934477888
I0926 19:17:39.007933 10151 layer_factory.hpp:77] Creating layer bn3
I0926 19:17:39.007952 10151 net.cpp:91] Creating Layer bn3
I0926 19:17:39.007956 10151 net.cpp:425] bn3 <- conv3/3x3_s1
I0926 19:17:39.007961 10151 net.cpp:399] bn3 -> bn3
I0926 19:17:39.008119 10151 net.cpp:141] Setting up bn3
I0926 19:17:39.008124 10151 net.cpp:148] Top shape: 16 32 224 224 (25690112)
I0926 19:17:39.008126 10151 net.cpp:156] Memory required for data: 1037238336
I0926 19:17:39.008131 10151 layer_factory.hpp:77] Creating layer conv3/3x3_s1_scale
I0926 19:17:39.008136 10151 net.cpp:91] Creating Layer conv3/3x3_s1_scale
I0926 19:17:39.008137 10151 net.cpp:425] conv3/3x3_s1_scale <- bn3
I0926 19:17:39.008154 10151 net.cpp:386] conv3/3x3_s1_scale -> bn3 (in-place)
I0926 19:17:39.008191 10151 layer_factory.hpp:77] Creating layer conv3/3x3_s1_scale
I0926 19:17:39.008735 10151 net.cpp:141] Setting up conv3/3x3_s1_scale
I0926 19:17:39.008744 10151 net.cpp:148] Top shape: 16 32 224 224 (25690112)
I0926 19:17:39.008745 10151 net.cpp:156] Memory required for data: 1139998784
I0926 19:17:39.008749 10151 layer_factory.hpp:77] Creating layer prelu1_3
I0926 19:17:39.008754 10151 net.cpp:91] Creating Layer prelu1_3
I0926 19:17:39.008770 10151 net.cpp:425] prelu1_3 <- bn3
I0926 19:17:39.008774 10151 net.cpp:386] prelu1_3 -> bn3 (in-place)
I0926 19:17:39.010679 10151 net.cpp:141] Setting up prelu1_3
I0926 19:17:39.010695 10151 net.cpp:148] Top shape: 16 32 224 224 (25690112)
I0926 19:17:39.010697 10151 net.cpp:156] Memory required for data: 1242759232
I0926 19:17:39.010700 10151 layer_factory.hpp:77] Creating layer pool1/3x3_s2
I0926 19:17:39.010725 10151 net.cpp:91] Creating Layer pool1/3x3_s2
I0926 19:17:39.010727 10151 net.cpp:425] pool1/3x3_s2 <- bn3
I0926 19:17:39.010733 10151 net.cpp:399] pool1/3x3_s2 -> pool1/3x3_s2
I0926 19:17:39.010787 10151 net.cpp:141] Setting up pool1/3x3_s2
I0926 19:17:39.010792 10151 net.cpp:148] Top shape: 16 32 113 113 (6537728)
I0926 19:17:39.010793 10151 net.cpp:156] Memory required for data: 1268910144
I0926 19:17:39.010820 10151 layer_factory.hpp:77] Creating layer conv4/3x3_s1
I0926 19:17:39.010829 10151 net.cpp:91] Creating Layer conv4/3x3_s1
I0926 19:17:39.010833 10151 net.cpp:425] conv4/3x3_s1 <- pool1/3x3_s2
I0926 19:17:39.010838 10151 net.cpp:399] conv4/3x3_s1 -> conv4/3x3_s1
I0926 19:17:39.011754 10151 net.cpp:141] Setting up conv4/3x3_s1
I0926 19:17:39.011762 10151 net.cpp:148] Top shape: 16 32 113 113 (6537728)
I0926 19:17:39.011780 10151 net.cpp:156] Memory required for data: 1295061056
I0926 19:17:39.011783 10151 layer_factory.hpp:77] Creating layer bn4
I0926 19:17:39.011790 10151 net.cpp:91] Creating Layer bn4
I0926 19:17:39.011792 10151 net.cpp:425] bn4 <- conv4/3x3_s1
I0926 19:17:39.011796 10151 net.cpp:399] bn4 -> bn4
I0926 19:17:39.011946 10151 net.cpp:141] Setting up bn4
I0926 19:17:39.011950 10151 net.cpp:148] Top shape: 16 32 113 113 (6537728)
I0926 19:17:39.011952 10151 net.cpp:156] Memory required for data: 1321211968
I0926 19:17:39.011957 10151 layer_factory.hpp:77] Creating layer conv4/3x3_s1_scale
I0926 19:17:39.011965 10151 net.cpp:91] Creating Layer conv4/3x3_s1_scale
I0926 19:17:39.011968 10151 net.cpp:425] conv4/3x3_s1_scale <- bn4
I0926 19:17:39.011971 10151 net.cpp:386] conv4/3x3_s1_scale -> bn4 (in-place)
I0926 19:17:39.011996 10151 layer_factory.hpp:77] Creating layer conv4/3x3_s1_scale
I0926 19:17:39.012125 10151 net.cpp:141] Setting up conv4/3x3_s1_scale
I0926 19:17:39.012147 10151 net.cpp:148] Top shape: 16 32 113 113 (6537728)
I0926 19:17:39.012151 10151 net.cpp:156] Memory required for data: 1347362880
I0926 19:17:39.012156 10151 layer_factory.hpp:77] Creating layer prelu1_4
I0926 19:17:39.012163 10151 net.cpp:91] Creating Layer prelu1_4
I0926 19:17:39.012167 10151 net.cpp:425] prelu1_4 <- bn4
I0926 19:17:39.012173 10151 net.cpp:386] prelu1_4 -> bn4 (in-place)
I0926 19:17:39.012928 10151 net.cpp:141] Setting up prelu1_4
I0926 19:17:39.012938 10151 net.cpp:148] Top shape: 16 32 113 113 (6537728)
I0926 19:17:39.012940 10151 net.cpp:156] Memory required for data: 1373513792
I0926 19:17:39.012958 10151 layer_factory.hpp:77] Creating layer conv5/3x3_s2
I0926 19:17:39.012965 10151 net.cpp:91] Creating Layer conv5/3x3_s2
I0926 19:17:39.012969 10151 net.cpp:425] conv5/3x3_s2 <- bn4
I0926 19:17:39.012974 10151 net.cpp:399] conv5/3x3_s2 -> conv5/3x3_s2
I0926 19:17:39.014545 10151 net.cpp:141] Setting up conv5/3x3_s2
I0926 19:17:39.014556 10151 net.cpp:148] Top shape: 16 32 57 57 (1663488)
I0926 19:17:39.014559 10151 net.cpp:156] Memory required for data: 1380167744
I0926 19:17:39.014582 10151 layer_factory.hpp:77] Creating layer bn5
I0926 19:17:39.014590 10151 net.cpp:91] Creating Layer bn5
I0926 19:17:39.014593 10151 net.cpp:425] bn5 <- conv5/3x3_s2
I0926 19:17:39.014611 10151 net.cpp:399] bn5 -> bn5
I0926 19:17:39.014765 10151 net.cpp:141] Setting up bn5
I0926 19:17:39.014770 10151 net.cpp:148] Top shape: 16 32 57 57 (1663488)
I0926 19:17:39.014772 10151 net.cpp:156] Memory required for data: 1386821696
I0926 19:17:39.014777 10151 layer_factory.hpp:77] Creating layer conv5/3x3_s2_scale
I0926 19:17:39.014782 10151 net.cpp:91] Creating Layer conv5/3x3_s2_scale
I0926 19:17:39.014785 10151 net.cpp:425] conv5/3x3_s2_scale <- bn5
I0926 19:17:39.014801 10151 net.cpp:386] conv5/3x3_s2_scale -> bn5 (in-place)
I0926 19:17:39.014843 10151 layer_factory.hpp:77] Creating layer conv5/3x3_s2_scale
I0926 19:17:39.014968 10151 net.cpp:141] Setting up conv5/3x3_s2_scale
I0926 19:17:39.014973 10151 net.cpp:148] Top shape: 16 32 57 57 (1663488)
I0926 19:17:39.014976 10151 net.cpp:156] Memory required for data: 1393475648
I0926 19:17:39.014978 10151 layer_factory.hpp:77] Creating layer prelu1_5
I0926 19:17:39.014982 10151 net.cpp:91] Creating Layer prelu1_5
I0926 19:17:39.014984 10151 net.cpp:425] prelu1_5 <- bn5
I0926 19:17:39.015002 10151 net.cpp:386] prelu1_5 -> bn5 (in-place)
I0926 19:17:39.015152 10151 net.cpp:141] Setting up prelu1_5
I0926 19:17:39.015156 10151 net.cpp:148] Top shape: 16 32 57 57 (1663488)
I0926 19:17:39.015158 10151 net.cpp:156] Memory required for data: 1400129600
I0926 19:17:39.015171 10151 layer_factory.hpp:77] Creating layer conv6/3x3_s1
I0926 19:17:39.015190 10151 net.cpp:91] Creating Layer conv6/3x3_s1
I0926 19:17:39.015192 10151 net.cpp:425] conv6/3x3_s1 <- bn5
I0926 19:17:39.015198 10151 net.cpp:399] conv6/3x3_s1 -> conv6/3x3_s1
I0926 19:17:39.015847 10151 net.cpp:141] Setting up conv6/3x3_s1
I0926 19:17:39.015854 10151 net.cpp:148] Top shape: 16 32 29 29 (430592)
I0926 19:17:39.015856 10151 net.cpp:156] Memory required for data: 1401851968
I0926 19:17:39.015861 10151 layer_factory.hpp:77] Creating layer bn6
I0926 19:17:39.015864 10151 net.cpp:91] Creating Layer bn6
I0926 19:17:39.015880 10151 net.cpp:425] bn6 <- conv6/3x3_s1
I0926 19:17:39.015884 10151 net.cpp:399] bn6 -> bn6
I0926 19:17:39.016036 10151 net.cpp:141] Setting up bn6
I0926 19:17:39.016041 10151 net.cpp:148] Top shape: 16 32 29 29 (430592)
I0926 19:17:39.016042 10151 net.cpp:156] Memory required for data: 1403574336
I0926 19:17:39.016047 10151 layer_factory.hpp:77] Creating layer conv6/3x3_s1_scale
I0926 19:17:39.016050 10151 net.cpp:91] Creating Layer conv6/3x3_s1_scale
I0926 19:17:39.016052 10151 net.cpp:425] conv6/3x3_s1_scale <- bn6
I0926 19:17:39.016069 10151 net.cpp:386] conv6/3x3_s1_scale -> bn6 (in-place)
I0926 19:17:39.016104 10151 layer_factory.hpp:77] Creating layer conv6/3x3_s1_scale
I0926 19:17:39.016206 10151 net.cpp:141] Setting up conv6/3x3_s1_scale
I0926 19:17:39.016211 10151 net.cpp:148] Top shape: 16 32 29 29 (430592)
I0926 19:17:39.016212 10151 net.cpp:156] Memory required for data: 1405296704
I0926 19:17:39.016216 10151 layer_factory.hpp:77] Creating layer prelu1_6
I0926 19:17:39.016221 10151 net.cpp:91] Creating Layer prelu1_6
I0926 19:17:39.016222 10151 net.cpp:425] prelu1_6 <- bn6
I0926 19:17:39.016224 10151 net.cpp:386] prelu1_6 -> bn6 (in-place)
I0926 19:17:39.016325 10151 net.cpp:141] Setting up prelu1_6
I0926 19:17:39.016330 10151 net.cpp:148] Top shape: 16 32 29 29 (430592)
I0926 19:17:39.016331 10151 net.cpp:156] Memory required for data: 1407019072
I0926 19:17:39.016333 10151 layer_factory.hpp:77] Creating layer bn6_prelu1_6_0_split
I0926 19:17:39.016337 10151 net.cpp:91] Creating Layer bn6_prelu1_6_0_split
I0926 19:17:39.016340 10151 net.cpp:425] bn6_prelu1_6_0_split <- bn6
I0926 19:17:39.016341 10151 net.cpp:399] bn6_prelu1_6_0_split -> bn6_prelu1_6_0_split_0
I0926 19:17:39.016360 10151 net.cpp:399] bn6_prelu1_6_0_split -> bn6_prelu1_6_0_split_1
I0926 19:17:39.016363 10151 net.cpp:399] bn6_prelu1_6_0_split -> bn6_prelu1_6_0_split_2
I0926 19:17:39.016384 10151 net.cpp:399] bn6_prelu1_6_0_split -> bn6_prelu1_6_0_split_3
I0926 19:17:39.016429 10151 net.cpp:141] Setting up bn6_prelu1_6_0_split
I0926 19:17:39.016433 10151 net.cpp:148] Top shape: 16 32 29 29 (430592)
I0926 19:17:39.016449 10151 net.cpp:148] Top shape: 16 32 29 29 (430592)
I0926 19:17:39.016453 10151 net.cpp:148] Top shape: 16 32 29 29 (430592)
I0926 19:17:39.016454 10151 net.cpp:148] Top shape: 16 32 29 29 (430592)
I0926 19:17:39.016456 10151 net.cpp:156] Memory required for data: 1413908544
I0926 19:17:39.016470 10151 layer_factory.hpp:77] Creating layer inception_3a/1x1
I0926 19:17:39.016475 10151 net.cpp:91] Creating Layer inception_3a/1x1
I0926 19:17:39.016479 10151 net.cpp:425] inception_3a/1x1 <- bn6_prelu1_6_0_split_0
I0926 19:17:39.016495 10151 net.cpp:399] inception_3a/1x1 -> inception_3a/1x1
I0926 19:17:39.017143 10151 net.cpp:141] Setting up inception_3a/1x1
I0926 19:17:39.017150 10151 net.cpp:148] Top shape: 16 64 29 29 (861184)
I0926 19:17:39.017153 10151 net.cpp:156] Memory required for data: 1417353280
I0926 19:17:39.017156 10151 layer_factory.hpp:77] Creating layer bn_inception_3a/1x1
I0926 19:17:39.017160 10151 net.cpp:91] Creating Layer bn_inception_3a/1x1
I0926 19:17:39.017177 10151 net.cpp:425] bn_inception_3a/1x1 <- inception_3a/1x1
I0926 19:17:39.017181 10151 net.cpp:399] bn_inception_3a/1x1 -> bn_inception_3a/1x1
I0926 19:17:39.017330 10151 net.cpp:141] Setting up bn_inception_3a/1x1
I0926 19:17:39.017334 10151 net.cpp:148] Top shape: 16 64 29 29 (861184)
I0926 19:17:39.017343 10151 net.cpp:156] Memory required for data: 1420798016
I0926 19:17:39.017346 10151 layer_factory.hpp:77] Creating layer bn_inception_3a_scale
I0926 19:17:39.017365 10151 net.cpp:91] Creating Layer bn_inception_3a_scale
I0926 19:17:39.017367 10151 net.cpp:425] bn_inception_3a_scale <- bn_inception_3a/1x1
I0926 19:17:39.017370 10151 net.cpp:386] bn_inception_3a_scale -> bn_inception_3a/1x1 (in-place)
I0926 19:17:39.017407 10151 layer_factory.hpp:77] Creating layer bn_inception_3a_scale
I0926 19:17:39.017539 10151 net.cpp:141] Setting up bn_inception_3a_scale
I0926 19:17:39.017542 10151 net.cpp:148] Top shape: 16 64 29 29 (861184)
I0926 19:17:39.017544 10151 net.cpp:156] Memory required for data: 1424242752
I0926 19:17:39.017549 10151 layer_factory.hpp:77] Creating layer prelu1_bn_inception_3a
I0926 19:17:39.017551 10151 net.cpp:91] Creating Layer prelu1_bn_inception_3a
I0926 19:17:39.017554 10151 net.cpp:425] prelu1_bn_inception_3a <- bn_inception_3a/1x1
I0926 19:17:39.017556 10151 net.cpp:386] prelu1_bn_inception_3a -> bn_inception_3a/1x1 (in-place)
I0926 19:17:39.017679 10151 net.cpp:141] Setting up prelu1_bn_inception_3a
I0926 19:17:39.017683 10151 net.cpp:148] Top shape: 16 64 29 29 (861184)
I0926 19:17:39.017684 10151 net.cpp:156] Memory required for data: 1427687488
I0926 19:17:39.017688 10151 layer_factory.hpp:77] Creating layer inception_3a/3x3_reduce
I0926 19:17:39.017693 10151 net.cpp:91] Creating Layer inception_3a/3x3_reduce
I0926 19:17:39.017694 10151 net.cpp:425] inception_3a/3x3_reduce <- bn6_prelu1_6_0_split_1
I0926 19:17:39.017711 10151 net.cpp:399] inception_3a/3x3_reduce -> inception_3a/3x3_reduce
I0926 19:17:39.018424 10151 net.cpp:141] Setting up inception_3a/3x3_reduce
I0926 19:17:39.018432 10151 net.cpp:148] Top shape: 16 96 29 29 (1291776)
I0926 19:17:39.018435 10151 net.cpp:156] Memory required for data: 1432854592
I0926 19:17:39.018438 10151 layer_factory.hpp:77] Creating layer bn_inception_3a_3x3reduce
I0926 19:17:39.018457 10151 net.cpp:91] Creating Layer bn_inception_3a_3x3reduce
I0926 19:17:39.018460 10151 net.cpp:425] bn_inception_3a_3x3reduce <- inception_3a/3x3_reduce
I0926 19:17:39.018465 10151 net.cpp:399] bn_inception_3a_3x3reduce -> bn_inception_3a_3x3reduce
I0926 19:17:39.018615 10151 net.cpp:141] Setting up bn_inception_3a_3x3reduce
I0926 19:17:39.018620 10151 net.cpp:148] Top shape: 16 96 29 29 (1291776)
I0926 19:17:39.018622 10151 net.cpp:156] Memory required for data: 1438021696
I0926 19:17:39.018626 10151 layer_factory.hpp:77] Creating layer bn_inception_3a_3x3reduce_scale
I0926 19:17:39.018630 10151 net.cpp:91] Creating Layer bn_inception_3a_3x3reduce_scale
I0926 19:17:39.018646 10151 net.cpp:425] bn_inception_3a_3x3reduce_scale <- bn_inception_3a_3x3reduce
I0926 19:17:39.018649 10151 net.cpp:386] bn_inception_3a_3x3reduce_scale -> bn_inception_3a_3x3reduce (in-place)
I0926 19:17:39.018687 10151 layer_factory.hpp:77] Creating layer bn_inception_3a_3x3reduce_scale
I0926 19:17:39.018767 10151 net.cpp:141] Setting up bn_inception_3a_3x3reduce_scale
I0926 19:17:39.018772 10151 net.cpp:148] Top shape: 16 96 29 29 (1291776)
I0926 19:17:39.018776 10151 net.cpp:156] Memory required for data: 1443188800
I0926 19:17:39.018782 10151 layer_factory.hpp:77] Creating layer prelu1_bn_inception_3a_3x3reduce
I0926 19:17:39.018787 10151 net.cpp:91] Creating Layer prelu1_bn_inception_3a_3x3reduce
I0926 19:17:39.018790 10151 net.cpp:425] prelu1_bn_inception_3a_3x3reduce <- bn_inception_3a_3x3reduce
I0926 19:17:39.018792 10151 net.cpp:386] prelu1_bn_inception_3a_3x3reduce -> bn_inception_3a_3x3reduce (in-place)
I0926 19:17:39.018913 10151 net.cpp:141] Setting up prelu1_bn_inception_3a_3x3reduce
I0926 19:17:39.018916 10151 net.cpp:148] Top shape: 16 96 29 29 (1291776)
I0926 19:17:39.018918 10151 net.cpp:156] Memory required for data: 1448355904
I0926 19:17:39.018921 10151 layer_factory.hpp:77] Creating layer inception_3a/3x3
I0926 19:17:39.018925 10151 net.cpp:91] Creating Layer inception_3a/3x3
I0926 19:17:39.018928 10151 net.cpp:425] inception_3a/3x3 <- bn_inception_3a_3x3reduce
I0926 19:17:39.018951 10151 net.cpp:399] inception_3a/3x3 -> inception_3a/3x3
I0926 19:17:39.021898 10151 net.cpp:141] Setting up inception_3a/3x3
I0926 19:17:39.021905 10151 net.cpp:148] Top shape: 16 128 29 29 (1722368)
I0926 19:17:39.021910 10151 net.cpp:156] Memory required for data: 1455245376
I0926 19:17:39.021921 10151 layer_factory.hpp:77] Creating layer bn_inception_3a/3x3
I0926 19:17:39.021929 10151 net.cpp:91] Creating Layer bn_inception_3a/3x3
I0926 19:17:39.021932 10151 net.cpp:425] bn_inception_3a/3x3 <- inception_3a/3x3
I0926 19:17:39.021939 10151 net.cpp:399] bn_inception_3a/3x3 -> bn_inception_3a/3x3
I0926 19:17:39.022053 10151 net.cpp:141] Setting up bn_inception_3a/3x3
I0926 19:17:39.022058 10151 net.cpp:148] Top shape: 16 128 29 29 (1722368)
I0926 19:17:39.022061 10151 net.cpp:156] Memory required for data: 1462134848
I0926 19:17:39.022068 10151 layer_factory.hpp:77] Creating layer bn_inception_3a/3x3_scale
I0926 19:17:39.022073 10151 net.cpp:91] Creating Layer bn_inception_3a/3x3_scale
I0926 19:17:39.022076 10151 net.cpp:425] bn_inception_3a/3x3_scale <- bn_inception_3a/3x3
I0926 19:17:39.022080 10151 net.cpp:386] bn_inception_3a/3x3_scale -> bn_inception_3a/3x3 (in-place)
I0926 19:17:39.022105 10151 layer_factory.hpp:77] Creating layer bn_inception_3a/3x3_scale
I0926 19:17:39.022200 10151 net.cpp:141] Setting up bn_inception_3a/3x3_scale
I0926 19:17:39.022207 10151 net.cpp:148] Top shape: 16 128 29 29 (1722368)
I0926 19:17:39.022222 10151 net.cpp:156] Memory required for data: 1469024320
I0926 19:17:39.022228 10151 layer_factory.hpp:77] Creating layer prelu1_bn_inception_3a/3x3
I0926 19:17:39.022233 10151 net.cpp:91] Creating Layer prelu1_bn_inception_3a/3x3
I0926 19:17:39.022236 10151 net.cpp:425] prelu1_bn_inception_3a/3x3 <- bn_inception_3a/3x3
I0926 19:17:39.022253 10151 net.cpp:386] prelu1_bn_inception_3a/3x3 -> bn_inception_3a/3x3 (in-place)
I0926 19:17:39.022377 10151 net.cpp:141] Setting up prelu1_bn_inception_3a/3x3
I0926 19:17:39.022382 10151 net.cpp:148] Top shape: 16 128 29 29 (1722368)
I0926 19:17:39.022384 10151 net.cpp:156] Memory required for data: 1475913792
I0926 19:17:39.022388 10151 layer_factory.hpp:77] Creating layer inception_3a/3x3x2_reduce
I0926 19:17:39.022395 10151 net.cpp:91] Creating Layer inception_3a/3x3x2_reduce
I0926 19:17:39.022398 10151 net.cpp:425] inception_3a/3x3x2_reduce <- bn6_prelu1_6_0_split_2
I0926 19:17:39.022403 10151 net.cpp:399] inception_3a/3x3x2_reduce -> inception_3a/3x3x2_reduce
I0926 19:17:39.023017 10151 net.cpp:141] Setting up inception_3a/3x3x2_reduce
I0926 19:17:39.023026 10151 net.cpp:148] Top shape: 16 16 29 29 (215296)
I0926 19:17:39.023030 10151 net.cpp:156] Memory required for data: 1476774976
I0926 19:17:39.023036 10151 layer_factory.hpp:77] Creating layer bn_inception_3a/3x3x2
I0926 19:17:39.023044 10151 net.cpp:91] Creating Layer bn_inception_3a/3x3x2
I0926 19:17:39.023047 10151 net.cpp:425] bn_inception_3a/3x3x2 <- inception_3a/3x3x2_reduce
I0926 19:17:39.023053 10151 net.cpp:399] bn_inception_3a/3x3x2 -> bn_inception_3a/3x3x2
I0926 19:17:39.023177 10151 net.cpp:141] Setting up bn_inception_3a/3x3x2
I0926 19:17:39.023182 10151 net.cpp:148] Top shape: 16 16 29 29 (215296)
I0926 19:17:39.023186 10151 net.cpp:156] Memory required for data: 1477636160
I0926 19:17:39.023192 10151 layer_factory.hpp:77] Creating layer bn_inception_3a/3x3x2_scale
I0926 19:17:39.023200 10151 net.cpp:91] Creating Layer bn_inception_3a/3x3x2_scale
I0926 19:17:39.023202 10151 net.cpp:425] bn_inception_3a/3x3x2_scale <- bn_inception_3a/3x3x2
I0926 19:17:39.023206 10151 net.cpp:386] bn_inception_3a/3x3x2_scale -> bn_inception_3a/3x3x2 (in-place)
I0926 19:17:39.023233 10151 layer_factory.hpp:77] Creating layer bn_inception_3a/3x3x2_scale
I0926 19:17:39.023303 10151 net.cpp:141] Setting up bn_inception_3a/3x3x2_scale
I0926 19:17:39.023308 10151 net.cpp:148] Top shape: 16 16 29 29 (215296)
I0926 19:17:39.023311 10151 net.cpp:156] Memory required for data: 1478497344
I0926 19:17:39.023316 10151 layer_factory.hpp:77] Creating layer prelu1_bn_inception_3a/3x3x2
I0926 19:17:39.023322 10151 net.cpp:91] Creating Layer prelu1_bn_inception_3a/3x3x2
I0926 19:17:39.023331 10151 net.cpp:425] prelu1_bn_inception_3a/3x3x2 <- bn_inception_3a/3x3x2
I0926 19:17:39.023336 10151 net.cpp:386] prelu1_bn_inception_3a/3x3x2 -> bn_inception_3a/3x3x2 (in-place)
I0926 19:17:39.023396 10151 net.cpp:141] Setting up prelu1_bn_inception_3a/3x3x2
I0926 19:17:39.023401 10151 net.cpp:148] Top shape: 16 16 29 29 (215296)
I0926 19:17:39.023404 10151 net.cpp:156] Memory required for data: 1479358528
I0926 19:17:39.023408 10151 layer_factory.hpp:77] Creating layer inception_3a/3x3x2_1
I0926 19:17:39.023416 10151 net.cpp:91] Creating Layer inception_3a/3x3x2_1
I0926 19:17:39.023418 10151 net.cpp:425] inception_3a/3x3x2_1 <- bn_inception_3a/3x3x2
I0926 19:17:39.023424 10151 net.cpp:399] inception_3a/3x3x2_1 -> inception_3a/3x3x2_1
I0926 19:17:39.024125 10151 net.cpp:141] Setting up inception_3a/3x3x2_1
I0926 19:17:39.024133 10151 net.cpp:148] Top shape: 16 32 29 29 (430592)
I0926 19:17:39.024138 10151 net.cpp:156] Memory required for data: 1481080896
I0926 19:17:39.024144 10151 layer_factory.hpp:77] Creating layer bn_inception_3a/3x3x2_1
I0926 19:17:39.024152 10151 net.cpp:91] Creating Layer bn_inception_3a/3x3x2_1
I0926 19:17:39.024155 10151 net.cpp:425] bn_inception_3a/3x3x2_1 <- inception_3a/3x3x2_1
I0926 19:17:39.024161 10151 net.cpp:399] bn_inception_3a/3x3x2_1 -> bn_inception_3a/3x3x2_1
I0926 19:17:39.024283 10151 net.cpp:141] Setting up bn_inception_3a/3x3x2_1
I0926 19:17:39.024288 10151 net.cpp:148] Top shape: 16 32 29 29 (430592)
I0926 19:17:39.024292 10151 net.cpp:156] Memory required for data: 1482803264
I0926 19:17:39.024298 10151 layer_factory.hpp:77] Creating layer bn_inception_3a/3x3x2_1_scale
I0926 19:17:39.024304 10151 net.cpp:91] Creating Layer bn_inception_3a/3x3x2_1_scale
I0926 19:17:39.024308 10151 net.cpp:425] bn_inception_3a/3x3x2_1_scale <- bn_inception_3a/3x3x2_1
I0926 19:17:39.024312 10151 net.cpp:386] bn_inception_3a/3x3x2_1_scale -> bn_inception_3a/3x3x2_1 (in-place)
I0926 19:17:39.024339 10151 layer_factory.hpp:77] Creating layer bn_inception_3a/3x3x2_1_scale
I0926 19:17:39.024410 10151 net.cpp:141] Setting up bn_inception_3a/3x3x2_1_scale
I0926 19:17:39.024415 10151 net.cpp:148] Top shape: 16 32 29 29 (430592)
I0926 19:17:39.024418 10151 net.cpp:156] Memory required for data: 1484525632
I0926 19:17:39.024423 10151 layer_factory.hpp:77] Creating layer prelu1_bn_inception_3a/3x3x2_1
I0926 19:17:39.024430 10151 net.cpp:91] Creating Layer prelu1_bn_inception_3a/3x3x2_1
I0926 19:17:39.024432 10151 net.cpp:425] prelu1_bn_inception_3a/3x3x2_1 <- bn_inception_3a/3x3x2_1
I0926 19:17:39.024436 10151 net.cpp:386] prelu1_bn_inception_3a/3x3x2_1 -> bn_inception_3a/3x3x2_1 (in-place)
I0926 19:17:39.024507 10151 net.cpp:141] Setting up prelu1_bn_inception_3a/3x3x2_1
I0926 19:17:39.024513 10151 net.cpp:148] Top shape: 16 32 29 29 (430592)
I0926 19:17:39.024515 10151 net.cpp:156] Memory required for data: 1486248000
I0926 19:17:39.024519 10151 layer_factory.hpp:77] Creating layer inception_3a/3x3x2_2
I0926 19:17:39.024526 10151 net.cpp:91] Creating Layer inception_3a/3x3x2_2
I0926 19:17:39.024530 10151 net.cpp:425] inception_3a/3x3x2_2 <- bn_inception_3a/3x3x2_1
I0926 19:17:39.024535 10151 net.cpp:399] inception_3a/3x3x2_2 -> inception_3a/3x3x2_2
I0926 19:17:39.025331 10151 net.cpp:141] Setting up inception_3a/3x3x2_2
I0926 19:17:39.025339 10151 net.cpp:148] Top shape: 16 32 29 29 (430592)
I0926 19:17:39.025343 10151 net.cpp:156] Memory required for data: 1487970368
I0926 19:17:39.025349 10151 layer_factory.hpp:77] Creating layer bn_inception_3a/3x3x2_2
I0926 19:17:39.025357 10151 net.cpp:91] Creating Layer bn_inception_3a/3x3x2_2
I0926 19:17:39.025360 10151 net.cpp:425] bn_inception_3a/3x3x2_2 <- inception_3a/3x3x2_2
I0926 19:17:39.025367 10151 net.cpp:399] bn_inception_3a/3x3x2_2 -> bn_inception_3a/3x3x2_2
I0926 19:17:39.025488 10151 net.cpp:141] Setting up bn_inception_3a/3x3x2_2
I0926 19:17:39.025493 10151 net.cpp:148] Top shape: 16 32 29 29 (430592)
I0926 19:17:39.025497 10151 net.cpp:156] Memory required for data: 1489692736
I0926 19:17:39.025509 10151 layer_factory.hpp:77] Creating layer bn_inception_3a/3x3x2_2_scale
I0926 19:17:39.025516 10151 net.cpp:91] Creating Layer bn_inception_3a/3x3x2_2_scale
I0926 19:17:39.025519 10151 net.cpp:425] bn_inception_3a/3x3x2_2_scale <- bn_inception_3a/3x3x2_2
I0926 19:17:39.025524 10151 net.cpp:386] bn_inception_3a/3x3x2_2_scale -> bn_inception_3a/3x3x2_2 (in-place)
I0926 19:17:39.025552 10151 layer_factory.hpp:77] Creating layer bn_inception_3a/3x3x2_2_scale
I0926 19:17:39.025625 10151 net.cpp:141] Setting up bn_inception_3a/3x3x2_2_scale
I0926 19:17:39.025630 10151 net.cpp:148] Top shape: 16 32 29 29 (430592)
I0926 19:17:39.025634 10151 net.cpp:156] Memory required for data: 1491415104
I0926 19:17:39.025638 10151 layer_factory.hpp:77] Creating layer prelu1_bn_inception_3a/3x3x2_2
I0926 19:17:39.025645 10151 net.cpp:91] Creating Layer prelu1_bn_inception_3a/3x3x2_2
I0926 19:17:39.025648 10151 net.cpp:425] prelu1_bn_inception_3a/3x3x2_2 <- bn_inception_3a/3x3x2_2
I0926 19:17:39.025653 10151 net.cpp:386] prelu1_bn_inception_3a/3x3x2_2 -> bn_inception_3a/3x3x2_2 (in-place)
I0926 19:17:39.025724 10151 net.cpp:141] Setting up prelu1_bn_inception_3a/3x3x2_2
I0926 19:17:39.025728 10151 net.cpp:148] Top shape: 16 32 29 29 (430592)
I0926 19:17:39.025732 10151 net.cpp:156] Memory required for data: 1493137472
I0926 19:17:39.025737 10151 layer_factory.hpp:77] Creating layer inception_3a/pool
I0926 19:17:39.025743 10151 net.cpp:91] Creating Layer inception_3a/pool
I0926 19:17:39.025746 10151 net.cpp:425] inception_3a/pool <- bn6_prelu1_6_0_split_3
I0926 19:17:39.025750 10151 net.cpp:399] inception_3a/pool -> inception_3a/pool
I0926 19:17:39.025774 10151 net.cpp:141] Setting up inception_3a/pool
I0926 19:17:39.025779 10151 net.cpp:148] Top shape: 16 32 29 29 (430592)
I0926 19:17:39.025782 10151 net.cpp:156] Memory required for data: 1494859840
I0926 19:17:39.025785 10151 layer_factory.hpp:77] Creating layer inception_3a/pool_proj
I0926 19:17:39.025794 10151 net.cpp:91] Creating Layer inception_3a/pool_proj
I0926 19:17:39.025796 10151 net.cpp:425] inception_3a/pool_proj <- inception_3a/pool
I0926 19:17:39.025802 10151 net.cpp:399] inception_3a/pool_proj -> inception_3a/pool_proj
I0926 19:17:39.026459 10151 net.cpp:141] Setting up inception_3a/pool_proj
I0926 19:17:39.026468 10151 net.cpp:148] Top shape: 16 32 29 29 (430592)
I0926 19:17:39.026469 10151 net.cpp:156] Memory required for data: 1496582208
I0926 19:17:39.026473 10151 layer_factory.hpp:77] Creating layer bn_inception_3a/pool_proj
I0926 19:17:39.026479 10151 net.cpp:91] Creating Layer bn_inception_3a/pool_proj
I0926 19:17:39.026481 10151 net.cpp:425] bn_inception_3a/pool_proj <- inception_3a/pool_proj
I0926 19:17:39.026485 10151 net.cpp:399] bn_inception_3a/pool_proj -> bn_inception_3a/pool_proj
I0926 19:17:39.026605 10151 net.cpp:141] Setting up bn_inception_3a/pool_proj
I0926 19:17:39.026609 10151 net.cpp:148] Top shape: 16 32 29 29 (430592)
I0926 19:17:39.026612 10151 net.cpp:156] Memory required for data: 1498304576
I0926 19:17:39.026615 10151 layer_factory.hpp:77] Creating layer bn_inception_3a/pool_proj_scale
I0926 19:17:39.026619 10151 net.cpp:91] Creating Layer bn_inception_3a/pool_proj_scale
I0926 19:17:39.026623 10151 net.cpp:425] bn_inception_3a/pool_proj_scale <- bn_inception_3a/pool_proj
I0926 19:17:39.026625 10151 net.cpp:386] bn_inception_3a/pool_proj_scale -> bn_inception_3a/pool_proj (in-place)
I0926 19:17:39.026648 10151 layer_factory.hpp:77] Creating layer bn_inception_3a/pool_proj_scale
I0926 19:17:39.026715 10151 net.cpp:141] Setting up bn_inception_3a/pool_proj_scale
I0926 19:17:39.026718 10151 net.cpp:148] Top shape: 16 32 29 29 (430592)
I0926 19:17:39.026721 10151 net.cpp:156] Memory required for data: 1500026944
I0926 19:17:39.026724 10151 layer_factory.hpp:77] Creating layer prelu1_bn_inception_3a/pool
I0926 19:17:39.026728 10151 net.cpp:91] Creating Layer prelu1_bn_inception_3a/pool
I0926 19:17:39.026731 10151 net.cpp:425] prelu1_bn_inception_3a/pool <- bn_inception_3a/pool_proj
I0926 19:17:39.026733 10151 net.cpp:386] prelu1_bn_inception_3a/pool -> bn_inception_3a/pool_proj (in-place)
I0926 19:17:39.026806 10151 net.cpp:141] Setting up prelu1_bn_inception_3a/pool
I0926 19:17:39.026810 10151 net.cpp:148] Top shape: 16 32 29 29 (430592)
I0926 19:17:39.026813 10151 net.cpp:156] Memory required for data: 1501749312
I0926 19:17:39.026815 10151 layer_factory.hpp:77] Creating layer inception_3a/output
I0926 19:17:39.026818 10151 net.cpp:91] Creating Layer inception_3a/output
I0926 19:17:39.026820 10151 net.cpp:425] inception_3a/output <- bn_inception_3a/1x1
I0926 19:17:39.026823 10151 net.cpp:425] inception_3a/output <- bn_inception_3a/3x3
I0926 19:17:39.026825 10151 net.cpp:425] inception_3a/output <- bn_inception_3a/3x3x2_2
I0926 19:17:39.026828 10151 net.cpp:425] inception_3a/output <- bn_inception_3a/pool_proj
I0926 19:17:39.026830 10151 net.cpp:399] inception_3a/output -> inception_3a/output
I0926 19:17:39.026844 10151 net.cpp:141] Setting up inception_3a/output
I0926 19:17:39.026849 10151 net.cpp:148] Top shape: 16 256 29 29 (3444736)
I0926 19:17:39.026850 10151 net.cpp:156] Memory required for data: 1515528256
I0926 19:17:39.026851 10151 layer_factory.hpp:77] Creating layer inception_3a/output_inception_3a/output_0_split
I0926 19:17:39.026854 10151 net.cpp:91] Creating Layer inception_3a/output_inception_3a/output_0_split
I0926 19:17:39.026856 10151 net.cpp:425] inception_3a/output_inception_3a/output_0_split <- inception_3a/output
I0926 19:17:39.026860 10151 net.cpp:399] inception_3a/output_inception_3a/output_0_split -> inception_3a/output_inception_3a/output_0_split_0
I0926 19:17:39.026865 10151 net.cpp:399] inception_3a/output_inception_3a/output_0_split -> inception_3a/output_inception_3a/output_0_split_1
I0926 19:17:39.026867 10151 net.cpp:399] inception_3a/output_inception_3a/output_0_split -> inception_3a/output_inception_3a/output_0_split_2
I0926 19:17:39.026870 10151 net.cpp:399] inception_3a/output_inception_3a/output_0_split -> inception_3a/output_inception_3a/output_0_split_3
I0926 19:17:39.026901 10151 net.cpp:141] Setting up inception_3a/output_inception_3a/output_0_split
I0926 19:17:39.026906 10151 net.cpp:148] Top shape: 16 256 29 29 (3444736)
I0926 19:17:39.026908 10151 net.cpp:148] Top shape: 16 256 29 29 (3444736)
I0926 19:17:39.026911 10151 net.cpp:148] Top shape: 16 256 29 29 (3444736)
I0926 19:17:39.026913 10151 net.cpp:148] Top shape: 16 256 29 29 (3444736)
I0926 19:17:39.026914 10151 net.cpp:156] Memory required for data: 1570644032
I0926 19:17:39.026916 10151 layer_factory.hpp:77] Creating layer inception_3b/1x1
I0926 19:17:39.026923 10151 net.cpp:91] Creating Layer inception_3b/1x1
I0926 19:17:39.026926 10151 net.cpp:425] inception_3b/1x1 <- inception_3a/output_inception_3a/output_0_split_0
I0926 19:17:39.026931 10151 net.cpp:399] inception_3b/1x1 -> inception_3b/1x1
I0926 19:17:39.027904 10151 net.cpp:141] Setting up inception_3b/1x1
I0926 19:17:39.027910 10151 net.cpp:148] Top shape: 16 64 29 29 (861184)
I0926 19:17:39.027912 10151 net.cpp:156] Memory required for data: 1574088768
I0926 19:17:39.027916 10151 layer_factory.hpp:77] Creating layer bn_inception_3b/1x1
I0926 19:17:39.027922 10151 net.cpp:91] Creating Layer bn_inception_3b/1x1
I0926 19:17:39.027925 10151 net.cpp:425] bn_inception_3b/1x1 <- inception_3b/1x1
I0926 19:17:39.027928 10151 net.cpp:399] bn_inception_3b/1x1 -> bn_inception_3b/1x1
I0926 19:17:39.028054 10151 net.cpp:141] Setting up bn_inception_3b/1x1
I0926 19:17:39.028059 10151 net.cpp:148] Top shape: 16 64 29 29 (861184)
I0926 19:17:39.028060 10151 net.cpp:156] Memory required for data: 1577533504
I0926 19:17:39.028077 10151 layer_factory.hpp:77] Creating layer bn_inception_3b/1x1_scale
I0926 19:17:39.028081 10151 net.cpp:91] Creating Layer bn_inception_3b/1x1_scale
I0926 19:17:39.028084 10151 net.cpp:425] bn_inception_3b/1x1_scale <- bn_inception_3b/1x1
I0926 19:17:39.028087 10151 net.cpp:386] bn_inception_3b/1x1_scale -> bn_inception_3b/1x1 (in-place)
I0926 19:17:39.028111 10151 layer_factory.hpp:77] Creating layer bn_inception_3b/1x1_scale
I0926 19:17:39.028198 10151 net.cpp:141] Setting up bn_inception_3b/1x1_scale
I0926 19:17:39.028208 10151 net.cpp:148] Top shape: 16 64 29 29 (861184)
I0926 19:17:39.028209 10151 net.cpp:156] Memory required for data: 1580978240
I0926 19:17:39.028213 10151 layer_factory.hpp:77] Creating layer prelu1_bn_inception_3b
I0926 19:17:39.028218 10151 net.cpp:91] Creating Layer prelu1_bn_inception_3b
I0926 19:17:39.028220 10151 net.cpp:425] prelu1_bn_inception_3b <- bn_inception_3b/1x1
I0926 19:17:39.028223 10151 net.cpp:386] prelu1_bn_inception_3b -> bn_inception_3b/1x1 (in-place)
I0926 19:17:39.028321 10151 net.cpp:141] Setting up prelu1_bn_inception_3b
I0926 19:17:39.028327 10151 net.cpp:148] Top shape: 16 64 29 29 (861184)
I0926 19:17:39.028331 10151 net.cpp:156] Memory required for data: 1584422976
I0926 19:17:39.028334 10151 layer_factory.hpp:77] Creating layer inception_3b/3x3_reduce
I0926 19:17:39.028342 10151 net.cpp:91] Creating Layer inception_3b/3x3_reduce
I0926 19:17:39.028345 10151 net.cpp:425] inception_3b/3x3_reduce <- inception_3a/output_inception_3a/output_0_split_1
I0926 19:17:39.028352 10151 net.cpp:399] inception_3b/3x3_reduce -> inception_3b/3x3_reduce
I0926 19:17:39.029531 10151 net.cpp:141] Setting up inception_3b/3x3_reduce
I0926 19:17:39.029537 10151 net.cpp:148] Top shape: 16 96 29 29 (1291776)
I0926 19:17:39.029541 10151 net.cpp:156] Memory required for data: 1589590080
I0926 19:17:39.029544 10151 layer_factory.hpp:77] Creating layer bn_inception_3b_3x3reduce
I0926 19:17:39.029549 10151 net.cpp:91] Creating Layer bn_inception_3b_3x3reduce
I0926 19:17:39.029552 10151 net.cpp:425] bn_inception_3b_3x3reduce <- inception_3b/3x3_reduce
I0926 19:17:39.029556 10151 net.cpp:399] bn_inception_3b_3x3reduce -> bn_inception_3b_3x3reduce
I0926 19:17:39.029680 10151 net.cpp:141] Setting up bn_inception_3b_3x3reduce
I0926 19:17:39.029685 10151 net.cpp:148] Top shape: 16 96 29 29 (1291776)
I0926 19:17:39.029686 10151 net.cpp:156] Memory required for data: 1594757184
I0926 19:17:39.029690 10151 layer_factory.hpp:77] Creating layer bn_inception_3b_3x3reduce_scale
I0926 19:17:39.029700 10151 net.cpp:91] Creating Layer bn_inception_3b_3x3reduce_scale
I0926 19:17:39.029702 10151 net.cpp:425] bn_inception_3b_3x3reduce_scale <- bn_inception_3b_3x3reduce
I0926 19:17:39.029706 10151 net.cpp:386] bn_inception_3b_3x3reduce_scale -> bn_inception_3b_3x3reduce (in-place)
I0926 19:17:39.029731 10151 layer_factory.hpp:77] Creating layer bn_inception_3b_3x3reduce_scale
I0926 19:17:39.029801 10151 net.cpp:141] Setting up bn_inception_3b_3x3reduce_scale
I0926 19:17:39.029805 10151 net.cpp:148] Top shape: 16 96 29 29 (1291776)
I0926 19:17:39.029808 10151 net.cpp:156] Memory required for data: 1599924288
I0926 19:17:39.029811 10151 layer_factory.hpp:77] Creating layer prelu1_bn_inception_3b_3x3reduce
I0926 19:17:39.029815 10151 net.cpp:91] Creating Layer prelu1_bn_inception_3b_3x3reduce
I0926 19:17:39.029817 10151 net.cpp:425] prelu1_bn_inception_3b_3x3reduce <- bn_inception_3b_3x3reduce
I0926 19:17:39.029821 10151 net.cpp:386] prelu1_bn_inception_3b_3x3reduce -> bn_inception_3b_3x3reduce (in-place)
I0926 19:17:39.030354 10151 net.cpp:141] Setting up prelu1_bn_inception_3b_3x3reduce
I0926 19:17:39.030360 10151 net.cpp:148] Top shape: 16 96 29 29 (1291776)
I0926 19:17:39.030362 10151 net.cpp:156] Memory required for data: 1605091392
I0926 19:17:39.030365 10151 layer_factory.hpp:77] Creating layer inception_3b/3x3
I0926 19:17:39.030372 10151 net.cpp:91] Creating Layer inception_3b/3x3
I0926 19:17:39.030375 10151 net.cpp:425] inception_3b/3x3 <- bn_inception_3b_3x3reduce
I0926 19:17:39.030380 10151 net.cpp:399] inception_3b/3x3 -> inception_3b/3x3
I0926 19:17:39.033171 10151 net.cpp:141] Setting up inception_3b/3x3
I0926 19:17:39.033179 10151 net.cpp:148] Top shape: 16 128 29 29 (1722368)
I0926 19:17:39.033182 10151 net.cpp:156] Memory required for data: 1611980864
I0926 19:17:39.033186 10151 layer_factory.hpp:77] Creating layer bn_inception_3b/3x3
I0926 19:17:39.033191 10151 net.cpp:91] Creating Layer bn_inception_3b/3x3
I0926 19:17:39.033195 10151 net.cpp:425] bn_inception_3b/3x3 <- inception_3b/3x3
I0926 19:17:39.033205 10151 net.cpp:399] bn_inception_3b/3x3 -> bn_inception_3b/3x3
I0926 19:17:39.033327 10151 net.cpp:141] Setting up bn_inception_3b/3x3
I0926 19:17:39.033331 10151 net.cpp:148] Top shape: 16 128 29 29 (1722368)
I0926 19:17:39.033334 10151 net.cpp:156] Memory required for data: 1618870336
I0926 19:17:39.033337 10151 layer_factory.hpp:77] Creating layer bn_inception_3b/3x3_scale
I0926 19:17:39.033342 10151 net.cpp:91] Creating Layer bn_inception_3b/3x3_scale
I0926 19:17:39.033344 10151 net.cpp:425] bn_inception_3b/3x3_scale <- bn_inception_3b/3x3
I0926 19:17:39.033349 10151 net.cpp:386] bn_inception_3b/3x3_scale -> bn_inception_3b/3x3 (in-place)
I0926 19:17:39.033371 10151 layer_factory.hpp:77] Creating layer bn_inception_3b/3x3_scale
I0926 19:17:39.033437 10151 net.cpp:141] Setting up bn_inception_3b/3x3_scale
I0926 19:17:39.033442 10151 net.cpp:148] Top shape: 16 128 29 29 (1722368)
I0926 19:17:39.033443 10151 net.cpp:156] Memory required for data: 1625759808
I0926 19:17:39.033447 10151 layer_factory.hpp:77] Creating layer prelu1_bn_inception_3b/3x3
I0926 19:17:39.033450 10151 net.cpp:91] Creating Layer prelu1_bn_inception_3b/3x3
I0926 19:17:39.033452 10151 net.cpp:425] prelu1_bn_inception_3b/3x3 <- bn_inception_3b/3x3
I0926 19:17:39.033455 10151 net.cpp:386] prelu1_bn_inception_3b/3x3 -> bn_inception_3b/3x3 (in-place)
I0926 19:17:39.033543 10151 net.cpp:141] Setting up prelu1_bn_inception_3b/3x3
I0926 19:17:39.033546 10151 net.cpp:148] Top shape: 16 128 29 29 (1722368)
I0926 19:17:39.033548 10151 net.cpp:156] Memory required for data: 1632649280
I0926 19:17:39.033551 10151 layer_factory.hpp:77] Creating layer inception_3b/3x3x2_reduce
I0926 19:17:39.033556 10151 net.cpp:91] Creating Layer inception_3b/3x3x2_reduce
I0926 19:17:39.033558 10151 net.cpp:425] inception_3b/3x3x2_reduce <- inception_3a/output_inception_3a/output_0_split_2
I0926 19:17:39.033562 10151 net.cpp:399] inception_3b/3x3x2_reduce -> inception_3b/3x3x2_reduce
I0926 19:17:39.034358 10151 net.cpp:141] Setting up inception_3b/3x3x2_reduce
I0926 19:17:39.034365 10151 net.cpp:148] Top shape: 16 16 29 29 (215296)
I0926 19:17:39.034368 10151 net.cpp:156] Memory required for data: 1633510464
I0926 19:17:39.034394 10151 layer_factory.hpp:77] Creating layer bn_inception_3b/3x3x2
I0926 19:17:39.034399 10151 net.cpp:91] Creating Layer bn_inception_3b/3x3x2
I0926 19:17:39.034402 10151 net.cpp:425] bn_inception_3b/3x3x2 <- inception_3b/3x3x2_reduce
I0926 19:17:39.034406 10151 net.cpp:399] bn_inception_3b/3x3x2 -> bn_inception_3b/3x3x2
I0926 19:17:39.034528 10151 net.cpp:141] Setting up bn_inception_3b/3x3x2
I0926 19:17:39.034531 10151 net.cpp:148] Top shape: 16 16 29 29 (215296)
I0926 19:17:39.034533 10151 net.cpp:156] Memory required for data: 1634371648
I0926 19:17:39.034538 10151 layer_factory.hpp:77] Creating layer bn_inception_3b/3x3x2_scale
I0926 19:17:39.034543 10151 net.cpp:91] Creating Layer bn_inception_3b/3x3x2_scale
I0926 19:17:39.034544 10151 net.cpp:425] bn_inception_3b/3x3x2_scale <- bn_inception_3b/3x3x2
I0926 19:17:39.034548 10151 net.cpp:386] bn_inception_3b/3x3x2_scale -> bn_inception_3b/3x3x2 (in-place)
I0926 19:17:39.034570 10151 layer_factory.hpp:77] Creating layer bn_inception_3b/3x3x2_scale
I0926 19:17:39.034641 10151 net.cpp:141] Setting up bn_inception_3b/3x3x2_scale
I0926 19:17:39.034646 10151 net.cpp:148] Top shape: 16 16 29 29 (215296)
I0926 19:17:39.034646 10151 net.cpp:156] Memory required for data: 1635232832
I0926 19:17:39.034651 10151 layer_factory.hpp:77] Creating layer prelu1_bn_inception_3b/3x3x2
I0926 19:17:39.034653 10151 net.cpp:91] Creating Layer prelu1_bn_inception_3b/3x3x2
I0926 19:17:39.034657 10151 net.cpp:425] prelu1_bn_inception_3b/3x3x2 <- bn_inception_3b/3x3x2
I0926 19:17:39.034659 10151 net.cpp:386] prelu1_bn_inception_3b/3x3x2 -> bn_inception_3b/3x3x2 (in-place)
I0926 19:17:39.034716 10151 net.cpp:141] Setting up prelu1_bn_inception_3b/3x3x2
I0926 19:17:39.034720 10151 net.cpp:148] Top shape: 16 16 29 29 (215296)
I0926 19:17:39.034723 10151 net.cpp:156] Memory required for data: 1636094016
I0926 19:17:39.034730 10151 layer_factory.hpp:77] Creating layer inception_3b/3x3x2_1
I0926 19:17:39.034737 10151 net.cpp:91] Creating Layer inception_3b/3x3x2_1
I0926 19:17:39.034739 10151 net.cpp:425] inception_3b/3x3x2_1 <- bn_inception_3b/3x3x2
I0926 19:17:39.034742 10151 net.cpp:399] inception_3b/3x3x2_1 -> inception_3b/3x3x2_1
I0926 19:17:39.035543 10151 net.cpp:141] Setting up inception_3b/3x3x2_1
I0926 19:17:39.035552 10151 net.cpp:148] Top shape: 16 32 29 29 (430592)
I0926 19:17:39.035553 10151 net.cpp:156] Memory required for data: 1637816384
I0926 19:17:39.035557 10151 layer_factory.hpp:77] Creating layer bn_inception_3b/3x3x2_1
I0926 19:17:39.035562 10151 net.cpp:91] Creating Layer bn_inception_3b/3x3x2_1
I0926 19:17:39.035564 10151 net.cpp:425] bn_inception_3b/3x3x2_1 <- inception_3b/3x3x2_1
I0926 19:17:39.035569 10151 net.cpp:399] bn_inception_3b/3x3x2_1 -> bn_inception_3b/3x3x2_1
I0926 19:17:39.035696 10151 net.cpp:141] Setting up bn_inception_3b/3x3x2_1
I0926 19:17:39.035699 10151 net.cpp:148] Top shape: 16 32 29 29 (430592)
I0926 19:17:39.035701 10151 net.cpp:156] Memory required for data: 1639538752
I0926 19:17:39.035706 10151 layer_factory.hpp:77] Creating layer bn_inception_3b/3x3x2_1_scale
I0926 19:17:39.035709 10151 net.cpp:91] Creating Layer bn_inception_3b/3x3x2_1_scale
I0926 19:17:39.035712 10151 net.cpp:425] bn_inception_3b/3x3x2_1_scale <- bn_inception_3b/3x3x2_1
I0926 19:17:39.035714 10151 net.cpp:386] bn_inception_3b/3x3x2_1_scale -> bn_inception_3b/3x3x2_1 (in-place)
I0926 19:17:39.035739 10151 layer_factory.hpp:77] Creating layer bn_inception_3b/3x3x2_1_scale
I0926 19:17:39.035881 10151 net.cpp:141] Setting up bn_inception_3b/3x3x2_1_scale
I0926 19:17:39.035897 10151 net.cpp:148] Top shape: 16 32 29 29 (430592)
I0926 19:17:39.035899 10151 net.cpp:156] Memory required for data: 1641261120
I0926 19:17:39.035902 10151 layer_factory.hpp:77] Creating layer prelu1_bn_inception_3b/3x3x2_1
I0926 19:17:39.035907 10151 net.cpp:91] Creating Layer prelu1_bn_inception_3b/3x3x2_1
I0926 19:17:39.035908 10151 net.cpp:425] prelu1_bn_inception_3b/3x3x2_1 <- bn_inception_3b/3x3x2_1
I0926 19:17:39.035912 10151 net.cpp:386] prelu1_bn_inception_3b/3x3x2_1 -> bn_inception_3b/3x3x2_1 (in-place)
I0926 19:17:39.036015 10151 net.cpp:141] Setting up prelu1_bn_inception_3b/3x3x2_1
I0926 19:17:39.036017 10151 net.cpp:148] Top shape: 16 32 29 29 (430592)
I0926 19:17:39.036020 10151 net.cpp:156] Memory required for data: 1642983488
I0926 19:17:39.036022 10151 layer_factory.hpp:77] Creating layer inception_3b/3x3x2_2
I0926 19:17:39.036026 10151 net.cpp:91] Creating Layer inception_3b/3x3x2_2
I0926 19:17:39.036029 10151 net.cpp:425] inception_3b/3x3x2_2 <- bn_inception_3b/3x3x2_1
I0926 19:17:39.036033 10151 net.cpp:399] inception_3b/3x3x2_2 -> inception_3b/3x3x2_2
I0926 19:17:39.036916 10151 net.cpp:141] Setting up inception_3b/3x3x2_2
I0926 19:17:39.036923 10151 net.cpp:148] Top shape: 16 32 29 29 (430592)
I0926 19:17:39.036926 10151 net.cpp:156] Memory required for data: 1644705856
I0926 19:17:39.036929 10151 layer_factory.hpp:77] Creating layer bn_inception_3b/3x3x2_2
I0926 19:17:39.036934 10151 net.cpp:91] Creating Layer bn_inception_3b/3x3x2_2
I0926 19:17:39.036937 10151 net.cpp:425] bn_inception_3b/3x3x2_2 <- inception_3b/3x3x2_2
I0926 19:17:39.036942 10151 net.cpp:399] bn_inception_3b/3x3x2_2 -> bn_inception_3b/3x3x2_2
I0926 19:17:39.037063 10151 net.cpp:141] Setting up bn_inception_3b/3x3x2_2
I0926 19:17:39.037066 10151 net.cpp:148] Top shape: 16 32 29 29 (430592)
I0926 19:17:39.037068 10151 net.cpp:156] Memory required for data: 1646428224
I0926 19:17:39.037073 10151 layer_factory.hpp:77] Creating layer bn_inception_3b/3x3x2_2_scale
I0926 19:17:39.037077 10151 net.cpp:91] Creating Layer bn_inception_3b/3x3x2_2_scale
I0926 19:17:39.037081 10151 net.cpp:425] bn_inception_3b/3x3x2_2_scale <- bn_inception_3b/3x3x2_2
I0926 19:17:39.037083 10151 net.cpp:386] bn_inception_3b/3x3x2_2_scale -> bn_inception_3b/3x3x2_2 (in-place)
I0926 19:17:39.037107 10151 layer_factory.hpp:77] Creating layer bn_inception_3b/3x3x2_2_scale
I0926 19:17:39.037186 10151 net.cpp:141] Setting up bn_inception_3b/3x3x2_2_scale
I0926 19:17:39.037190 10151 net.cpp:148] Top shape: 16 32 29 29 (430592)
I0926 19:17:39.037192 10151 net.cpp:156] Memory required for data: 1648150592
I0926 19:17:39.037195 10151 layer_factory.hpp:77] Creating layer prelu1_bn_inception_3b/3x3x2_2
I0926 19:17:39.037200 10151 net.cpp:91] Creating Layer prelu1_bn_inception_3b/3x3x2_2
I0926 19:17:39.037202 10151 net.cpp:425] prelu1_bn_inception_3b/3x3x2_2 <- bn_inception_3b/3x3x2_2
I0926 19:17:39.037205 10151 net.cpp:386] prelu1_bn_inception_3b/3x3x2_2 -> bn_inception_3b/3x3x2_2 (in-place)
I0926 19:17:39.037274 10151 net.cpp:141] Setting up prelu1_bn_inception_3b/3x3x2_2
I0926 19:17:39.037278 10151 net.cpp:148] Top shape: 16 32 29 29 (430592)
I0926 19:17:39.037281 10151 net.cpp:156] Memory required for data: 1649872960
I0926 19:17:39.037282 10151 layer_factory.hpp:77] Creating layer inception_3b/pool
I0926 19:17:39.037286 10151 net.cpp:91] Creating Layer inception_3b/pool
I0926 19:17:39.037289 10151 net.cpp:425] inception_3b/pool <- inception_3a/output_inception_3a/output_0_split_3
I0926 19:17:39.037292 10151 net.cpp:399] inception_3b/pool -> inception_3b/pool
I0926 19:17:39.037314 10151 net.cpp:141] Setting up inception_3b/pool
I0926 19:17:39.037317 10151 net.cpp:148] Top shape: 16 256 29 29 (3444736)
I0926 19:17:39.037319 10151 net.cpp:156] Memory required for data: 1663651904
I0926 19:17:39.037322 10151 layer_factory.hpp:77] Creating layer inception_3b/pool_proj
I0926 19:17:39.037327 10151 net.cpp:91] Creating Layer inception_3b/pool_proj
I0926 19:17:39.037328 10151 net.cpp:425] inception_3b/pool_proj <- inception_3b/pool
I0926 19:17:39.037333 10151 net.cpp:399] inception_3b/pool_proj -> inception_3b/pool_proj
I0926 19:17:39.038116 10151 net.cpp:141] Setting up inception_3b/pool_proj
I0926 19:17:39.038123 10151 net.cpp:148] Top shape: 16 32 29 29 (430592)
I0926 19:17:39.038125 10151 net.cpp:156] Memory required for data: 1665374272
I0926 19:17:39.038130 10151 layer_factory.hpp:77] Creating layer bn_inception_3b/pool_proj
I0926 19:17:39.038135 10151 net.cpp:91] Creating Layer bn_inception_3b/pool_proj
I0926 19:17:39.038137 10151 net.cpp:425] bn_inception_3b/pool_proj <- inception_3b/pool_proj
I0926 19:17:39.038146 10151 net.cpp:399] bn_inception_3b/pool_proj -> bn_inception_3b/pool_proj
I0926 19:17:39.038302 10151 net.cpp:141] Setting up bn_inception_3b/pool_proj
I0926 19:17:39.038306 10151 net.cpp:148] Top shape: 16 32 29 29 (430592)
I0926 19:17:39.038308 10151 net.cpp:156] Memory required for data: 1667096640
I0926 19:17:39.038312 10151 layer_factory.hpp:77] Creating layer bn_inception_3b/pool_proj_scale
I0926 19:17:39.038317 10151 net.cpp:91] Creating Layer bn_inception_3b/pool_proj_scale
I0926 19:17:39.038321 10151 net.cpp:425] bn_inception_3b/pool_proj_scale <- bn_inception_3b/pool_proj
I0926 19:17:39.038323 10151 net.cpp:386] bn_inception_3b/pool_proj_scale -> bn_inception_3b/pool_proj (in-place)
I0926 19:17:39.038348 10151 layer_factory.hpp:77] Creating layer bn_inception_3b/pool_proj_scale
I0926 19:17:39.038420 10151 net.cpp:141] Setting up bn_inception_3b/pool_proj_scale
I0926 19:17:39.038424 10151 net.cpp:148] Top shape: 16 32 29 29 (430592)
I0926 19:17:39.038425 10151 net.cpp:156] Memory required for data: 1668819008
I0926 19:17:39.038429 10151 layer_factory.hpp:77] Creating layer prelu1_bn_inception_3b/pool
I0926 19:17:39.038432 10151 net.cpp:91] Creating Layer prelu1_bn_inception_3b/pool
I0926 19:17:39.038434 10151 net.cpp:425] prelu1_bn_inception_3b/pool <- bn_inception_3b/pool_proj
I0926 19:17:39.038439 10151 net.cpp:386] prelu1_bn_inception_3b/pool -> bn_inception_3b/pool_proj (in-place)
I0926 19:17:39.038507 10151 net.cpp:141] Setting up prelu1_bn_inception_3b/pool
I0926 19:17:39.038511 10151 net.cpp:148] Top shape: 16 32 29 29 (430592)
I0926 19:17:39.038512 10151 net.cpp:156] Memory required for data: 1670541376
I0926 19:17:39.038516 10151 layer_factory.hpp:77] Creating layer inception_3b/output
I0926 19:17:39.038518 10151 net.cpp:91] Creating Layer inception_3b/output
I0926 19:17:39.038527 10151 net.cpp:425] inception_3b/output <- bn_inception_3b/1x1
I0926 19:17:39.038529 10151 net.cpp:425] inception_3b/output <- bn_inception_3b/3x3
I0926 19:17:39.038532 10151 net.cpp:425] inception_3b/output <- bn_inception_3b/3x3x2_2
I0926 19:17:39.038534 10151 net.cpp:425] inception_3b/output <- bn_inception_3b/pool_proj
I0926 19:17:39.038537 10151 net.cpp:399] inception_3b/output -> inception_3b/output
I0926 19:17:39.038552 10151 net.cpp:141] Setting up inception_3b/output
I0926 19:17:39.038554 10151 net.cpp:148] Top shape: 16 256 29 29 (3444736)
I0926 19:17:39.038556 10151 net.cpp:156] Memory required for data: 1684320320
I0926 19:17:39.038558 10151 layer_factory.hpp:77] Creating layer inception_3b/output_inception_3b/output_0_split
I0926 19:17:39.038563 10151 net.cpp:91] Creating Layer inception_3b/output_inception_3b/output_0_split
I0926 19:17:39.038564 10151 net.cpp:425] inception_3b/output_inception_3b/output_0_split <- inception_3b/output
I0926 19:17:39.038568 10151 net.cpp:399] inception_3b/output_inception_3b/output_0_split -> inception_3b/output_inception_3b/output_0_split_0
I0926 19:17:39.038571 10151 net.cpp:399] inception_3b/output_inception_3b/output_0_split -> inception_3b/output_inception_3b/output_0_split_1
I0926 19:17:39.038575 10151 net.cpp:399] inception_3b/output_inception_3b/output_0_split -> inception_3b/output_inception_3b/output_0_split_2
I0926 19:17:39.038579 10151 net.cpp:399] inception_3b/output_inception_3b/output_0_split -> inception_3b/output_inception_3b/output_0_split_3
I0926 19:17:39.038612 10151 net.cpp:141] Setting up inception_3b/output_inception_3b/output_0_split
I0926 19:17:39.038616 10151 net.cpp:148] Top shape: 16 256 29 29 (3444736)
I0926 19:17:39.038619 10151 net.cpp:148] Top shape: 16 256 29 29 (3444736)
I0926 19:17:39.038620 10151 net.cpp:148] Top shape: 16 256 29 29 (3444736)
I0926 19:17:39.038622 10151 net.cpp:148] Top shape: 16 256 29 29 (3444736)
I0926 19:17:39.038625 10151 net.cpp:156] Memory required for data: 1739436096
I0926 19:17:39.038626 10151 layer_factory.hpp:77] Creating layer inception_3c/1x1
I0926 19:17:39.038632 10151 net.cpp:91] Creating Layer inception_3c/1x1
I0926 19:17:39.038635 10151 net.cpp:425] inception_3c/1x1 <- inception_3b/output_inception_3b/output_0_split_0
I0926 19:17:39.038638 10151 net.cpp:399] inception_3c/1x1 -> inception_3c/1x1
I0926 19:17:39.039762 10151 net.cpp:141] Setting up inception_3c/1x1
I0926 19:17:39.039768 10151 net.cpp:148] Top shape: 16 64 29 29 (861184)
I0926 19:17:39.039770 10151 net.cpp:156] Memory required for data: 1742880832
I0926 19:17:39.039774 10151 layer_factory.hpp:77] Creating layer bn_inception_3c/1x1
I0926 19:17:39.039779 10151 net.cpp:91] Creating Layer bn_inception_3c/1x1
I0926 19:17:39.039782 10151 net.cpp:425] bn_inception_3c/1x1 <- inception_3c/1x1
I0926 19:17:39.039786 10151 net.cpp:399] bn_inception_3c/1x1 -> bn_inception_3c/1x1
I0926 19:17:39.039913 10151 net.cpp:141] Setting up bn_inception_3c/1x1
I0926 19:17:39.039917 10151 net.cpp:148] Top shape: 16 64 29 29 (861184)
I0926 19:17:39.039919 10151 net.cpp:156] Memory required for data: 1746325568
I0926 19:17:39.039923 10151 layer_factory.hpp:77] Creating layer bn_inception_3c/1x1_scale
I0926 19:17:39.039928 10151 net.cpp:91] Creating Layer bn_inception_3c/1x1_scale
I0926 19:17:39.039930 10151 net.cpp:425] bn_inception_3c/1x1_scale <- bn_inception_3c/1x1
I0926 19:17:39.039933 10151 net.cpp:386] bn_inception_3c/1x1_scale -> bn_inception_3c/1x1 (in-place)
I0926 19:17:39.039958 10151 layer_factory.hpp:77] Creating layer bn_inception_3c/1x1_scale
I0926 19:17:39.040030 10151 net.cpp:141] Setting up bn_inception_3c/1x1_scale
I0926 19:17:39.040035 10151 net.cpp:148] Top shape: 16 64 29 29 (861184)
I0926 19:17:39.040036 10151 net.cpp:156] Memory required for data: 1749770304
I0926 19:17:39.040040 10151 layer_factory.hpp:77] Creating layer prelu1_bn_inception_3c
I0926 19:17:39.040043 10151 net.cpp:91] Creating Layer prelu1_bn_inception_3c
I0926 19:17:39.040045 10151 net.cpp:425] prelu1_bn_inception_3c <- bn_inception_3c/1x1
I0926 19:17:39.040053 10151 net.cpp:386] prelu1_bn_inception_3c -> bn_inception_3c/1x1 (in-place)
I0926 19:17:39.040144 10151 net.cpp:141] Setting up prelu1_bn_inception_3c
I0926 19:17:39.040148 10151 net.cpp:148] Top shape: 16 64 29 29 (861184)
I0926 19:17:39.040149 10151 net.cpp:156] Memory required for data: 1753215040
I0926 19:17:39.040153 10151 layer_factory.hpp:77] Creating layer inception_3c/3x3_reduce
I0926 19:17:39.040158 10151 net.cpp:91] Creating Layer inception_3c/3x3_reduce
I0926 19:17:39.040160 10151 net.cpp:425] inception_3c/3x3_reduce <- inception_3b/output_inception_3b/output_0_split_1
I0926 19:17:39.040164 10151 net.cpp:399] inception_3c/3x3_reduce -> inception_3c/3x3_reduce
I0926 19:17:39.041285 10151 net.cpp:141] Setting up inception_3c/3x3_reduce
I0926 19:17:39.041292 10151 net.cpp:148] Top shape: 16 96 29 29 (1291776)
I0926 19:17:39.041295 10151 net.cpp:156] Memory required for data: 1758382144
I0926 19:17:39.041298 10151 layer_factory.hpp:77] Creating layer bn_inception_3c_3x3reduce
I0926 19:17:39.041303 10151 net.cpp:91] Creating Layer bn_inception_3c_3x3reduce
I0926 19:17:39.041306 10151 net.cpp:425] bn_inception_3c_3x3reduce <- inception_3c/3x3_reduce
I0926 19:17:39.041311 10151 net.cpp:399] bn_inception_3c_3x3reduce -> bn_inception_3c_3x3reduce
I0926 19:17:39.041438 10151 net.cpp:141] Setting up bn_inception_3c_3x3reduce
I0926 19:17:39.041441 10151 net.cpp:148] Top shape: 16 96 29 29 (1291776)
I0926 19:17:39.041443 10151 net.cpp:156] Memory required for data: 1763549248
I0926 19:17:39.041447 10151 layer_factory.hpp:77] Creating layer bn_inception_3c_3x3reduce_scale
I0926 19:17:39.041452 10151 net.cpp:91] Creating Layer bn_inception_3c_3x3reduce_scale
I0926 19:17:39.041455 10151 net.cpp:425] bn_inception_3c_3x3reduce_scale <- bn_inception_3c_3x3reduce
I0926 19:17:39.041458 10151 net.cpp:386] bn_inception_3c_3x3reduce_scale -> bn_inception_3c_3x3reduce (in-place)
I0926 19:17:39.041483 10151 layer_factory.hpp:77] Creating layer bn_inception_3c_3x3reduce_scale
I0926 19:17:39.041556 10151 net.cpp:141] Setting up bn_inception_3c_3x3reduce_scale
I0926 19:17:39.041560 10151 net.cpp:148] Top shape: 16 96 29 29 (1291776)
I0926 19:17:39.041561 10151 net.cpp:156] Memory required for data: 1768716352
I0926 19:17:39.041565 10151 layer_factory.hpp:77] Creating layer prelu1_bn_inception_3c_3x3reduce
I0926 19:17:39.041569 10151 net.cpp:91] Creating Layer prelu1_bn_inception_3c_3x3reduce
I0926 19:17:39.041571 10151 net.cpp:425] prelu1_bn_inception_3c_3x3reduce <- bn_inception_3c_3x3reduce
I0926 19:17:39.041574 10151 net.cpp:386] prelu1_bn_inception_3c_3x3reduce -> bn_inception_3c_3x3reduce (in-place)
I0926 19:17:39.041674 10151 net.cpp:141] Setting up prelu1_bn_inception_3c_3x3reduce
I0926 19:17:39.041678 10151 net.cpp:148] Top shape: 16 96 29 29 (1291776)
I0926 19:17:39.041681 10151 net.cpp:156] Memory required for data: 1773883456
I0926 19:17:39.041683 10151 layer_factory.hpp:77] Creating layer inception_3c/3x3
I0926 19:17:39.041687 10151 net.cpp:91] Creating Layer inception_3c/3x3
I0926 19:17:39.041690 10151 net.cpp:425] inception_3c/3x3 <- bn_inception_3c_3x3reduce
I0926 19:17:39.041694 10151 net.cpp:399] inception_3c/3x3 -> inception_3c/3x3
I0926 19:17:39.044699 10151 net.cpp:141] Setting up inception_3c/3x3
I0926 19:17:39.044708 10151 net.cpp:148] Top shape: 16 128 29 29 (1722368)
I0926 19:17:39.044709 10151 net.cpp:156] Memory required for data: 1780772928
I0926 19:17:39.044713 10151 layer_factory.hpp:77] Creating layer bn_inception_3c/3x3
I0926 19:17:39.044719 10151 net.cpp:91] Creating Layer bn_inception_3c/3x3
I0926 19:17:39.044723 10151 net.cpp:425] bn_inception_3c/3x3 <- inception_3c/3x3
I0926 19:17:39.044726 10151 net.cpp:399] bn_inception_3c/3x3 -> bn_inception_3c/3x3
I0926 19:17:39.044857 10151 net.cpp:141] Setting up bn_inception_3c/3x3
I0926 19:17:39.044862 10151 net.cpp:148] Top shape: 16 128 29 29 (1722368)
I0926 19:17:39.044863 10151 net.cpp:156] Memory required for data: 1787662400
I0926 19:17:39.044868 10151 layer_factory.hpp:77] Creating layer bn_inception_3c/3x3_scale
I0926 19:17:39.044872 10151 net.cpp:91] Creating Layer bn_inception_3c/3x3_scale
I0926 19:17:39.044880 10151 net.cpp:425] bn_inception_3c/3x3_scale <- bn_inception_3c/3x3
I0926 19:17:39.044884 10151 net.cpp:386] bn_inception_3c/3x3_scale -> bn_inception_3c/3x3 (in-place)
I0926 19:17:39.044910 10151 layer_factory.hpp:77] Creating layer bn_inception_3c/3x3_scale
I0926 19:17:39.044980 10151 net.cpp:141] Setting up bn_inception_3c/3x3_scale
I0926 19:17:39.044983 10151 net.cpp:148] Top shape: 16 128 29 29 (1722368)
I0926 19:17:39.044986 10151 net.cpp:156] Memory required for data: 1794551872
I0926 19:17:39.044988 10151 layer_factory.hpp:77] Creating layer prelu1_bn_inception_3c/3x3
I0926 19:17:39.044992 10151 net.cpp:91] Creating Layer prelu1_bn_inception_3c/3x3
I0926 19:17:39.044994 10151 net.cpp:425] prelu1_bn_inception_3c/3x3 <- bn_inception_3c/3x3
I0926 19:17:39.044998 10151 net.cpp:386] prelu1_bn_inception_3c/3x3 -> bn_inception_3c/3x3 (in-place)
I0926 19:17:39.045507 10151 net.cpp:141] Setting up prelu1_bn_inception_3c/3x3
I0926 19:17:39.045513 10151 net.cpp:148] Top shape: 16 128 29 29 (1722368)
I0926 19:17:39.045516 10151 net.cpp:156] Memory required for data: 1801441344
I0926 19:17:39.045518 10151 layer_factory.hpp:77] Creating layer inception_3c/3x3x2_reduce
I0926 19:17:39.045526 10151 net.cpp:91] Creating Layer inception_3c/3x3x2_reduce
I0926 19:17:39.045528 10151 net.cpp:425] inception_3c/3x3x2_reduce <- inception_3b/output_inception_3b/output_0_split_2
I0926 19:17:39.045532 10151 net.cpp:399] inception_3c/3x3x2_reduce -> inception_3c/3x3x2_reduce
I0926 19:17:39.046285 10151 net.cpp:141] Setting up inception_3c/3x3x2_reduce
I0926 19:17:39.046293 10151 net.cpp:148] Top shape: 16 16 29 29 (215296)
I0926 19:17:39.046295 10151 net.cpp:156] Memory required for data: 1802302528
I0926 19:17:39.046299 10151 layer_factory.hpp:77] Creating layer bn_inception_3c/3x3x2
I0926 19:17:39.046304 10151 net.cpp:91] Creating Layer bn_inception_3c/3x3x2
I0926 19:17:39.046308 10151 net.cpp:425] bn_inception_3c/3x3x2 <- inception_3c/3x3x2_reduce
I0926 19:17:39.046313 10151 net.cpp:399] bn_inception_3c/3x3x2 -> bn_inception_3c/3x3x2
I0926 19:17:39.046442 10151 net.cpp:141] Setting up bn_inception_3c/3x3x2
I0926 19:17:39.046447 10151 net.cpp:148] Top shape: 16 16 29 29 (215296)
I0926 19:17:39.046448 10151 net.cpp:156] Memory required for data: 1803163712
I0926 19:17:39.046452 10151 layer_factory.hpp:77] Creating layer bn_inception_3c/3x3x2_scale
I0926 19:17:39.046457 10151 net.cpp:91] Creating Layer bn_inception_3c/3x3x2_scale
I0926 19:17:39.046458 10151 net.cpp:425] bn_inception_3c/3x3x2_scale <- bn_inception_3c/3x3x2
I0926 19:17:39.046463 10151 net.cpp:386] bn_inception_3c/3x3x2_scale -> bn_inception_3c/3x3x2 (in-place)
I0926 19:17:39.046486 10151 layer_factory.hpp:77] Creating layer bn_inception_3c/3x3x2_scale
I0926 19:17:39.046561 10151 net.cpp:141] Setting up bn_inception_3c/3x3x2_scale
I0926 19:17:39.046564 10151 net.cpp:148] Top shape: 16 16 29 29 (215296)
I0926 19:17:39.046566 10151 net.cpp:156] Memory required for data: 1804024896
I0926 19:17:39.046569 10151 layer_factory.hpp:77] Creating layer prelu1_bn_inception_3c/3x3x2
I0926 19:17:39.046573 10151 net.cpp:91] Creating Layer prelu1_bn_inception_3c/3x3x2
I0926 19:17:39.046576 10151 net.cpp:425] prelu1_bn_inception_3c/3x3x2 <- bn_inception_3c/3x3x2
I0926 19:17:39.046581 10151 net.cpp:386] prelu1_bn_inception_3c/3x3x2 -> bn_inception_3c/3x3x2 (in-place)
I0926 19:17:39.046641 10151 net.cpp:141] Setting up prelu1_bn_inception_3c/3x3x2
I0926 19:17:39.046645 10151 net.cpp:148] Top shape: 16 16 29 29 (215296)
I0926 19:17:39.046648 10151 net.cpp:156] Memory required for data: 1804886080
I0926 19:17:39.046649 10151 layer_factory.hpp:77] Creating layer inception_3c/3x3x2_1
I0926 19:17:39.046655 10151 net.cpp:91] Creating Layer inception_3c/3x3x2_1
I0926 19:17:39.046658 10151 net.cpp:425] inception_3c/3x3x2_1 <- bn_inception_3c/3x3x2
I0926 19:17:39.046663 10151 net.cpp:399] inception_3c/3x3x2_1 -> inception_3c/3x3x2_1
I0926 19:17:39.047377 10151 net.cpp:141] Setting up inception_3c/3x3x2_1
I0926 19:17:39.047384 10151 net.cpp:148] Top shape: 16 32 29 29 (430592)
I0926 19:17:39.047392 10151 net.cpp:156] Memory required for data: 1806608448
I0926 19:17:39.047396 10151 layer_factory.hpp:77] Creating layer bn_inception_3c/3x3x2_1
I0926 19:17:39.047401 10151 net.cpp:91] Creating Layer bn_inception_3c/3x3x2_1
I0926 19:17:39.047405 10151 net.cpp:425] bn_inception_3c/3x3x2_1 <- inception_3c/3x3x2_1
I0926 19:17:39.047410 10151 net.cpp:399] bn_inception_3c/3x3x2_1 -> bn_inception_3c/3x3x2_1
I0926 19:17:39.047538 10151 net.cpp:141] Setting up bn_inception_3c/3x3x2_1
I0926 19:17:39.047541 10151 net.cpp:148] Top shape: 16 32 29 29 (430592)
I0926 19:17:39.047544 10151 net.cpp:156] Memory required for data: 1808330816
I0926 19:17:39.047547 10151 layer_factory.hpp:77] Creating layer bn_inception_3c/3x3x2_1_scale
I0926 19:17:39.047552 10151 net.cpp:91] Creating Layer bn_inception_3c/3x3x2_1_scale
I0926 19:17:39.047555 10151 net.cpp:425] bn_inception_3c/3x3x2_1_scale <- bn_inception_3c/3x3x2_1
I0926 19:17:39.047559 10151 net.cpp:386] bn_inception_3c/3x3x2_1_scale -> bn_inception_3c/3x3x2_1 (in-place)
I0926 19:17:39.047582 10151 layer_factory.hpp:77] Creating layer bn_inception_3c/3x3x2_1_scale
I0926 19:17:39.047653 10151 net.cpp:141] Setting up bn_inception_3c/3x3x2_1_scale
I0926 19:17:39.047657 10151 net.cpp:148] Top shape: 16 32 29 29 (430592)
I0926 19:17:39.047658 10151 net.cpp:156] Memory required for data: 1810053184
I0926 19:17:39.047662 10151 layer_factory.hpp:77] Creating layer prelu1_bn_inception_3c/3x3x2_1
I0926 19:17:39.047667 10151 net.cpp:91] Creating Layer prelu1_bn_inception_3c/3x3x2_1
I0926 19:17:39.047668 10151 net.cpp:425] prelu1_bn_inception_3c/3x3x2_1 <- bn_inception_3c/3x3x2_1
I0926 19:17:39.047672 10151 net.cpp:386] prelu1_bn_inception_3c/3x3x2_1 -> bn_inception_3c/3x3x2_1 (in-place)
I0926 19:17:39.048143 10151 net.cpp:141] Setting up prelu1_bn_inception_3c/3x3x2_1
I0926 19:17:39.048149 10151 net.cpp:148] Top shape: 16 32 29 29 (430592)
I0926 19:17:39.048151 10151 net.cpp:156] Memory required for data: 1811775552
I0926 19:17:39.048154 10151 layer_factory.hpp:77] Creating layer inception_3c/3x3x2_2
I0926 19:17:39.048161 10151 net.cpp:91] Creating Layer inception_3c/3x3x2_2
I0926 19:17:39.048164 10151 net.cpp:425] inception_3c/3x3x2_2 <- bn_inception_3c/3x3x2_1
I0926 19:17:39.048168 10151 net.cpp:399] inception_3c/3x3x2_2 -> inception_3c/3x3x2_2
I0926 19:17:39.048810 10151 net.cpp:141] Setting up inception_3c/3x3x2_2
I0926 19:17:39.048815 10151 net.cpp:148] Top shape: 16 32 29 29 (430592)
I0926 19:17:39.048817 10151 net.cpp:156] Memory required for data: 1813497920
I0926 19:17:39.048821 10151 layer_factory.hpp:77] Creating layer bn_inception_3c/3x3x2_2
I0926 19:17:39.048826 10151 net.cpp:91] Creating Layer bn_inception_3c/3x3x2_2
I0926 19:17:39.048828 10151 net.cpp:425] bn_inception_3c/3x3x2_2 <- inception_3c/3x3x2_2
I0926 19:17:39.048832 10151 net.cpp:399] bn_inception_3c/3x3x2_2 -> bn_inception_3c/3x3x2_2
I0926 19:17:39.048961 10151 net.cpp:141] Setting up bn_inception_3c/3x3x2_2
I0926 19:17:39.048964 10151 net.cpp:148] Top shape: 16 32 29 29 (430592)
I0926 19:17:39.048966 10151 net.cpp:156] Memory required for data: 1815220288
I0926 19:17:39.048970 10151 layer_factory.hpp:77] Creating layer bn_inception_3c/3x3x2_2_scale
I0926 19:17:39.048975 10151 net.cpp:91] Creating Layer bn_inception_3c/3x3x2_2_scale
I0926 19:17:39.048977 10151 net.cpp:425] bn_inception_3c/3x3x2_2_scale <- bn_inception_3c/3x3x2_2
I0926 19:17:39.048981 10151 net.cpp:386] bn_inception_3c/3x3x2_2_scale -> bn_inception_3c/3x3x2_2 (in-place)
I0926 19:17:39.049005 10151 layer_factory.hpp:77] Creating layer bn_inception_3c/3x3x2_2_scale
I0926 19:17:39.049078 10151 net.cpp:141] Setting up bn_inception_3c/3x3x2_2_scale
I0926 19:17:39.049082 10151 net.cpp:148] Top shape: 16 32 29 29 (430592)
I0926 19:17:39.049084 10151 net.cpp:156] Memory required for data: 1816942656
I0926 19:17:39.049088 10151 layer_factory.hpp:77] Creating layer prelu1_bn_inception_3c/3x3x2_2
I0926 19:17:39.049091 10151 net.cpp:91] Creating Layer prelu1_bn_inception_3c/3x3x2_2
I0926 19:17:39.049093 10151 net.cpp:425] prelu1_bn_inception_3c/3x3x2_2 <- bn_inception_3c/3x3x2_2
I0926 19:17:39.049101 10151 net.cpp:386] prelu1_bn_inception_3c/3x3x2_2 -> bn_inception_3c/3x3x2_2 (in-place)
I0926 19:17:39.049166 10151 net.cpp:141] Setting up prelu1_bn_inception_3c/3x3x2_2
I0926 19:17:39.049170 10151 net.cpp:148] Top shape: 16 32 29 29 (430592)
I0926 19:17:39.049172 10151 net.cpp:156] Memory required for data: 1818665024
I0926 19:17:39.049175 10151 layer_factory.hpp:77] Creating layer inception_3c/pool
I0926 19:17:39.049178 10151 net.cpp:91] Creating Layer inception_3c/pool
I0926 19:17:39.049181 10151 net.cpp:425] inception_3c/pool <- inception_3b/output_inception_3b/output_0_split_3
I0926 19:17:39.049185 10151 net.cpp:399] inception_3c/pool -> inception_3c/pool
I0926 19:17:39.049207 10151 net.cpp:141] Setting up inception_3c/pool
I0926 19:17:39.049211 10151 net.cpp:148] Top shape: 16 256 29 29 (3444736)
I0926 19:17:39.049212 10151 net.cpp:156] Memory required for data: 1832443968
I0926 19:17:39.049214 10151 layer_factory.hpp:77] Creating layer inception_3c/pool_proj
I0926 19:17:39.049219 10151 net.cpp:91] Creating Layer inception_3c/pool_proj
I0926 19:17:39.049221 10151 net.cpp:425] inception_3c/pool_proj <- inception_3c/pool
I0926 19:17:39.049226 10151 net.cpp:399] inception_3c/pool_proj -> inception_3c/pool_proj
I0926 19:17:39.049995 10151 net.cpp:141] Setting up inception_3c/pool_proj
I0926 19:17:39.050003 10151 net.cpp:148] Top shape: 16 32 29 29 (430592)
I0926 19:17:39.050005 10151 net.cpp:156] Memory required for data: 1834166336
I0926 19:17:39.050009 10151 layer_factory.hpp:77] Creating layer bn_inception_3c/pool_proj
I0926 19:17:39.050014 10151 net.cpp:91] Creating Layer bn_inception_3c/pool_proj
I0926 19:17:39.050017 10151 net.cpp:425] bn_inception_3c/pool_proj <- inception_3c/pool_proj
I0926 19:17:39.050021 10151 net.cpp:399] bn_inception_3c/pool_proj -> bn_inception_3c/pool_proj
I0926 19:17:39.050158 10151 net.cpp:141] Setting up bn_inception_3c/pool_proj
I0926 19:17:39.050179 10151 net.cpp:148] Top shape: 16 32 29 29 (430592)
I0926 19:17:39.050181 10151 net.cpp:156] Memory required for data: 1835888704
I0926 19:17:39.050186 10151 layer_factory.hpp:77] Creating layer bn_inception_3c/pool_proj_scale
I0926 19:17:39.050191 10151 net.cpp:91] Creating Layer bn_inception_3c/pool_proj_scale
I0926 19:17:39.050194 10151 net.cpp:425] bn_inception_3c/pool_proj_scale <- bn_inception_3c/pool_proj
I0926 19:17:39.050196 10151 net.cpp:386] bn_inception_3c/pool_proj_scale -> bn_inception_3c/pool_proj (in-place)
I0926 19:17:39.050223 10151 layer_factory.hpp:77] Creating layer bn_inception_3c/pool_proj_scale
I0926 19:17:39.050310 10151 net.cpp:141] Setting up bn_inception_3c/pool_proj_scale
I0926 19:17:39.050314 10151 net.cpp:148] Top shape: 16 32 29 29 (430592)
I0926 19:17:39.050317 10151 net.cpp:156] Memory required for data: 1837611072
I0926 19:17:39.050319 10151 layer_factory.hpp:77] Creating layer prelu1_bn_inception_3c/pool
I0926 19:17:39.050323 10151 net.cpp:91] Creating Layer prelu1_bn_inception_3c/pool
I0926 19:17:39.050325 10151 net.cpp:425] prelu1_bn_inception_3c/pool <- bn_inception_3c/pool_proj
I0926 19:17:39.050328 10151 net.cpp:386] prelu1_bn_inception_3c/pool -> bn_inception_3c/pool_proj (in-place)
I0926 19:17:39.050390 10151 net.cpp:141] Setting up prelu1_bn_inception_3c/pool
I0926 19:17:39.050393 10151 net.cpp:148] Top shape: 16 32 29 29 (430592)
I0926 19:17:39.050395 10151 net.cpp:156] Memory required for data: 1839333440
I0926 19:17:39.050398 10151 layer_factory.hpp:77] Creating layer inception_3c/output
I0926 19:17:39.050401 10151 net.cpp:91] Creating Layer inception_3c/output
I0926 19:17:39.050403 10151 net.cpp:425] inception_3c/output <- bn_inception_3c/1x1
I0926 19:17:39.050406 10151 net.cpp:425] inception_3c/output <- bn_inception_3c/3x3
I0926 19:17:39.050408 10151 net.cpp:425] inception_3c/output <- bn_inception_3c/3x3x2_2
I0926 19:17:39.050411 10151 net.cpp:425] inception_3c/output <- bn_inception_3c/pool_proj
I0926 19:17:39.050413 10151 net.cpp:399] inception_3c/output -> inception_3c/output
I0926 19:17:39.050428 10151 net.cpp:141] Setting up inception_3c/output
I0926 19:17:39.050438 10151 net.cpp:148] Top shape: 16 256 29 29 (3444736)
I0926 19:17:39.050441 10151 net.cpp:156] Memory required for data: 1853112384
I0926 19:17:39.050442 10151 layer_factory.hpp:77] Creating layer inception_3_end/output
I0926 19:17:39.050446 10151 net.cpp:91] Creating Layer inception_3_end/output
I0926 19:17:39.050447 10151 net.cpp:425] inception_3_end/output <- inception_3c/output
I0926 19:17:39.050452 10151 net.cpp:399] inception_3_end/output -> inception_3_end/output
I0926 19:17:39.050474 10151 net.cpp:141] Setting up inception_3_end/output
I0926 19:17:39.050477 10151 net.cpp:148] Top shape: 16 256 15 15 (921600)
I0926 19:17:39.050479 10151 net.cpp:156] Memory required for data: 1856798784
I0926 19:17:39.050482 10151 layer_factory.hpp:77] Creating layer inception_3_end/output_inception_3_end/output_0_split
I0926 19:17:39.050484 10151 net.cpp:91] Creating Layer inception_3_end/output_inception_3_end/output_0_split
I0926 19:17:39.050487 10151 net.cpp:425] inception_3_end/output_inception_3_end/output_0_split <- inception_3_end/output
I0926 19:17:39.050489 10151 net.cpp:399] inception_3_end/output_inception_3_end/output_0_split -> inception_3_end/output_inception_3_end/output_0_split_0
I0926 19:17:39.050493 10151 net.cpp:399] inception_3_end/output_inception_3_end/output_0_split -> inception_3_end/output_inception_3_end/output_0_split_1
I0926 19:17:39.050496 10151 net.cpp:399] inception_3_end/output_inception_3_end/output_0_split -> inception_3_end/output_inception_3_end/output_0_split_2
I0926 19:17:39.050499 10151 net.cpp:399] inception_3_end/output_inception_3_end/output_0_split -> inception_3_end/output_inception_3_end/output_0_split_3
I0926 19:17:39.050534 10151 net.cpp:141] Setting up inception_3_end/output_inception_3_end/output_0_split
I0926 19:17:39.050537 10151 net.cpp:148] Top shape: 16 256 15 15 (921600)
I0926 19:17:39.050539 10151 net.cpp:148] Top shape: 16 256 15 15 (921600)
I0926 19:17:39.050541 10151 net.cpp:148] Top shape: 16 256 15 15 (921600)
I0926 19:17:39.050544 10151 net.cpp:148] Top shape: 16 256 15 15 (921600)
I0926 19:17:39.050545 10151 net.cpp:156] Memory required for data: 1871544384
I0926 19:17:39.050547 10151 layer_factory.hpp:77] Creating layer inception_4a/1x1
I0926 19:17:39.050552 10151 net.cpp:91] Creating Layer inception_4a/1x1
I0926 19:17:39.050555 10151 net.cpp:425] inception_4a/1x1 <- inception_3_end/output_inception_3_end/output_0_split_0
I0926 19:17:39.050559 10151 net.cpp:399] inception_4a/1x1 -> inception_4a/1x1
I0926 19:17:39.051491 10151 net.cpp:141] Setting up inception_4a/1x1
I0926 19:17:39.051499 10151 net.cpp:148] Top shape: 16 64 15 15 (230400)
I0926 19:17:39.051501 10151 net.cpp:156] Memory required for data: 1872465984
I0926 19:17:39.051506 10151 layer_factory.hpp:77] Creating layer bn_inception_4a/1x1
I0926 19:17:39.051509 10151 net.cpp:91] Creating Layer bn_inception_4a/1x1
I0926 19:17:39.051512 10151 net.cpp:425] bn_inception_4a/1x1 <- inception_4a/1x1
I0926 19:17:39.051517 10151 net.cpp:399] bn_inception_4a/1x1 -> bn_inception_4a/1x1
I0926 19:17:39.051642 10151 net.cpp:141] Setting up bn_inception_4a/1x1
I0926 19:17:39.051646 10151 net.cpp:148] Top shape: 16 64 15 15 (230400)
I0926 19:17:39.051648 10151 net.cpp:156] Memory required for data: 1873387584
I0926 19:17:39.051652 10151 layer_factory.hpp:77] Creating layer bn_inception_4a/1x1_scale
I0926 19:17:39.051657 10151 net.cpp:91] Creating Layer bn_inception_4a/1x1_scale
I0926 19:17:39.051659 10151 net.cpp:425] bn_inception_4a/1x1_scale <- bn_inception_4a/1x1
I0926 19:17:39.051662 10151 net.cpp:386] bn_inception_4a/1x1_scale -> bn_inception_4a/1x1 (in-place)
I0926 19:17:39.051688 10151 layer_factory.hpp:77] Creating layer bn_inception_4a/1x1_scale
I0926 19:17:39.051756 10151 net.cpp:141] Setting up bn_inception_4a/1x1_scale
I0926 19:17:39.051761 10151 net.cpp:148] Top shape: 16 64 15 15 (230400)
I0926 19:17:39.051764 10151 net.cpp:156] Memory required for data: 1874309184
I0926 19:17:39.051766 10151 layer_factory.hpp:77] Creating layer prelu1_bn_inception_4a
I0926 19:17:39.051775 10151 net.cpp:91] Creating Layer prelu1_bn_inception_4a
I0926 19:17:39.051777 10151 net.cpp:425] prelu1_bn_inception_4a <- bn_inception_4a/1x1
I0926 19:17:39.051780 10151 net.cpp:386] prelu1_bn_inception_4a -> bn_inception_4a/1x1 (in-place)
I0926 19:17:39.051842 10151 net.cpp:141] Setting up prelu1_bn_inception_4a
I0926 19:17:39.051846 10151 net.cpp:148] Top shape: 16 64 15 15 (230400)
I0926 19:17:39.051847 10151 net.cpp:156] Memory required for data: 1875230784
I0926 19:17:39.051851 10151 layer_factory.hpp:77] Creating layer inception_4a/1x7x2_reduce
I0926 19:17:39.051854 10151 net.cpp:91] Creating Layer inception_4a/1x7x2_reduce
I0926 19:17:39.051856 10151 net.cpp:425] inception_4a/1x7x2_reduce <- inception_3_end/output_inception_3_end/output_0_split_1
I0926 19:17:39.051862 10151 net.cpp:399] inception_4a/1x7x2_reduce -> inception_4a/1x7x2_reduce
I0926 19:17:39.052953 10151 net.cpp:141] Setting up inception_4a/1x7x2_reduce
I0926 19:17:39.052959 10151 net.cpp:148] Top shape: 16 96 15 15 (345600)
I0926 19:17:39.052963 10151 net.cpp:156] Memory required for data: 1876613184
I0926 19:17:39.052966 10151 layer_factory.hpp:77] Creating layer bn_inception_4a_1x7x2reduce
I0926 19:17:39.052971 10151 net.cpp:91] Creating Layer bn_inception_4a_1x7x2reduce
I0926 19:17:39.052973 10151 net.cpp:425] bn_inception_4a_1x7x2reduce <- inception_4a/1x7x2_reduce
I0926 19:17:39.052978 10151 net.cpp:399] bn_inception_4a_1x7x2reduce -> bn_inception_4a_1x7x2reduce
I0926 19:17:39.053105 10151 net.cpp:141] Setting up bn_inception_4a_1x7x2reduce
I0926 19:17:39.053109 10151 net.cpp:148] Top shape: 16 96 15 15 (345600)
I0926 19:17:39.053112 10151 net.cpp:156] Memory required for data: 1877995584
I0926 19:17:39.053117 10151 layer_factory.hpp:77] Creating layer bn_inception_4a_1x7x2reduce_scale
I0926 19:17:39.053120 10151 net.cpp:91] Creating Layer bn_inception_4a_1x7x2reduce_scale
I0926 19:17:39.053123 10151 net.cpp:425] bn_inception_4a_1x7x2reduce_scale <- bn_inception_4a_1x7x2reduce
I0926 19:17:39.053127 10151 net.cpp:386] bn_inception_4a_1x7x2reduce_scale -> bn_inception_4a_1x7x2reduce (in-place)
I0926 19:17:39.053150 10151 layer_factory.hpp:77] Creating layer bn_inception_4a_1x7x2reduce_scale
I0926 19:17:39.053220 10151 net.cpp:141] Setting up bn_inception_4a_1x7x2reduce_scale
I0926 19:17:39.053223 10151 net.cpp:148] Top shape: 16 96 15 15 (345600)
I0926 19:17:39.053225 10151 net.cpp:156] Memory required for data: 1879377984
I0926 19:17:39.053228 10151 layer_factory.hpp:77] Creating layer prelu1_bn_inception_4a_1x7x2reduce
I0926 19:17:39.053241 10151 net.cpp:91] Creating Layer prelu1_bn_inception_4a_1x7x2reduce
I0926 19:17:39.053244 10151 net.cpp:425] prelu1_bn_inception_4a_1x7x2reduce <- bn_inception_4a_1x7x2reduce
I0926 19:17:39.053247 10151 net.cpp:386] prelu1_bn_inception_4a_1x7x2reduce -> bn_inception_4a_1x7x2reduce (in-place)
I0926 19:17:39.053306 10151 net.cpp:141] Setting up prelu1_bn_inception_4a_1x7x2reduce
I0926 19:17:39.053309 10151 net.cpp:148] Top shape: 16 96 15 15 (345600)
I0926 19:17:39.053311 10151 net.cpp:156] Memory required for data: 1880760384
I0926 19:17:39.053314 10151 layer_factory.hpp:77] Creating layer inception_4a/1x7
I0926 19:17:39.053319 10151 net.cpp:91] Creating Layer inception_4a/1x7
I0926 19:17:39.053323 10151 net.cpp:425] inception_4a/1x7 <- bn_inception_4a_1x7x2reduce
I0926 19:17:39.053325 10151 net.cpp:399] inception_4a/1x7 -> inception_4a/1x7
I0926 19:17:39.055814 10151 net.cpp:141] Setting up inception_4a/1x7
I0926 19:17:39.055821 10151 net.cpp:148] Top shape: 16 128 15 15 (460800)
I0926 19:17:39.055824 10151 net.cpp:156] Memory required for data: 1882603584
I0926 19:17:39.055829 10151 layer_factory.hpp:77] Creating layer bn_inception_4a/1x7
I0926 19:17:39.055833 10151 net.cpp:91] Creating Layer bn_inception_4a/1x7
I0926 19:17:39.055835 10151 net.cpp:425] bn_inception_4a/1x7 <- inception_4a/1x7
I0926 19:17:39.055840 10151 net.cpp:399] bn_inception_4a/1x7 -> bn_inception_4a/1x7
I0926 19:17:39.055965 10151 net.cpp:141] Setting up bn_inception_4a/1x7
I0926 19:17:39.055969 10151 net.cpp:148] Top shape: 16 128 15 15 (460800)
I0926 19:17:39.055976 10151 net.cpp:156] Memory required for data: 1884446784
I0926 19:17:39.055980 10151 layer_factory.hpp:77] Creating layer bn_inception_4a/1x7_scale
I0926 19:17:39.055984 10151 net.cpp:91] Creating Layer bn_inception_4a/1x7_scale
I0926 19:17:39.055987 10151 net.cpp:425] bn_inception_4a/1x7_scale <- bn_inception_4a/1x7
I0926 19:17:39.055990 10151 net.cpp:386] bn_inception_4a/1x7_scale -> bn_inception_4a/1x7 (in-place)
I0926 19:17:39.056016 10151 layer_factory.hpp:77] Creating layer bn_inception_4a/1x7_scale
I0926 19:17:39.056082 10151 net.cpp:141] Setting up bn_inception_4a/1x7_scale
I0926 19:17:39.056085 10151 net.cpp:148] Top shape: 16 128 15 15 (460800)
I0926 19:17:39.056087 10151 net.cpp:156] Memory required for data: 1886289984
I0926 19:17:39.056090 10151 layer_factory.hpp:77] Creating layer prelu1_bn_inception_4a/1x7
I0926 19:17:39.056094 10151 net.cpp:91] Creating Layer prelu1_bn_inception_4a/1x7
I0926 19:17:39.056097 10151 net.cpp:425] prelu1_bn_inception_4a/1x7 <- bn_inception_4a/1x7
I0926 19:17:39.056099 10151 net.cpp:386] prelu1_bn_inception_4a/1x7 -> bn_inception_4a/1x7 (in-place)
I0926 19:17:39.056165 10151 net.cpp:141] Setting up prelu1_bn_inception_4a/1x7
I0926 19:17:39.056169 10151 net.cpp:148] Top shape: 16 128 15 15 (460800)
I0926 19:17:39.056171 10151 net.cpp:156] Memory required for data: 1888133184
I0926 19:17:39.056174 10151 layer_factory.hpp:77] Creating layer inception_4a/7x1
I0926 19:17:39.056179 10151 net.cpp:91] Creating Layer inception_4a/7x1
I0926 19:17:39.056180 10151 net.cpp:425] inception_4a/7x1 <- bn_inception_4a/1x7
I0926 19:17:39.056185 10151 net.cpp:399] inception_4a/7x1 -> inception_4a/7x1
I0926 19:17:39.059087 10151 net.cpp:141] Setting up inception_4a/7x1
I0926 19:17:39.059093 10151 net.cpp:148] Top shape: 16 128 15 15 (460800)
I0926 19:17:39.059095 10151 net.cpp:156] Memory required for data: 1889976384
I0926 19:17:39.059100 10151 layer_factory.hpp:77] Creating layer bn_inception_4a/7x1
I0926 19:17:39.059105 10151 net.cpp:91] Creating Layer bn_inception_4a/7x1
I0926 19:17:39.059108 10151 net.cpp:425] bn_inception_4a/7x1 <- inception_4a/7x1
I0926 19:17:39.059111 10151 net.cpp:399] bn_inception_4a/7x1 -> bn_inception_4a/7x1
I0926 19:17:39.059232 10151 net.cpp:141] Setting up bn_inception_4a/7x1
I0926 19:17:39.059237 10151 net.cpp:148] Top shape: 16 128 15 15 (460800)
I0926 19:17:39.059238 10151 net.cpp:156] Memory required for data: 1891819584
I0926 19:17:39.059242 10151 layer_factory.hpp:77] Creating layer bn_inception_4a/7x1_scale
I0926 19:17:39.059245 10151 net.cpp:91] Creating Layer bn_inception_4a/7x1_scale
I0926 19:17:39.059248 10151 net.cpp:425] bn_inception_4a/7x1_scale <- bn_inception_4a/7x1
I0926 19:17:39.059252 10151 net.cpp:386] bn_inception_4a/7x1_scale -> bn_inception_4a/7x1 (in-place)
I0926 19:17:39.059276 10151 layer_factory.hpp:77] Creating layer bn_inception_4a/7x1_scale
I0926 19:17:39.059340 10151 net.cpp:141] Setting up bn_inception_4a/7x1_scale
I0926 19:17:39.059343 10151 net.cpp:148] Top shape: 16 128 15 15 (460800)
I0926 19:17:39.059345 10151 net.cpp:156] Memory required for data: 1893662784
I0926 19:17:39.059348 10151 layer_factory.hpp:77] Creating layer prelu1_bn_inception_4a/7x1
I0926 19:17:39.059351 10151 net.cpp:91] Creating Layer prelu1_bn_inception_4a/7x1
I0926 19:17:39.059353 10151 net.cpp:425] prelu1_bn_inception_4a/7x1 <- bn_inception_4a/7x1
I0926 19:17:39.059357 10151 net.cpp:386] prelu1_bn_inception_4a/7x1 -> bn_inception_4a/7x1 (in-place)
I0926 19:17:39.059418 10151 net.cpp:141] Setting up prelu1_bn_inception_4a/7x1
I0926 19:17:39.059422 10151 net.cpp:148] Top shape: 16 128 15 15 (460800)
I0926 19:17:39.059423 10151 net.cpp:156] Memory required for data: 1895505984
I0926 19:17:39.059427 10151 layer_factory.hpp:77] Creating layer inception_4a/1x7x4_reduce
I0926 19:17:39.059430 10151 net.cpp:91] Creating Layer inception_4a/1x7x4_reduce
I0926 19:17:39.059433 10151 net.cpp:425] inception_4a/1x7x4_reduce <- inception_3_end/output_inception_3_end/output_0_split_2
I0926 19:17:39.059437 10151 net.cpp:399] inception_4a/1x7x4_reduce -> inception_4a/1x7x4_reduce
I0926 19:17:39.060147 10151 net.cpp:141] Setting up inception_4a/1x7x4_reduce
I0926 19:17:39.060153 10151 net.cpp:148] Top shape: 16 16 15 15 (57600)
I0926 19:17:39.060155 10151 net.cpp:156] Memory required for data: 1895736384
I0926 19:17:39.060159 10151 layer_factory.hpp:77] Creating layer bn_inception_4a/1x7x4
I0926 19:17:39.060164 10151 net.cpp:91] Creating Layer bn_inception_4a/1x7x4
I0926 19:17:39.060168 10151 net.cpp:425] bn_inception_4a/1x7x4 <- inception_4a/1x7x4_reduce
I0926 19:17:39.060170 10151 net.cpp:399] bn_inception_4a/1x7x4 -> bn_inception_4a/1x7x4
I0926 19:17:39.060297 10151 net.cpp:141] Setting up bn_inception_4a/1x7x4
I0926 19:17:39.060300 10151 net.cpp:148] Top shape: 16 16 15 15 (57600)
I0926 19:17:39.060302 10151 net.cpp:156] Memory required for data: 1895966784
I0926 19:17:39.060307 10151 layer_factory.hpp:77] Creating layer bn_inception_4a/1x7x4_scale
I0926 19:17:39.060312 10151 net.cpp:91] Creating Layer bn_inception_4a/1x7x4_scale
I0926 19:17:39.060313 10151 net.cpp:425] bn_inception_4a/1x7x4_scale <- bn_inception_4a/1x7x4
I0926 19:17:39.060317 10151 net.cpp:386] bn_inception_4a/1x7x4_scale -> bn_inception_4a/1x7x4 (in-place)
I0926 19:17:39.060341 10151 layer_factory.hpp:77] Creating layer bn_inception_4a/1x7x4_scale
I0926 19:17:39.060411 10151 net.cpp:141] Setting up bn_inception_4a/1x7x4_scale
I0926 19:17:39.060415 10151 net.cpp:148] Top shape: 16 16 15 15 (57600)
I0926 19:17:39.060416 10151 net.cpp:156] Memory required for data: 1896197184
I0926 19:17:39.060420 10151 layer_factory.hpp:77] Creating layer prelu1_bn_inception_4a/1x7x4
I0926 19:17:39.060423 10151 net.cpp:91] Creating Layer prelu1_bn_inception_4a/1x7x4
I0926 19:17:39.060426 10151 net.cpp:425] prelu1_bn_inception_4a/1x7x4 <- bn_inception_4a/1x7x4
I0926 19:17:39.060430 10151 net.cpp:386] prelu1_bn_inception_4a/1x7x4 -> bn_inception_4a/1x7x4 (in-place)
I0926 19:17:39.060480 10151 net.cpp:141] Setting up prelu1_bn_inception_4a/1x7x4
I0926 19:17:39.060484 10151 net.cpp:148] Top shape: 16 16 15 15 (57600)
I0926 19:17:39.060487 10151 net.cpp:156] Memory required for data: 1896427584
I0926 19:17:39.060488 10151 layer_factory.hpp:77] Creating layer inception_4a/1x7xa
I0926 19:17:39.060493 10151 net.cpp:91] Creating Layer inception_4a/1x7xa
I0926 19:17:39.060495 10151 net.cpp:425] inception_4a/1x7xa <- bn_inception_4a/1x7x4
I0926 19:17:39.060499 10151 net.cpp:399] inception_4a/1x7xa -> inception_4a/1x7xa
I0926 19:17:39.061192 10151 net.cpp:141] Setting up inception_4a/1x7xa
I0926 19:17:39.061199 10151 net.cpp:148] Top shape: 16 32 15 15 (115200)
I0926 19:17:39.061202 10151 net.cpp:156] Memory required for data: 1896888384
I0926 19:17:39.061226 10151 layer_factory.hpp:77] Creating layer bn_inception_4a/1x7xa
I0926 19:17:39.061231 10151 net.cpp:91] Creating Layer bn_inception_4a/1x7xa
I0926 19:17:39.061233 10151 net.cpp:425] bn_inception_4a/1x7xa <- inception_4a/1x7xa
I0926 19:17:39.061238 10151 net.cpp:399] bn_inception_4a/1x7xa -> bn_inception_4a/1x7xa
I0926 19:17:39.061367 10151 net.cpp:141] Setting up bn_inception_4a/1x7xa
I0926 19:17:39.061372 10151 net.cpp:148] Top shape: 16 32 15 15 (115200)
I0926 19:17:39.061372 10151 net.cpp:156] Memory required for data: 1897349184
I0926 19:17:39.061377 10151 layer_factory.hpp:77] Creating layer bn_inception_4a/1x7xa_scale
I0926 19:17:39.061381 10151 net.cpp:91] Creating Layer bn_inception_4a/1x7xa_scale
I0926 19:17:39.061383 10151 net.cpp:425] bn_inception_4a/1x7xa_scale <- bn_inception_4a/1x7xa
I0926 19:17:39.061388 10151 net.cpp:386] bn_inception_4a/1x7xa_scale -> bn_inception_4a/1x7xa (in-place)
I0926 19:17:39.061411 10151 layer_factory.hpp:77] Creating layer bn_inception_4a/1x7xa_scale
I0926 19:17:39.061483 10151 net.cpp:141] Setting up bn_inception_4a/1x7xa_scale
I0926 19:17:39.061487 10151 net.cpp:148] Top shape: 16 32 15 15 (115200)
I0926 19:17:39.061489 10151 net.cpp:156] Memory required for data: 1897809984
I0926 19:17:39.061492 10151 layer_factory.hpp:77] Creating layer prelu1_bn_inception_4a/1x7xa
I0926 19:17:39.061496 10151 net.cpp:91] Creating Layer prelu1_bn_inception_4a/1x7xa
I0926 19:17:39.061504 10151 net.cpp:425] prelu1_bn_inception_4a/1x7xa <- bn_inception_4a/1x7xa
I0926 19:17:39.061507 10151 net.cpp:386] prelu1_bn_inception_4a/1x7xa -> bn_inception_4a/1x7xa (in-place)
I0926 19:17:39.061566 10151 net.cpp:141] Setting up prelu1_bn_inception_4a/1x7xa
I0926 19:17:39.061570 10151 net.cpp:148] Top shape: 16 32 15 15 (115200)
I0926 19:17:39.061571 10151 net.cpp:156] Memory required for data: 1898270784
I0926 19:17:39.061574 10151 layer_factory.hpp:77] Creating layer inception_4a/7x1xa
I0926 19:17:39.061578 10151 net.cpp:91] Creating Layer inception_4a/7x1xa
I0926 19:17:39.061581 10151 net.cpp:425] inception_4a/7x1xa <- bn_inception_4a/1x7xa
I0926 19:17:39.061586 10151 net.cpp:399] inception_4a/7x1xa -> inception_4a/7x1xa
I0926 19:17:39.062386 10151 net.cpp:141] Setting up inception_4a/7x1xa
I0926 19:17:39.062393 10151 net.cpp:148] Top shape: 16 32 15 15 (115200)
I0926 19:17:39.062396 10151 net.cpp:156] Memory required for data: 1898731584
I0926 19:17:39.062399 10151 layer_factory.hpp:77] Creating layer bn_inception_4a/7x1xa
I0926 19:17:39.062404 10151 net.cpp:91] Creating Layer bn_inception_4a/7x1xa
I0926 19:17:39.062407 10151 net.cpp:425] bn_inception_4a/7x1xa <- inception_4a/7x1xa
I0926 19:17:39.062412 10151 net.cpp:399] bn_inception_4a/7x1xa -> bn_inception_4a/7x1xa
I0926 19:17:39.062538 10151 net.cpp:141] Setting up bn_inception_4a/7x1xa
I0926 19:17:39.062542 10151 net.cpp:148] Top shape: 16 32 15 15 (115200)
I0926 19:17:39.062544 10151 net.cpp:156] Memory required for data: 1899192384
I0926 19:17:39.062548 10151 layer_factory.hpp:77] Creating layer bn_inception_4a/7x1xa_scale
I0926 19:17:39.062553 10151 net.cpp:91] Creating Layer bn_inception_4a/7x1xa_scale
I0926 19:17:39.062556 10151 net.cpp:425] bn_inception_4a/7x1xa_scale <- bn_inception_4a/7x1xa
I0926 19:17:39.062558 10151 net.cpp:386] bn_inception_4a/7x1xa_scale -> bn_inception_4a/7x1xa (in-place)
I0926 19:17:39.062583 10151 layer_factory.hpp:77] Creating layer bn_inception_4a/7x1xa_scale
I0926 19:17:39.062652 10151 net.cpp:141] Setting up bn_inception_4a/7x1xa_scale
I0926 19:17:39.062656 10151 net.cpp:148] Top shape: 16 32 15 15 (115200)
I0926 19:17:39.062659 10151 net.cpp:156] Memory required for data: 1899653184
I0926 19:17:39.062661 10151 layer_factory.hpp:77] Creating layer prelu1_bn_inception_4a/7x1xa
I0926 19:17:39.062666 10151 net.cpp:91] Creating Layer prelu1_bn_inception_4a/7x1xa
I0926 19:17:39.062669 10151 net.cpp:425] prelu1_bn_inception_4a/7x1xa <- bn_inception_4a/7x1xa
I0926 19:17:39.062671 10151 net.cpp:386] prelu1_bn_inception_4a/7x1xa -> bn_inception_4a/7x1xa (in-place)
I0926 19:17:39.062726 10151 net.cpp:141] Setting up prelu1_bn_inception_4a/7x1xa
I0926 19:17:39.062729 10151 net.cpp:148] Top shape: 16 32 15 15 (115200)
I0926 19:17:39.062731 10151 net.cpp:156] Memory required for data: 1900113984
I0926 19:17:39.062733 10151 layer_factory.hpp:77] Creating layer inception_4a/1x7xb
I0926 19:17:39.062737 10151 net.cpp:91] Creating Layer inception_4a/1x7xb
I0926 19:17:39.062739 10151 net.cpp:425] inception_4a/1x7xb <- bn_inception_4a/7x1xa
I0926 19:17:39.062743 10151 net.cpp:399] inception_4a/1x7xb -> inception_4a/1x7xb
I0926 19:17:39.063508 10151 net.cpp:141] Setting up inception_4a/1x7xb
I0926 19:17:39.063514 10151 net.cpp:148] Top shape: 16 32 15 15 (115200)
I0926 19:17:39.063516 10151 net.cpp:156] Memory required for data: 1900574784
I0926 19:17:39.063520 10151 layer_factory.hpp:77] Creating layer bn_inception_4a/1x7xb
I0926 19:17:39.063525 10151 net.cpp:91] Creating Layer bn_inception_4a/1x7xb
I0926 19:17:39.063529 10151 net.cpp:425] bn_inception_4a/1x7xb <- inception_4a/1x7xb
I0926 19:17:39.063531 10151 net.cpp:399] bn_inception_4a/1x7xb -> bn_inception_4a/1x7xb
I0926 19:17:39.063662 10151 net.cpp:141] Setting up bn_inception_4a/1x7xb
I0926 19:17:39.063664 10151 net.cpp:148] Top shape: 16 32 15 15 (115200)
I0926 19:17:39.063666 10151 net.cpp:156] Memory required for data: 1901035584
I0926 19:17:39.063670 10151 layer_factory.hpp:77] Creating layer bn_inception_4a/1x7xb_scale
I0926 19:17:39.063680 10151 net.cpp:91] Creating Layer bn_inception_4a/1x7xb_scale
I0926 19:17:39.063683 10151 net.cpp:425] bn_inception_4a/1x7xb_scale <- bn_inception_4a/1x7xb
I0926 19:17:39.063688 10151 net.cpp:386] bn_inception_4a/1x7xb_scale -> bn_inception_4a/1x7xb (in-place)
I0926 19:17:39.063712 10151 layer_factory.hpp:77] Creating layer bn_inception_4a/1x7xb_scale
I0926 19:17:39.063782 10151 net.cpp:141] Setting up bn_inception_4a/1x7xb_scale
I0926 19:17:39.063786 10151 net.cpp:148] Top shape: 16 32 15 15 (115200)
I0926 19:17:39.063788 10151 net.cpp:156] Memory required for data: 1901496384
I0926 19:17:39.063791 10151 layer_factory.hpp:77] Creating layer prelu1_bn_inception_4a/1x7xb
I0926 19:17:39.063796 10151 net.cpp:91] Creating Layer prelu1_bn_inception_4a/1x7xb
I0926 19:17:39.063797 10151 net.cpp:425] prelu1_bn_inception_4a/1x7xb <- bn_inception_4a/1x7xb
I0926 19:17:39.063801 10151 net.cpp:386] prelu1_bn_inception_4a/1x7xb -> bn_inception_4a/1x7xb (in-place)
I0926 19:17:39.063855 10151 net.cpp:141] Setting up prelu1_bn_inception_4a/1x7xb
I0926 19:17:39.063859 10151 net.cpp:148] Top shape: 16 32 15 15 (115200)
I0926 19:17:39.063861 10151 net.cpp:156] Memory required for data: 1901957184
I0926 19:17:39.063863 10151 layer_factory.hpp:77] Creating layer inception_4a/7x1xb
I0926 19:17:39.063868 10151 net.cpp:91] Creating Layer inception_4a/7x1xb
I0926 19:17:39.063870 10151 net.cpp:425] inception_4a/7x1xb <- bn_inception_4a/1x7xb
I0926 19:17:39.063874 10151 net.cpp:399] inception_4a/7x1xb -> inception_4a/7x1xb
I0926 19:17:39.064508 10151 net.cpp:141] Setting up inception_4a/7x1xb
I0926 19:17:39.064527 10151 net.cpp:148] Top shape: 16 32 15 15 (115200)
I0926 19:17:39.064529 10151 net.cpp:156] Memory required for data: 1902417984
I0926 19:17:39.064533 10151 layer_factory.hpp:77] Creating layer bn_inception_4a/7x1xb
I0926 19:17:39.064538 10151 net.cpp:91] Creating Layer bn_inception_4a/7x1xb
I0926 19:17:39.064539 10151 net.cpp:425] bn_inception_4a/7x1xb <- inception_4a/7x1xb
I0926 19:17:39.064544 10151 net.cpp:399] bn_inception_4a/7x1xb -> bn_inception_4a/7x1xb
I0926 19:17:39.064676 10151 net.cpp:141] Setting up bn_inception_4a/7x1xb
I0926 19:17:39.064679 10151 net.cpp:148] Top shape: 16 32 15 15 (115200)
I0926 19:17:39.064682 10151 net.cpp:156] Memory required for data: 1902878784
I0926 19:17:39.064685 10151 layer_factory.hpp:77] Creating layer bn_inception_4a/7x1xb_scale
I0926 19:17:39.064689 10151 net.cpp:91] Creating Layer bn_inception_4a/7x1xb_scale
I0926 19:17:39.064692 10151 net.cpp:425] bn_inception_4a/7x1xb_scale <- bn_inception_4a/7x1xb
I0926 19:17:39.064694 10151 net.cpp:386] bn_inception_4a/7x1xb_scale -> bn_inception_4a/7x1xb (in-place)
I0926 19:17:39.064720 10151 layer_factory.hpp:77] Creating layer bn_inception_4a/7x1xb_scale
I0926 19:17:39.064792 10151 net.cpp:141] Setting up bn_inception_4a/7x1xb_scale
I0926 19:17:39.064795 10151 net.cpp:148] Top shape: 16 32 15 15 (115200)
I0926 19:17:39.064797 10151 net.cpp:156] Memory required for data: 1903339584
I0926 19:17:39.064801 10151 layer_factory.hpp:77] Creating layer prelu1_bn_inception_4a/7x1xb
I0926 19:17:39.064805 10151 net.cpp:91] Creating Layer prelu1_bn_inception_4a/7x1xb
I0926 19:17:39.064807 10151 net.cpp:425] prelu1_bn_inception_4a/7x1xb <- bn_inception_4a/7x1xb
I0926 19:17:39.064810 10151 net.cpp:386] prelu1_bn_inception_4a/7x1xb -> bn_inception_4a/7x1xb (in-place)
I0926 19:17:39.064864 10151 net.cpp:141] Setting up prelu1_bn_inception_4a/7x1xb
I0926 19:17:39.064867 10151 net.cpp:148] Top shape: 16 32 15 15 (115200)
I0926 19:17:39.064869 10151 net.cpp:156] Memory required for data: 1903800384
I0926 19:17:39.064872 10151 layer_factory.hpp:77] Creating layer inception_4a/pool
I0926 19:17:39.064875 10151 net.cpp:91] Creating Layer inception_4a/pool
I0926 19:17:39.064878 10151 net.cpp:425] inception_4a/pool <- inception_3_end/output_inception_3_end/output_0_split_3
I0926 19:17:39.064882 10151 net.cpp:399] inception_4a/pool -> inception_4a/pool
I0926 19:17:39.064904 10151 net.cpp:141] Setting up inception_4a/pool
I0926 19:17:39.064913 10151 net.cpp:148] Top shape: 16 256 15 15 (921600)
I0926 19:17:39.064914 10151 net.cpp:156] Memory required for data: 1907486784
I0926 19:17:39.064916 10151 layer_factory.hpp:77] Creating layer inception_4a/pool_proj
I0926 19:17:39.064921 10151 net.cpp:91] Creating Layer inception_4a/pool_proj
I0926 19:17:39.064924 10151 net.cpp:425] inception_4a/pool_proj <- inception_4a/pool
I0926 19:17:39.064927 10151 net.cpp:399] inception_4a/pool_proj -> inception_4a/pool_proj
I0926 19:17:39.065809 10151 net.cpp:141] Setting up inception_4a/pool_proj
I0926 19:17:39.065815 10151 net.cpp:148] Top shape: 16 32 15 15 (115200)
I0926 19:17:39.065817 10151 net.cpp:156] Memory required for data: 1907947584
I0926 19:17:39.065821 10151 layer_factory.hpp:77] Creating layer bn_inception_4a/pool_proj
I0926 19:17:39.065827 10151 net.cpp:91] Creating Layer bn_inception_4a/pool_proj
I0926 19:17:39.065829 10151 net.cpp:425] bn_inception_4a/pool_proj <- inception_4a/pool_proj
I0926 19:17:39.065834 10151 net.cpp:399] bn_inception_4a/pool_proj -> bn_inception_4a/pool_proj
I0926 19:17:39.066021 10151 net.cpp:141] Setting up bn_inception_4a/pool_proj
I0926 19:17:39.066028 10151 net.cpp:148] Top shape: 16 32 15 15 (115200)
I0926 19:17:39.066030 10151 net.cpp:156] Memory required for data: 1908408384
I0926 19:17:39.066035 10151 layer_factory.hpp:77] Creating layer bn_inception_4a/pool_proj_scale
I0926 19:17:39.066040 10151 net.cpp:91] Creating Layer bn_inception_4a/pool_proj_scale
I0926 19:17:39.066042 10151 net.cpp:425] bn_inception_4a/pool_proj_scale <- bn_inception_4a/pool_proj
I0926 19:17:39.066047 10151 net.cpp:386] bn_inception_4a/pool_proj_scale -> bn_inception_4a/pool_proj (in-place)
I0926 19:17:39.066076 10151 layer_factory.hpp:77] Creating layer bn_inception_4a/pool_proj_scale
I0926 19:17:39.066162 10151 net.cpp:141] Setting up bn_inception_4a/pool_proj_scale
I0926 19:17:39.066167 10151 net.cpp:148] Top shape: 16 32 15 15 (115200)
I0926 19:17:39.066169 10151 net.cpp:156] Memory required for data: 1908869184
I0926 19:17:39.066174 10151 layer_factory.hpp:77] Creating layer prelu1_bn_inception_4a/pool
I0926 19:17:39.066177 10151 net.cpp:91] Creating Layer prelu1_bn_inception_4a/pool
I0926 19:17:39.066179 10151 net.cpp:425] prelu1_bn_inception_4a/pool <- bn_inception_4a/pool_proj
I0926 19:17:39.066184 10151 net.cpp:386] prelu1_bn_inception_4a/pool -> bn_inception_4a/pool_proj (in-place)
I0926 19:17:39.066254 10151 net.cpp:141] Setting up prelu1_bn_inception_4a/pool
I0926 19:17:39.066259 10151 net.cpp:148] Top shape: 16 32 15 15 (115200)
I0926 19:17:39.066262 10151 net.cpp:156] Memory required for data: 1909329984
I0926 19:17:39.066264 10151 layer_factory.hpp:77] Creating layer inception_4a/output
I0926 19:17:39.066267 10151 net.cpp:91] Creating Layer inception_4a/output
I0926 19:17:39.066269 10151 net.cpp:425] inception_4a/output <- bn_inception_4a/1x1
I0926 19:17:39.066272 10151 net.cpp:425] inception_4a/output <- bn_inception_4a/7x1
I0926 19:17:39.066275 10151 net.cpp:425] inception_4a/output <- bn_inception_4a/7x1xb
I0926 19:17:39.066277 10151 net.cpp:425] inception_4a/output <- bn_inception_4a/pool_proj
I0926 19:17:39.066280 10151 net.cpp:399] inception_4a/output -> inception_4a/output
I0926 19:17:39.066296 10151 net.cpp:141] Setting up inception_4a/output
I0926 19:17:39.066299 10151 net.cpp:148] Top shape: 16 256 15 15 (921600)
I0926 19:17:39.066303 10151 net.cpp:156] Memory required for data: 1913016384
I0926 19:17:39.066304 10151 layer_factory.hpp:77] Creating layer inception_4a/output_inception_4a/output_0_split
I0926 19:17:39.066308 10151 net.cpp:91] Creating Layer inception_4a/output_inception_4a/output_0_split
I0926 19:17:39.066310 10151 net.cpp:425] inception_4a/output_inception_4a/output_0_split <- inception_4a/output
I0926 19:17:39.066313 10151 net.cpp:399] inception_4a/output_inception_4a/output_0_split -> inception_4a/output_inception_4a/output_0_split_0
I0926 19:17:39.066316 10151 net.cpp:399] inception_4a/output_inception_4a/output_0_split -> inception_4a/output_inception_4a/output_0_split_1
I0926 19:17:39.066319 10151 net.cpp:399] inception_4a/output_inception_4a/output_0_split -> inception_4a/output_inception_4a/output_0_split_2
I0926 19:17:39.066330 10151 net.cpp:399] inception_4a/output_inception_4a/output_0_split -> inception_4a/output_inception_4a/output_0_split_3
I0926 19:17:39.066370 10151 net.cpp:141] Setting up inception_4a/output_inception_4a/output_0_split
I0926 19:17:39.066372 10151 net.cpp:148] Top shape: 16 256 15 15 (921600)
I0926 19:17:39.066375 10151 net.cpp:148] Top shape: 16 256 15 15 (921600)
I0926 19:17:39.066377 10151 net.cpp:148] Top shape: 16 256 15 15 (921600)
I0926 19:17:39.066380 10151 net.cpp:148] Top shape: 16 256 15 15 (921600)
I0926 19:17:39.066381 10151 net.cpp:156] Memory required for data: 1927761984
I0926 19:17:39.066383 10151 layer_factory.hpp:77] Creating layer inception_4b/1x1
I0926 19:17:39.066390 10151 net.cpp:91] Creating Layer inception_4b/1x1
I0926 19:17:39.066391 10151 net.cpp:425] inception_4b/1x1 <- inception_4a/output_inception_4a/output_0_split_0
I0926 19:17:39.066395 10151 net.cpp:399] inception_4b/1x1 -> inception_4b/1x1
I0926 19:17:39.067405 10151 net.cpp:141] Setting up inception_4b/1x1
I0926 19:17:39.067414 10151 net.cpp:148] Top shape: 16 64 15 15 (230400)
I0926 19:17:39.067416 10151 net.cpp:156] Memory required for data: 1928683584
I0926 19:17:39.067420 10151 layer_factory.hpp:77] Creating layer bn_inception_4b/1x1
I0926 19:17:39.067425 10151 net.cpp:91] Creating Layer bn_inception_4b/1x1
I0926 19:17:39.067428 10151 net.cpp:425] bn_inception_4b/1x1 <- inception_4b/1x1
I0926 19:17:39.067432 10151 net.cpp:399] bn_inception_4b/1x1 -> bn_inception_4b/1x1
I0926 19:17:39.067569 10151 net.cpp:141] Setting up bn_inception_4b/1x1
I0926 19:17:39.067574 10151 net.cpp:148] Top shape: 16 64 15 15 (230400)
I0926 19:17:39.067575 10151 net.cpp:156] Memory required for data: 1929605184
I0926 19:17:39.067579 10151 layer_factory.hpp:77] Creating layer bn_inception_4b/1x1_scale
I0926 19:17:39.067584 10151 net.cpp:91] Creating Layer bn_inception_4b/1x1_scale
I0926 19:17:39.067585 10151 net.cpp:425] bn_inception_4b/1x1_scale <- bn_inception_4b/1x1
I0926 19:17:39.067589 10151 net.cpp:386] bn_inception_4b/1x1_scale -> bn_inception_4b/1x1 (in-place)
I0926 19:17:39.067615 10151 layer_factory.hpp:77] Creating layer bn_inception_4b/1x1_scale
I0926 19:17:39.067689 10151 net.cpp:141] Setting up bn_inception_4b/1x1_scale
I0926 19:17:39.067693 10151 net.cpp:148] Top shape: 16 64 15 15 (230400)
I0926 19:17:39.067695 10151 net.cpp:156] Memory required for data: 1930526784
I0926 19:17:39.067698 10151 layer_factory.hpp:77] Creating layer prelu1_bn_inception_4b
I0926 19:17:39.067703 10151 net.cpp:91] Creating Layer prelu1_bn_inception_4b
I0926 19:17:39.067704 10151 net.cpp:425] prelu1_bn_inception_4b <- bn_inception_4b/1x1
I0926 19:17:39.067708 10151 net.cpp:386] prelu1_bn_inception_4b -> bn_inception_4b/1x1 (in-place)
I0926 19:17:39.067770 10151 net.cpp:141] Setting up prelu1_bn_inception_4b
I0926 19:17:39.067775 10151 net.cpp:148] Top shape: 16 64 15 15 (230400)
I0926 19:17:39.067776 10151 net.cpp:156] Memory required for data: 1931448384
I0926 19:17:39.067778 10151 layer_factory.hpp:77] Creating layer inception_4b/1x7x2_reduce
I0926 19:17:39.067783 10151 net.cpp:91] Creating Layer inception_4b/1x7x2_reduce
I0926 19:17:39.067785 10151 net.cpp:425] inception_4b/1x7x2_reduce <- inception_4a/output_inception_4a/output_0_split_1
I0926 19:17:39.067790 10151 net.cpp:399] inception_4b/1x7x2_reduce -> inception_4b/1x7x2_reduce
I0926 19:17:39.068944 10151 net.cpp:141] Setting up inception_4b/1x7x2_reduce
I0926 19:17:39.068951 10151 net.cpp:148] Top shape: 16 96 15 15 (345600)
I0926 19:17:39.068953 10151 net.cpp:156] Memory required for data: 1932830784
I0926 19:17:39.068958 10151 layer_factory.hpp:77] Creating layer bn_inception_4b_1x7x2reduce
I0926 19:17:39.068964 10151 net.cpp:91] Creating Layer bn_inception_4b_1x7x2reduce
I0926 19:17:39.068966 10151 net.cpp:425] bn_inception_4b_1x7x2reduce <- inception_4b/1x7x2_reduce
I0926 19:17:39.068969 10151 net.cpp:399] bn_inception_4b_1x7x2reduce -> bn_inception_4b_1x7x2reduce
I0926 19:17:39.069113 10151 net.cpp:141] Setting up bn_inception_4b_1x7x2reduce
I0926 19:17:39.069118 10151 net.cpp:148] Top shape: 16 96 15 15 (345600)
I0926 19:17:39.069119 10151 net.cpp:156] Memory required for data: 1934213184
I0926 19:17:39.069124 10151 layer_factory.hpp:77] Creating layer bn_inception_4b_1x7x2reduce_scale
I0926 19:17:39.069128 10151 net.cpp:91] Creating Layer bn_inception_4b_1x7x2reduce_scale
I0926 19:17:39.069131 10151 net.cpp:425] bn_inception_4b_1x7x2reduce_scale <- bn_inception_4b_1x7x2reduce
I0926 19:17:39.069135 10151 net.cpp:386] bn_inception_4b_1x7x2reduce_scale -> bn_inception_4b_1x7x2reduce (in-place)
I0926 19:17:39.069161 10151 layer_factory.hpp:77] Creating layer bn_inception_4b_1x7x2reduce_scale
I0926 19:17:39.069236 10151 net.cpp:141] Setting up bn_inception_4b_1x7x2reduce_scale
I0926 19:17:39.069239 10151 net.cpp:148] Top shape: 16 96 15 15 (345600)
I0926 19:17:39.069242 10151 net.cpp:156] Memory required for data: 1935595584
I0926 19:17:39.069244 10151 layer_factory.hpp:77] Creating layer prelu1_bn_inception_4b_1x7x2reduce
I0926 19:17:39.069248 10151 net.cpp:91] Creating Layer prelu1_bn_inception_4b_1x7x2reduce
I0926 19:17:39.069252 10151 net.cpp:425] prelu1_bn_inception_4b_1x7x2reduce <- bn_inception_4b_1x7x2reduce
I0926 19:17:39.069255 10151 net.cpp:386] prelu1_bn_inception_4b_1x7x2reduce -> bn_inception_4b_1x7x2reduce (in-place)
I0926 19:17:39.069324 10151 net.cpp:141] Setting up prelu1_bn_inception_4b_1x7x2reduce
I0926 19:17:39.069326 10151 net.cpp:148] Top shape: 16 96 15 15 (345600)
I0926 19:17:39.069329 10151 net.cpp:156] Memory required for data: 1936977984
I0926 19:17:39.069331 10151 layer_factory.hpp:77] Creating layer inception_4b/1x7
I0926 19:17:39.069337 10151 net.cpp:91] Creating Layer inception_4b/1x7
I0926 19:17:39.069340 10151 net.cpp:425] inception_4b/1x7 <- bn_inception_4b_1x7x2reduce
I0926 19:17:39.069344 10151 net.cpp:399] inception_4b/1x7 -> inception_4b/1x7
I0926 19:17:39.071768 10151 net.cpp:141] Setting up inception_4b/1x7
I0926 19:17:39.071774 10151 net.cpp:148] Top shape: 16 128 15 15 (460800)
I0926 19:17:39.071777 10151 net.cpp:156] Memory required for data: 1938821184
I0926 19:17:39.071781 10151 layer_factory.hpp:77] Creating layer bn_inception_4b/1x7
I0926 19:17:39.071786 10151 net.cpp:91] Creating Layer bn_inception_4b/1x7
I0926 19:17:39.071789 10151 net.cpp:425] bn_inception_4b/1x7 <- inception_4b/1x7
I0926 19:17:39.071794 10151 net.cpp:399] bn_inception_4b/1x7 -> bn_inception_4b/1x7
I0926 19:17:39.071919 10151 net.cpp:141] Setting up bn_inception_4b/1x7
I0926 19:17:39.071923 10151 net.cpp:148] Top shape: 16 128 15 15 (460800)
I0926 19:17:39.071925 10151 net.cpp:156] Memory required for data: 1940664384
I0926 19:17:39.071930 10151 layer_factory.hpp:77] Creating layer bn_inception_4b/1x7_scale
I0926 19:17:39.071934 10151 net.cpp:91] Creating Layer bn_inception_4b/1x7_scale
I0926 19:17:39.071938 10151 net.cpp:425] bn_inception_4b/1x7_scale <- bn_inception_4b/1x7
I0926 19:17:39.071940 10151 net.cpp:386] bn_inception_4b/1x7_scale -> bn_inception_4b/1x7 (in-place)
I0926 19:17:39.071965 10151 layer_factory.hpp:77] Creating layer bn_inception_4b/1x7_scale
I0926 19:17:39.072031 10151 net.cpp:141] Setting up bn_inception_4b/1x7_scale
I0926 19:17:39.072036 10151 net.cpp:148] Top shape: 16 128 15 15 (460800)
I0926 19:17:39.072037 10151 net.cpp:156] Memory required for data: 1942507584
I0926 19:17:39.072041 10151 layer_factory.hpp:77] Creating layer prelu1_bn_inception_4b/1x7
I0926 19:17:39.072044 10151 net.cpp:91] Creating Layer prelu1_bn_inception_4b/1x7
I0926 19:17:39.072047 10151 net.cpp:425] prelu1_bn_inception_4b/1x7 <- bn_inception_4b/1x7
I0926 19:17:39.072051 10151 net.cpp:386] prelu1_bn_inception_4b/1x7 -> bn_inception_4b/1x7 (in-place)
I0926 19:17:39.072123 10151 net.cpp:141] Setting up prelu1_bn_inception_4b/1x7
I0926 19:17:39.072125 10151 net.cpp:148] Top shape: 16 128 15 15 (460800)
I0926 19:17:39.072127 10151 net.cpp:156] Memory required for data: 1944350784
I0926 19:17:39.072130 10151 layer_factory.hpp:77] Creating layer inception_4b/7x1
I0926 19:17:39.072135 10151 net.cpp:91] Creating Layer inception_4b/7x1
I0926 19:17:39.072144 10151 net.cpp:425] inception_4b/7x1 <- bn_inception_4b/1x7
I0926 19:17:39.072147 10151 net.cpp:399] inception_4b/7x1 -> inception_4b/7x1
I0926 19:17:39.075350 10151 net.cpp:141] Setting up inception_4b/7x1
I0926 19:17:39.075357 10151 net.cpp:148] Top shape: 16 128 15 15 (460800)
I0926 19:17:39.075359 10151 net.cpp:156] Memory required for data: 1946193984
I0926 19:17:39.075363 10151 layer_factory.hpp:77] Creating layer bn_inception_4b/7x1
I0926 19:17:39.075368 10151 net.cpp:91] Creating Layer bn_inception_4b/7x1
I0926 19:17:39.075371 10151 net.cpp:425] bn_inception_4b/7x1 <- inception_4b/7x1
I0926 19:17:39.075376 10151 net.cpp:399] bn_inception_4b/7x1 -> bn_inception_4b/7x1
I0926 19:17:39.075505 10151 net.cpp:141] Setting up bn_inception_4b/7x1
I0926 19:17:39.075510 10151 net.cpp:148] Top shape: 16 128 15 15 (460800)
I0926 19:17:39.075511 10151 net.cpp:156] Memory required for data: 1948037184
I0926 19:17:39.075515 10151 layer_factory.hpp:77] Creating layer bn_inception_4b/7x1_scale
I0926 19:17:39.075520 10151 net.cpp:91] Creating Layer bn_inception_4b/7x1_scale
I0926 19:17:39.075523 10151 net.cpp:425] bn_inception_4b/7x1_scale <- bn_inception_4b/7x1
I0926 19:17:39.075526 10151 net.cpp:386] bn_inception_4b/7x1_scale -> bn_inception_4b/7x1 (in-place)
I0926 19:17:39.075552 10151 layer_factory.hpp:77] Creating layer bn_inception_4b/7x1_scale
I0926 19:17:39.075631 10151 net.cpp:141] Setting up bn_inception_4b/7x1_scale
I0926 19:17:39.075635 10151 net.cpp:148] Top shape: 16 128 15 15 (460800)
I0926 19:17:39.075637 10151 net.cpp:156] Memory required for data: 1949880384
I0926 19:17:39.075640 10151 layer_factory.hpp:77] Creating layer prelu1_bn_inception_4b/7x1
I0926 19:17:39.075644 10151 net.cpp:91] Creating Layer prelu1_bn_inception_4b/7x1
I0926 19:17:39.075646 10151 net.cpp:425] prelu1_bn_inception_4b/7x1 <- bn_inception_4b/7x1
I0926 19:17:39.075649 10151 net.cpp:386] prelu1_bn_inception_4b/7x1 -> bn_inception_4b/7x1 (in-place)
I0926 19:17:39.075716 10151 net.cpp:141] Setting up prelu1_bn_inception_4b/7x1
I0926 19:17:39.075718 10151 net.cpp:148] Top shape: 16 128 15 15 (460800)
I0926 19:17:39.075721 10151 net.cpp:156] Memory required for data: 1951723584
I0926 19:17:39.075723 10151 layer_factory.hpp:77] Creating layer inception_4b/1x7x4_reduce
I0926 19:17:39.075728 10151 net.cpp:91] Creating Layer inception_4b/1x7x4_reduce
I0926 19:17:39.075731 10151 net.cpp:425] inception_4b/1x7x4_reduce <- inception_4a/output_inception_4a/output_0_split_2
I0926 19:17:39.075734 10151 net.cpp:399] inception_4b/1x7x4_reduce -> inception_4b/1x7x4_reduce
I0926 19:17:39.076617 10151 net.cpp:141] Setting up inception_4b/1x7x4_reduce
I0926 19:17:39.076624 10151 net.cpp:148] Top shape: 16 16 15 15 (57600)
I0926 19:17:39.076627 10151 net.cpp:156] Memory required for data: 1951953984
I0926 19:17:39.076630 10151 layer_factory.hpp:77] Creating layer bn_inception_4b/1x7x4
I0926 19:17:39.076635 10151 net.cpp:91] Creating Layer bn_inception_4b/1x7x4
I0926 19:17:39.076638 10151 net.cpp:425] bn_inception_4b/1x7x4 <- inception_4b/1x7x4_reduce
I0926 19:17:39.076642 10151 net.cpp:399] bn_inception_4b/1x7x4 -> bn_inception_4b/1x7x4
I0926 19:17:39.076773 10151 net.cpp:141] Setting up bn_inception_4b/1x7x4
I0926 19:17:39.076777 10151 net.cpp:148] Top shape: 16 16 15 15 (57600)
I0926 19:17:39.076779 10151 net.cpp:156] Memory required for data: 1952184384
I0926 19:17:39.076783 10151 layer_factory.hpp:77] Creating layer bn_inception_4b/1x7x4_scale
I0926 19:17:39.076788 10151 net.cpp:91] Creating Layer bn_inception_4b/1x7x4_scale
I0926 19:17:39.076791 10151 net.cpp:425] bn_inception_4b/1x7x4_scale <- bn_inception_4b/1x7x4
I0926 19:17:39.076793 10151 net.cpp:386] bn_inception_4b/1x7x4_scale -> bn_inception_4b/1x7x4 (in-place)
I0926 19:17:39.076819 10151 layer_factory.hpp:77] Creating layer bn_inception_4b/1x7x4_scale
I0926 19:17:39.076890 10151 net.cpp:141] Setting up bn_inception_4b/1x7x4_scale
I0926 19:17:39.076894 10151 net.cpp:148] Top shape: 16 16 15 15 (57600)
I0926 19:17:39.076896 10151 net.cpp:156] Memory required for data: 1952414784
I0926 19:17:39.076907 10151 layer_factory.hpp:77] Creating layer prelu1_bn_inception_4b/1x7x4
I0926 19:17:39.076911 10151 net.cpp:91] Creating Layer prelu1_bn_inception_4b/1x7x4
I0926 19:17:39.076913 10151 net.cpp:425] prelu1_bn_inception_4b/1x7x4 <- bn_inception_4b/1x7x4
I0926 19:17:39.076916 10151 net.cpp:386] prelu1_bn_inception_4b/1x7x4 -> bn_inception_4b/1x7x4 (in-place)
I0926 19:17:39.076972 10151 net.cpp:141] Setting up prelu1_bn_inception_4b/1x7x4
I0926 19:17:39.076974 10151 net.cpp:148] Top shape: 16 16 15 15 (57600)
I0926 19:17:39.076977 10151 net.cpp:156] Memory required for data: 1952645184
I0926 19:17:39.076979 10151 layer_factory.hpp:77] Creating layer inception_4b/1x7xa
I0926 19:17:39.076984 10151 net.cpp:91] Creating Layer inception_4b/1x7xa
I0926 19:17:39.076987 10151 net.cpp:425] inception_4b/1x7xa <- bn_inception_4b/1x7x4
I0926 19:17:39.076989 10151 net.cpp:399] inception_4b/1x7xa -> inception_4b/1x7xa
I0926 19:17:39.077697 10151 net.cpp:141] Setting up inception_4b/1x7xa
I0926 19:17:39.077703 10151 net.cpp:148] Top shape: 16 32 15 15 (115200)
I0926 19:17:39.077705 10151 net.cpp:156] Memory required for data: 1953105984
I0926 19:17:39.077709 10151 layer_factory.hpp:77] Creating layer bn_inception_4b/1x7xa
I0926 19:17:39.077715 10151 net.cpp:91] Creating Layer bn_inception_4b/1x7xa
I0926 19:17:39.077718 10151 net.cpp:425] bn_inception_4b/1x7xa <- inception_4b/1x7xa
I0926 19:17:39.077723 10151 net.cpp:399] bn_inception_4b/1x7xa -> bn_inception_4b/1x7xa
I0926 19:17:39.077857 10151 net.cpp:141] Setting up bn_inception_4b/1x7xa
I0926 19:17:39.077862 10151 net.cpp:148] Top shape: 16 32 15 15 (115200)
I0926 19:17:39.077862 10151 net.cpp:156] Memory required for data: 1953566784
I0926 19:17:39.077867 10151 layer_factory.hpp:77] Creating layer bn_inception_4b/1x7xa_scale
I0926 19:17:39.077872 10151 net.cpp:91] Creating Layer bn_inception_4b/1x7xa_scale
I0926 19:17:39.077873 10151 net.cpp:425] bn_inception_4b/1x7xa_scale <- bn_inception_4b/1x7xa
I0926 19:17:39.077877 10151 net.cpp:386] bn_inception_4b/1x7xa_scale -> bn_inception_4b/1x7xa (in-place)
I0926 19:17:39.077903 10151 layer_factory.hpp:77] Creating layer bn_inception_4b/1x7xa_scale
I0926 19:17:39.077975 10151 net.cpp:141] Setting up bn_inception_4b/1x7xa_scale
I0926 19:17:39.077980 10151 net.cpp:148] Top shape: 16 32 15 15 (115200)
I0926 19:17:39.077981 10151 net.cpp:156] Memory required for data: 1954027584
I0926 19:17:39.077985 10151 layer_factory.hpp:77] Creating layer prelu1_bn_inception_4b/1x7xa
I0926 19:17:39.077988 10151 net.cpp:91] Creating Layer prelu1_bn_inception_4b/1x7xa
I0926 19:17:39.077991 10151 net.cpp:425] prelu1_bn_inception_4b/1x7xa <- bn_inception_4b/1x7xa
I0926 19:17:39.077994 10151 net.cpp:386] prelu1_bn_inception_4b/1x7xa -> bn_inception_4b/1x7xa (in-place)
I0926 19:17:39.078057 10151 net.cpp:141] Setting up prelu1_bn_inception_4b/1x7xa
I0926 19:17:39.078059 10151 net.cpp:148] Top shape: 16 32 15 15 (115200)
I0926 19:17:39.078061 10151 net.cpp:156] Memory required for data: 1954488384
I0926 19:17:39.078064 10151 layer_factory.hpp:77] Creating layer inception_4b/7x1xa
I0926 19:17:39.078069 10151 net.cpp:91] Creating Layer inception_4b/7x1xa
I0926 19:17:39.078071 10151 net.cpp:425] inception_4b/7x1xa <- bn_inception_4b/1x7xa
I0926 19:17:39.078074 10151 net.cpp:399] inception_4b/7x1xa -> inception_4b/7x1xa
I0926 19:17:39.078877 10151 net.cpp:141] Setting up inception_4b/7x1xa
I0926 19:17:39.078884 10151 net.cpp:148] Top shape: 16 32 15 15 (115200)
I0926 19:17:39.078887 10151 net.cpp:156] Memory required for data: 1954949184
I0926 19:17:39.078891 10151 layer_factory.hpp:77] Creating layer bn_inception_4b/7x1xa
I0926 19:17:39.078896 10151 net.cpp:91] Creating Layer bn_inception_4b/7x1xa
I0926 19:17:39.078898 10151 net.cpp:425] bn_inception_4b/7x1xa <- inception_4b/7x1xa
I0926 19:17:39.078902 10151 net.cpp:399] bn_inception_4b/7x1xa -> bn_inception_4b/7x1xa
I0926 19:17:39.079035 10151 net.cpp:141] Setting up bn_inception_4b/7x1xa
I0926 19:17:39.079040 10151 net.cpp:148] Top shape: 16 32 15 15 (115200)
I0926 19:17:39.079046 10151 net.cpp:156] Memory required for data: 1955409984
I0926 19:17:39.079051 10151 layer_factory.hpp:77] Creating layer bn_inception_4b/7x1xa_scale
I0926 19:17:39.079056 10151 net.cpp:91] Creating Layer bn_inception_4b/7x1xa_scale
I0926 19:17:39.079058 10151 net.cpp:425] bn_inception_4b/7x1xa_scale <- bn_inception_4b/7x1xa
I0926 19:17:39.079061 10151 net.cpp:386] bn_inception_4b/7x1xa_scale -> bn_inception_4b/7x1xa (in-place)
I0926 19:17:39.079088 10151 layer_factory.hpp:77] Creating layer bn_inception_4b/7x1xa_scale
I0926 19:17:39.079160 10151 net.cpp:141] Setting up bn_inception_4b/7x1xa_scale
I0926 19:17:39.079164 10151 net.cpp:148] Top shape: 16 32 15 15 (115200)
I0926 19:17:39.079166 10151 net.cpp:156] Memory required for data: 1955870784
I0926 19:17:39.079169 10151 layer_factory.hpp:77] Creating layer prelu1_bn_inception_4b/7x1xa
I0926 19:17:39.079174 10151 net.cpp:91] Creating Layer prelu1_bn_inception_4b/7x1xa
I0926 19:17:39.079176 10151 net.cpp:425] prelu1_bn_inception_4b/7x1xa <- bn_inception_4b/7x1xa
I0926 19:17:39.079179 10151 net.cpp:386] prelu1_bn_inception_4b/7x1xa -> bn_inception_4b/7x1xa (in-place)
I0926 19:17:39.079236 10151 net.cpp:141] Setting up prelu1_bn_inception_4b/7x1xa
I0926 19:17:39.079241 10151 net.cpp:148] Top shape: 16 32 15 15 (115200)
I0926 19:17:39.079241 10151 net.cpp:156] Memory required for data: 1956331584
I0926 19:17:39.079244 10151 layer_factory.hpp:77] Creating layer inception_4b/1x7xb
I0926 19:17:39.079249 10151 net.cpp:91] Creating Layer inception_4b/1x7xb
I0926 19:17:39.079252 10151 net.cpp:425] inception_4b/1x7xb <- bn_inception_4b/7x1xa
I0926 19:17:39.079257 10151 net.cpp:399] inception_4b/1x7xb -> inception_4b/1x7xb
I0926 19:17:39.080030 10151 net.cpp:141] Setting up inception_4b/1x7xb
I0926 19:17:39.080037 10151 net.cpp:148] Top shape: 16 32 15 15 (115200)
…
I0926 19:17:39.909219 10151 net.cpp:156] Memory required for data: 2167247104
I0926 19:17:39.909220 10151 layer_factory.hpp:77] Creating layer bn_inception_5b_1x3x2reduce_prelu1_bn_inception_5b_1x3x2reduce_0_split
I0926 19:17:39.909224 10151 net.cpp:91] Creating Layer bn_inception_5b_1x3x2reduce_prelu1_bn_inception_5b_1x3x2reduce_0_split
I0926 19:17:39.909226 10151 net.cpp:425] bn_inception_5b_1x3x2reduce_prelu1_bn_inception_5b_1x3x2reduce_0_split <- bn_inception_5b_1x3x2reduce
I0926 19:17:39.909229 10151 net.cpp:399] bn_inception_5b_1x3x2reduce_prelu1_bn_inception_5b_1x3x2reduce_0_split -> bn_inception_5b_1x3x2reduce_prelu1_bn_inception_5b_1x3x2reduce_0_split_0
I0926 19:17:39.909234 10151 net.cpp:399] bn_inception_5b_1x3x2reduce_prelu1_bn_inception_5b_1x3x2reduce_0_split -> bn_inception_5b_1x3x2reduce_prelu1_bn_inception_5b_1x3x2reduce_0_split_1
I0926 19:17:39.909255 10151 net.cpp:141] Setting up bn_inception_5b_1x3x2reduce_prelu1_bn_inception_5b_1x3x2reduce_0_split
I0926 19:17:39.909258 10151 net.cpp:148] Top shape: 16 96 8 8 (98304)
I0926 19:17:39.909260 10151 net.cpp:148] Top shape: 16 96 8 8 (98304)
I0926 19:17:39.909262 10151 net.cpp:156] Memory required for data: 2168033536
I0926 19:17:39.909265 10151 layer_factory.hpp:77] Creating layer inception_5b/1x3
I0926 19:17:39.909270 10151 net.cpp:91] Creating Layer inception_5b/1x3
I0926 19:17:39.909271 10151 net.cpp:425] inception_5b/1x3 <- bn_inception_5b_1x3x2reduce_prelu1_bn_inception_5b_1x3x2reduce_0_split_0
I0926 19:17:39.909276 10151 net.cpp:399] inception_5b/1x3 -> inception_5b/1x3
I0926 19:17:39.910778 10151 net.cpp:141] Setting up inception_5b/1x3
I0926 19:17:39.910784 10151 net.cpp:148] Top shape: 16 128 8 8 (131072)
I0926 19:17:39.910786 10151 net.cpp:156] Memory required for data: 2168557824
I0926 19:17:39.910790 10151 layer_factory.hpp:77] Creating layer bn_inception_5b/1x3
I0926 19:17:39.910795 10151 net.cpp:91] Creating Layer bn_inception_5b/1x3
I0926 19:17:39.910799 10151 net.cpp:425] bn_inception_5b/1x3 <- inception_5b/1x3
I0926 19:17:39.910802 10151 net.cpp:399] bn_inception_5b/1x3 -> bn_inception_5b/1x3
I0926 19:17:39.910931 10151 net.cpp:141] Setting up bn_inception_5b/1x3
I0926 19:17:39.910935 10151 net.cpp:148] Top shape: 16 128 8 8 (131072)
I0926 19:17:39.910938 10151 net.cpp:156] Memory required for data: 2169082112
I0926 19:17:39.910941 10151 layer_factory.hpp:77] Creating layer bn_inception_5b/1x3_scale
I0926 19:17:39.910946 10151 net.cpp:91] Creating Layer bn_inception_5b/1x3_scale
I0926 19:17:39.910949 10151 net.cpp:425] bn_inception_5b/1x3_scale <- bn_inception_5b/1x3
I0926 19:17:39.910953 10151 net.cpp:386] bn_inception_5b/1x3_scale -> bn_inception_5b/1x3 (in-place)
I0926 19:17:39.910979 10151 layer_factory.hpp:77] Creating layer bn_inception_5b/1x3_scale
I0926 19:17:39.911047 10151 net.cpp:141] Setting up bn_inception_5b/1x3_scale
I0926 19:17:39.911051 10151 net.cpp:148] Top shape: 16 128 8 8 (131072)
I0926 19:17:39.911053 10151 net.cpp:156] Memory required for data: 2169606400
I0926 19:17:39.911056 10151 layer_factory.hpp:77] Creating layer prelu1_bn_inception_5b/1x3
I0926 19:17:39.911061 10151 net.cpp:91] Creating Layer prelu1_bn_inception_5b/1x3
I0926 19:17:39.911062 10151 net.cpp:425] prelu1_bn_inception_5b/1x3 <- bn_inception_5b/1x3
I0926 19:17:39.911067 10151 net.cpp:386] prelu1_bn_inception_5b/1x3 -> bn_inception_5b/1x3 (in-place)
I0926 19:17:39.911119 10151 net.cpp:141] Setting up prelu1_bn_inception_5b/1x3
I0926 19:17:39.911123 10151 net.cpp:148] Top shape: 16 128 8 8 (131072)
I0926 19:17:39.911124 10151 net.cpp:156] Memory required for data: 2170130688
I0926 19:17:39.911128 10151 layer_factory.hpp:77] Creating layer inception_5b/3x1
I0926 19:17:39.911133 10151 net.cpp:91] Creating Layer inception_5b/3x1
I0926 19:17:39.911135 10151 net.cpp:425] inception_5b/3x1 <- bn_inception_5b_1x3x2reduce_prelu1_bn_inception_5b_1x3x2reduce_0_split_1
I0926 19:17:39.911144 10151 net.cpp:399] inception_5b/3x1 -> inception_5b/3x1
I0926 19:17:39.912618 10151 net.cpp:141] Setting up inception_5b/3x1
I0926 19:17:39.912626 10151 net.cpp:148] Top shape: 16 128 8 8 (131072)
I0926 19:17:39.912628 10151 net.cpp:156] Memory required for data: 2170654976
I0926 19:17:39.912632 10151 layer_factory.hpp:77] Creating layer bn_inception_5b/3x1
I0926 19:17:39.912636 10151 net.cpp:91] Creating Layer bn_inception_5b/3x1
I0926 19:17:39.912639 10151 net.cpp:425] bn_inception_5b/3x1 <- inception_5b/3x1
I0926 19:17:39.912643 10151 net.cpp:399] bn_inception_5b/3x1 -> bn_inception_5b/3x1
I0926 19:17:39.912771 10151 net.cpp:141] Setting up bn_inception_5b/3x1
I0926 19:17:39.912775 10151 net.cpp:148] Top shape: 16 128 8 8 (131072)
I0926 19:17:39.912777 10151 net.cpp:156] Memory required for data: 2171179264
I0926 19:17:39.912781 10151 layer_factory.hpp:77] Creating layer bn_inception_5b/3x1_scale
I0926 19:17:39.912786 10151 net.cpp:91] Creating Layer bn_inception_5b/3x1_scale
I0926 19:17:39.912789 10151 net.cpp:425] bn_inception_5b/3x1_scale <- bn_inception_5b/3x1
I0926 19:17:39.912792 10151 net.cpp:386] bn_inception_5b/3x1_scale -> bn_inception_5b/3x1 (in-place)
I0926 19:17:39.912819 10151 layer_factory.hpp:77] Creating layer bn_inception_5b/3x1_scale
I0926 19:17:39.912889 10151 net.cpp:141] Setting up bn_inception_5b/3x1_scale
I0926 19:17:39.912892 10151 net.cpp:148] Top shape: 16 128 8 8 (131072)
I0926 19:17:39.912894 10151 net.cpp:156] Memory required for data: 2171703552
I0926 19:17:39.912897 10151 layer_factory.hpp:77] Creating layer prelu1_bn_inception_5b/3x1
I0926 19:17:39.912902 10151 net.cpp:91] Creating Layer prelu1_bn_inception_5b/3x1
I0926 19:17:39.912904 10151 net.cpp:425] prelu1_bn_inception_5b/3x1 <- bn_inception_5b/3x1
I0926 19:17:39.912909 10151 net.cpp:386] prelu1_bn_inception_5b/3x1 -> bn_inception_5b/3x1 (in-place)
I0926 19:17:39.912961 10151 net.cpp:141] Setting up prelu1_bn_inception_5b/3x1
I0926 19:17:39.912966 10151 net.cpp:148] Top shape: 16 128 8 8 (131072)
I0926 19:17:39.912967 10151 net.cpp:156] Memory required for data: 2172227840
I0926 19:17:39.912969 10151 layer_factory.hpp:77] Creating layer inception_5b/1x3x3_reduce
I0926 19:17:39.912974 10151 net.cpp:91] Creating Layer inception_5b/1x3x3_reduce
I0926 19:17:39.912977 10151 net.cpp:425] inception_5b/1x3x3_reduce <- inception_5a/output_inception_5a/output_0_split_2
I0926 19:17:39.912981 10151 net.cpp:399] inception_5b/1x3x3_reduce -> inception_5b/1x3x3_reduce
I0926 19:17:39.913853 10151 net.cpp:141] Setting up inception_5b/1x3x3_reduce
I0926 19:17:39.913861 10151 net.cpp:148] Top shape: 16 16 8 8 (16384)
I0926 19:17:39.913863 10151 net.cpp:156] Memory required for data: 2172293376
I0926 19:17:39.913867 10151 layer_factory.hpp:77] Creating layer bn_inception_5b/1x3x3
I0926 19:17:39.913872 10151 net.cpp:91] Creating Layer bn_inception_5b/1x3x3
I0926 19:17:39.913875 10151 net.cpp:425] bn_inception_5b/1x3x3 <- inception_5b/1x3x3_reduce
I0926 19:17:39.913879 10151 net.cpp:399] bn_inception_5b/1x3x3 -> bn_inception_5b/1x3x3
I0926 19:17:39.914016 10151 net.cpp:141] Setting up bn_inception_5b/1x3x3
I0926 19:17:39.914021 10151 net.cpp:148] Top shape: 16 16 8 8 (16384)
I0926 19:17:39.914022 10151 net.cpp:156] Memory required for data: 2172358912
I0926 19:17:39.914026 10151 layer_factory.hpp:77] Creating layer bn_inception_5b/1x3x3_scale
I0926 19:17:39.914031 10151 net.cpp:91] Creating Layer bn_inception_5b/1x3x3_scale
I0926 19:17:39.914033 10151 net.cpp:425] bn_inception_5b/1x3x3_scale <- bn_inception_5b/1x3x3
I0926 19:17:39.914037 10151 net.cpp:386] bn_inception_5b/1x3x3_scale -> bn_inception_5b/1x3x3 (in-place)
I0926 19:17:39.914062 10151 layer_factory.hpp:77] Creating layer bn_inception_5b/1x3x3_scale
I0926 19:17:39.914136 10151 net.cpp:141] Setting up bn_inception_5b/1x3x3_scale
I0926 19:17:39.914158 10151 net.cpp:148] Top shape: 16 16 8 8 (16384)
I0926 19:17:39.914160 10151 net.cpp:156] Memory required for data: 2172424448
I0926 19:17:39.914165 10151 layer_factory.hpp:77] Creating layer prelu1_bn_inception_5b/1x3x3
I0926 19:17:39.914173 10151 net.cpp:91] Creating Layer prelu1_bn_inception_5b/1x3x3
I0926 19:17:39.914176 10151 net.cpp:425] prelu1_bn_inception_5b/1x3x3 <- bn_inception_5b/1x3x3
I0926 19:17:39.914180 10151 net.cpp:386] prelu1_bn_inception_5b/1x3x3 -> bn_inception_5b/1x3x3 (in-place)
I0926 19:17:39.914259 10151 net.cpp:141] Setting up prelu1_bn_inception_5b/1x3x3
I0926 19:17:39.914263 10151 net.cpp:148] Top shape: 16 16 8 8 (16384)
I0926 19:17:39.914264 10151 net.cpp:156] Memory required for data: 2172489984
I0926 19:17:39.914268 10151 layer_factory.hpp:77] Creating layer inception_5b/3x3
I0926 19:17:39.914273 10151 net.cpp:91] Creating Layer inception_5b/3x3
I0926 19:17:39.914274 10151 net.cpp:425] inception_5b/3x3 <- bn_inception_5b/1x3x3
I0926 19:17:39.914278 10151 net.cpp:399] inception_5b/3x3 -> inception_5b/3x3
I0926 19:17:39.915109 10151 net.cpp:141] Setting up inception_5b/3x3
I0926 19:17:39.915117 10151 net.cpp:148] Top shape: 16 32 8 8 (32768)
I0926 19:17:39.915119 10151 net.cpp:156] Memory required for data: 2172621056
I0926 19:17:39.915122 10151 layer_factory.hpp:77] Creating layer bn_inception_5b/3x3
I0926 19:17:39.915128 10151 net.cpp:91] Creating Layer bn_inception_5b/3x3
I0926 19:17:39.915132 10151 net.cpp:425] bn_inception_5b/3x3 <- inception_5b/3x3
I0926 19:17:39.915135 10151 net.cpp:399] bn_inception_5b/3x3 -> bn_inception_5b/3x3
I0926 19:17:39.915293 10151 net.cpp:141] Setting up bn_inception_5b/3x3
I0926 19:17:39.915299 10151 net.cpp:148] Top shape: 16 32 8 8 (32768)
I0926 19:17:39.915302 10151 net.cpp:156] Memory required for data: 2172752128
I0926 19:17:39.915305 10151 layer_factory.hpp:77] Creating layer bn_inception_5b/3x3_scale
I0926 19:17:39.915310 10151 net.cpp:91] Creating Layer bn_inception_5b/3x3_scale
I0926 19:17:39.915313 10151 net.cpp:425] bn_inception_5b/3x3_scale <- bn_inception_5b/3x3
I0926 19:17:39.915316 10151 net.cpp:386] bn_inception_5b/3x3_scale -> bn_inception_5b/3x3 (in-place)
I0926 19:17:39.915344 10151 layer_factory.hpp:77] Creating layer bn_inception_5b/3x3_scale
I0926 19:17:39.915421 10151 net.cpp:141] Setting up bn_inception_5b/3x3_scale
I0926 19:17:39.915424 10151 net.cpp:148] Top shape: 16 32 8 8 (32768)
I0926 19:17:39.915426 10151 net.cpp:156] Memory required for data: 2172883200
I0926 19:17:39.915429 10151 layer_factory.hpp:77] Creating layer prelu1_bn_inception_5b/3x3
I0926 19:17:39.915434 10151 net.cpp:91] Creating Layer prelu1_bn_inception_5b/3x3
I0926 19:17:39.915436 10151 net.cpp:425] prelu1_bn_inception_5b/3x3 <- bn_inception_5b/3x3
I0926 19:17:39.915441 10151 net.cpp:386] prelu1_bn_inception_5b/3x3 -> bn_inception_5b/3x3 (in-place)
I0926 19:17:39.915503 10151 net.cpp:141] Setting up prelu1_bn_inception_5b/3x3
I0926 19:17:39.915506 10151 net.cpp:148] Top shape: 16 32 8 8 (32768)
I0926 19:17:39.915508 10151 net.cpp:156] Memory required for data: 2173014272
I0926 19:17:39.927011 10151 layer_factory.hpp:77] Creating layer bn_inception_5b/3x3_prelu1_bn_inception_5b/3x3_0_split
I0926 19:17:39.927021 10151 net.cpp:91] Creating Layer bn_inception_5b/3x3_prelu1_bn_inception_5b/3x3_0_split
I0926 19:17:39.927023 10151 net.cpp:425] bn_inception_5b/3x3_prelu1_bn_inception_5b/3x3_0_split <- bn_inception_5b/3x3
I0926 19:17:39.927031 10151 net.cpp:399] bn_inception_5b/3x3_prelu1_bn_inception_5b/3x3_0_split -> bn_inception_5b/3x3_prelu1_bn_inception_5b/3x3_0_split_0
I0926 19:17:39.927036 10151 net.cpp:399] bn_inception_5b/3x3_prelu1_bn_inception_5b/3x3_0_split -> bn_inception_5b/3x3_prelu1_bn_inception_5b/3x3_0_split_1
I0926 19:17:39.927083 10151 net.cpp:141] Setting up bn_inception_5b/3x3_prelu1_bn_inception_5b/3x3_0_split
I0926 19:17:39.927088 10151 net.cpp:148] Top shape: 16 32 8 8 (32768)
I0926 19:17:39.927091 10151 net.cpp:148] Top shape: 16 32 8 8 (32768)
I0926 19:17:39.927093 10151 net.cpp:156] Memory required for data: 2173276416
I0926 19:17:39.927095 10151 layer_factory.hpp:77] Creating layer inception_5b/3x1xa
I0926 19:17:39.927101 10151 net.cpp:91] Creating Layer inception_5b/3x1xa
I0926 19:17:39.927103 10151 net.cpp:425] inception_5b/3x1xa <- bn_inception_5b/3x3_prelu1_bn_inception_5b/3x3_0_split_0
I0926 19:17:39.927114 10151 net.cpp:399] inception_5b/3x1xa -> inception_5b/3x1xa
I0926 19:17:39.928017 10151 net.cpp:141] Setting up inception_5b/3x1xa
I0926 19:17:39.928025 10151 net.cpp:148] Top shape: 16 32 8 8 (32768)
I0926 19:17:39.928027 10151 net.cpp:156] Memory required for data: 2173407488
I0926 19:17:39.928031 10151 layer_factory.hpp:77] Creating layer bn_inception_5b/3x1xa
I0926 19:17:39.928038 10151 net.cpp:91] Creating Layer bn_inception_5b/3x1xa
I0926 19:17:39.928041 10151 net.cpp:425] bn_inception_5b/3x1xa <- inception_5b/3x1xa
I0926 19:17:39.928045 10151 net.cpp:399] bn_inception_5b/3x1xa -> bn_inception_5b/3x1xa
I0926 19:17:39.928189 10151 net.cpp:141] Setting up bn_inception_5b/3x1xa
I0926 19:17:39.928194 10151 net.cpp:148] Top shape: 16 32 8 8 (32768)
I0926 19:17:39.928195 10151 net.cpp:156] Memory required for data: 2173538560
I0926 19:17:39.928200 10151 layer_factory.hpp:77] Creating layer bn_inception_5b/3x1xa_scale
I0926 19:17:39.928205 10151 net.cpp:91] Creating Layer bn_inception_5b/3x1xa_scale
I0926 19:17:39.928207 10151 net.cpp:425] bn_inception_5b/3x1xa_scale <- bn_inception_5b/3x1xa
I0926 19:17:39.928211 10151 net.cpp:386] bn_inception_5b/3x1xa_scale -> bn_inception_5b/3x1xa (in-place)
I0926 19:17:39.928244 10151 layer_factory.hpp:77] Creating layer bn_inception_5b/3x1xa_scale
I0926 19:17:39.928324 10151 net.cpp:141] Setting up bn_inception_5b/3x1xa_scale
I0926 19:17:39.928328 10151 net.cpp:148] Top shape: 16 32 8 8 (32768)
I0926 19:17:39.928330 10151 net.cpp:156] Memory required for data: 2173669632
I0926 19:17:39.928334 10151 layer_factory.hpp:77] Creating layer prelu1_bn_inception_5b/3x1xa
I0926 19:17:39.928339 10151 net.cpp:91] Creating Layer prelu1_bn_inception_5b/3x1xa
I0926 19:17:39.928341 10151 net.cpp:425] prelu1_bn_inception_5b/3x1xa <- bn_inception_5b/3x1xa
I0926 19:17:39.928345 10151 net.cpp:386] prelu1_bn_inception_5b/3x1xa -> bn_inception_5b/3x1xa (in-place)
I0926 19:17:39.928411 10151 net.cpp:141] Setting up prelu1_bn_inception_5b/3x1xa
I0926 19:17:39.928416 10151 net.cpp:148] Top shape: 16 32 8 8 (32768)
I0926 19:17:39.928417 10151 net.cpp:156] Memory required for data: 2173800704
I0926 19:17:39.928419 10151 layer_factory.hpp:77] Creating layer inception_5b/1x3xb
I0926 19:17:39.928426 10151 net.cpp:91] Creating Layer inception_5b/1x3xb
I0926 19:17:39.928427 10151 net.cpp:425] inception_5b/1x3xb <- bn_inception_5b/3x3_prelu1_bn_inception_5b/3x3_0_split_1
I0926 19:17:39.928431 10151 net.cpp:399] inception_5b/1x3xb -> inception_5b/1x3xb
I0926 19:17:39.929302 10151 net.cpp:141] Setting up inception_5b/1x3xb
I0926 19:17:39.929309 10151 net.cpp:148] Top shape: 16 32 8 8 (32768)
I0926 19:17:39.929311 10151 net.cpp:156] Memory required for data: 2173931776
I0926 19:17:39.929316 10151 layer_factory.hpp:77] Creating layer bn_inception_5b/1x3xb
I0926 19:17:39.929323 10151 net.cpp:91] Creating Layer bn_inception_5b/1x3xb
I0926 19:17:39.929327 10151 net.cpp:425] bn_inception_5b/1x3xb <- inception_5b/1x3xb
I0926 19:17:39.929330 10151 net.cpp:399] bn_inception_5b/1x3xb -> bn_inception_5b/1x3xb
I0926 19:17:39.929469 10151 net.cpp:141] Setting up bn_inception_5b/1x3xb
I0926 19:17:39.929473 10151 net.cpp:148] Top shape: 16 32 8 8 (32768)
I0926 19:17:39.929476 10151 net.cpp:156] Memory required for data: 2174062848
I0926 19:17:39.929479 10151 layer_factory.hpp:77] Creating layer bn_inception_5b/1x3xb_scale
I0926 19:17:39.929483 10151 net.cpp:91] Creating Layer bn_inception_5b/1x3xb_scale
I0926 19:17:39.929486 10151 net.cpp:425] bn_inception_5b/1x3xb_scale <- bn_inception_5b/1x3xb
I0926 19:17:39.929489 10151 net.cpp:386] bn_inception_5b/1x3xb_scale -> bn_inception_5b/1x3xb (in-place)
I0926 19:17:39.929518 10151 layer_factory.hpp:77] Creating layer bn_inception_5b/1x3xb_scale
I0926 19:17:39.929599 10151 net.cpp:141] Setting up bn_inception_5b/1x3xb_scale
I0926 19:17:39.929602 10151 net.cpp:148] Top shape: 16 32 8 8 (32768)
I0926 19:17:39.929603 10151 net.cpp:156] Memory required for data: 2174193920
I0926 19:17:39.929613 10151 layer_factory.hpp:77] Creating layer prelu1_bn_inception_5b/1x3xb
I0926 19:17:39.929617 10151 net.cpp:91] Creating Layer prelu1_bn_inception_5b/1x3xb
I0926 19:17:39.929620 10151 net.cpp:425] prelu1_bn_inception_5b/1x3xb <- bn_inception_5b/1x3xb
I0926 19:17:39.929623 10151 net.cpp:386] prelu1_bn_inception_5b/1x3xb -> bn_inception_5b/1x3xb (in-place)
I0926 19:17:39.929688 10151 net.cpp:141] Setting up prelu1_bn_inception_5b/1x3xb
I0926 19:17:39.929692 10151 net.cpp:148] Top shape: 16 32 8 8 (32768)
I0926 19:17:39.929694 10151 net.cpp:156] Memory required for data: 2174324992
I0926 19:17:39.929697 10151 layer_factory.hpp:77] Creating layer inception_5b/pool
I0926 19:17:39.929700 10151 net.cpp:91] Creating Layer inception_5b/pool
I0926 19:17:39.929703 10151 net.cpp:425] inception_5b/pool <- inception_5a/output_inception_5a/output_0_split_3
I0926 19:17:39.929707 10151 net.cpp:399] inception_5b/pool -> inception_5b/pool
I0926 19:17:39.929731 10151 net.cpp:141] Setting up inception_5b/pool
I0926 19:17:39.929735 10151 net.cpp:148] Top shape: 16 416 8 8 (425984)
I0926 19:17:39.929738 10151 net.cpp:156] Memory required for data: 2176028928
I0926 19:17:39.929739 10151 layer_factory.hpp:77] Creating layer inception_5b/pool_proj
I0926 19:17:39.929744 10151 net.cpp:91] Creating Layer inception_5b/pool_proj
I0926 19:17:39.929746 10151 net.cpp:425] inception_5b/pool_proj <- inception_5b/pool
I0926 19:17:39.929751 10151 net.cpp:399] inception_5b/pool_proj -> inception_5b/pool_proj
I0926 19:17:39.930819 10151 net.cpp:141] Setting up inception_5b/pool_proj
I0926 19:17:39.930826 10151 net.cpp:148] Top shape: 16 32 8 8 (32768)
I0926 19:17:39.930829 10151 net.cpp:156] Memory required for data: 2176160000
I0926 19:17:39.930832 10151 layer_factory.hpp:77] Creating layer bn_inception_5b/pool_proj
I0926 19:17:39.930837 10151 net.cpp:91] Creating Layer bn_inception_5b/pool_proj
I0926 19:17:39.930840 10151 net.cpp:425] bn_inception_5b/pool_proj <- inception_5b/pool_proj
I0926 19:17:39.930845 10151 net.cpp:399] bn_inception_5b/pool_proj -> bn_inception_5b/pool_proj
I0926 19:17:39.930982 10151 net.cpp:141] Setting up bn_inception_5b/pool_proj
I0926 19:17:39.930986 10151 net.cpp:148] Top shape: 16 32 8 8 (32768)
I0926 19:17:39.930989 10151 net.cpp:156] Memory required for data: 2176291072
I0926 19:17:39.930992 10151 layer_factory.hpp:77] Creating layer bn_inception_5b/pool_proj_scale
I0926 19:17:39.930996 10151 net.cpp:91] Creating Layer bn_inception_5b/pool_proj_scale
I0926 19:17:39.930999 10151 net.cpp:425] bn_inception_5b/pool_proj_scale <- bn_inception_5b/pool_proj
I0926 19:17:39.931004 10151 net.cpp:386] bn_inception_5b/pool_proj_scale -> bn_inception_5b/pool_proj (in-place)
I0926 19:17:39.931030 10151 layer_factory.hpp:77] Creating layer bn_inception_5b/pool_proj_scale
I0926 19:17:39.931105 10151 net.cpp:141] Setting up bn_inception_5b/pool_proj_scale
I0926 19:17:39.950157 10151 net.cpp:148] Top shape: 16 32 8 8 (32768)
I0926 19:17:39.950163 10151 net.cpp:156] Memory required for data: 2176422144
I0926 19:17:39.950168 10151 layer_factory.hpp:77] Creating layer prelu1_bn_inception_5b/pool
I0926 19:17:39.950173 10151 net.cpp:91] Creating Layer prelu1_bn_inception_5b/pool
I0926 19:17:39.950176 10151 net.cpp:425] prelu1_bn_inception_5b/pool <- bn_inception_5b/pool_proj
I0926 19:17:39.950183 10151 net.cpp:386] prelu1_bn_inception_5b/pool -> bn_inception_5b/pool_proj (in-place)
I0926 19:17:39.950268 10151 net.cpp:141] Setting up prelu1_bn_inception_5b/pool
I0926 19:17:39.950271 10151 net.cpp:148] Top shape: 16 32 8 8 (32768)
I0926 19:17:39.950273 10151 net.cpp:156] Memory required for data: 2176553216
I0926 19:17:39.950276 10151 layer_factory.hpp:77] Creating layer inception_5b/output
I0926 19:17:39.950279 10151 net.cpp:91] Creating Layer inception_5b/output
I0926 19:17:39.950283 10151 net.cpp:425] inception_5b/output <- bn_inception_5b/1x1
I0926 19:17:39.950285 10151 net.cpp:425] inception_5b/output <- bn_inception_5b/3x1
I0926 19:17:39.950289 10151 net.cpp:425] inception_5b/output <- bn_inception_5b/1x3
I0926 19:17:39.950297 10151 net.cpp:425] inception_5b/output <- bn_inception_5b/3x1xa
I0926 19:17:39.950300 10151 net.cpp:425] inception_5b/output <- bn_inception_5b/1x3xb
I0926 19:17:39.950304 10151 net.cpp:425] inception_5b/output <- bn_inception_5b/pool_proj
I0926 19:17:39.950307 10151 net.cpp:399] inception_5b/output -> inception_5b/output
I0926 19:17:39.950325 10151 net.cpp:141] Setting up inception_5b/output
I0926 19:17:39.950330 10151 net.cpp:148] Top shape: 16 416 8 8 (425984)
I0926 19:17:39.950332 10151 net.cpp:156] Memory required for data: 2178257152
I0926 19:17:39.950335 10151 layer_factory.hpp:77] Creating layer inception_5b/output_inception_5b/output_0_split
I0926 19:17:39.950337 10151 net.cpp:91] Creating Layer inception_5b/output_inception_5b/output_0_split
I0926 19:17:39.950340 10151 net.cpp:425] inception_5b/output_inception_5b/output_0_split <- inception_5b/output
I0926 19:17:39.950342 10151 net.cpp:399] inception_5b/output_inception_5b/output_0_split -> inception_5b/output_inception_5b/output_0_split_0
I0926 19:17:39.950346 10151 net.cpp:399] inception_5b/output_inception_5b/output_0_split -> inception_5b/output_inception_5b/output_0_split_1
I0926 19:17:39.950350 10151 net.cpp:399] inception_5b/output_inception_5b/output_0_split -> inception_5b/output_inception_5b/output_0_split_2
I0926 19:17:39.950381 10151 net.cpp:141] Setting up inception_5b/output_inception_5b/output_0_split
I0926 19:17:39.950384 10151 net.cpp:148] Top shape: 16 416 8 8 (425984)
I0926 19:17:39.950387 10151 net.cpp:148] Top shape: 16 416 8 8 (425984)
I0926 19:17:39.950389 10151 net.cpp:148] Top shape: 16 416 8 8 (425984)
I0926 19:17:39.950392 10151 net.cpp:156] Memory required for data: 2183368960
I0926 19:17:39.950393 10151 layer_factory.hpp:77] Creating layer inception_5c/1x1
I0926 19:17:39.950399 10151 net.cpp:91] Creating Layer inception_5c/1x1
I0926 19:17:39.950402 10151 net.cpp:425] inception_5c/1x1 <- inception_5b/output_inception_5b/output_0_split_0
I0926 19:17:39.950407 10151 net.cpp:399] inception_5c/1x1 -> inception_5c/1x1
I0926 19:17:39.951792 10151 net.cpp:141] Setting up inception_5c/1x1
I0926 19:17:39.951800 10151 net.cpp:148] Top shape: 16 64 8 8 (65536)
I0926 19:17:39.951802 10151 net.cpp:156] Memory required for data: 2183631104
I0926 19:17:39.951807 10151 layer_factory.hpp:77] Creating layer bn_inception_5c/1x1
I0926 19:17:39.951812 10151 net.cpp:91] Creating Layer bn_inception_5c/1x1
I0926 19:17:39.951817 10151 net.cpp:425] bn_inception_5c/1x1 <- inception_5c/1x1
I0926 19:17:39.951820 10151 net.cpp:399] bn_inception_5c/1x1 -> bn_inception_5c/1x1
I0926 19:17:39.951963 10151 net.cpp:141] Setting up bn_inception_5c/1x1
I0926 19:17:39.951967 10151 net.cpp:148] Top shape: 16 64 8 8 (65536)
I0926 19:17:39.951969 10151 net.cpp:156] Memory required for data: 2183893248
I0926 19:17:39.951973 10151 layer_factory.hpp:77] Creating layer bn_inception_5c/1x1_scale
I0926 19:17:39.951978 10151 net.cpp:91] Creating Layer bn_inception_5c/1x1_scale
I0926 19:17:39.951982 10151 net.cpp:425] bn_inception_5c/1x1_scale <- bn_inception_5c/1x1
I0926 19:17:39.951985 10151 net.cpp:386] bn_inception_5c/1x1_scale -> bn_inception_5c/1x1 (in-place)
I0926 19:17:39.952014 10151 layer_factory.hpp:77] Creating layer bn_inception_5c/1x1_scale
I0926 19:17:39.952090 10151 net.cpp:141] Setting up bn_inception_5c/1x1_scale
I0926 19:17:39.952095 10151 net.cpp:148] Top shape: 16 64 8 8 (65536)
I0926 19:17:39.952096 10151 net.cpp:156] Memory required for data: 2184155392
I0926 19:17:39.952100 10151 layer_factory.hpp:77] Creating layer prelu1_bn_inception_5c
I0926 19:17:39.952105 10151 net.cpp:91] Creating Layer prelu1_bn_inception_5c
I0926 19:17:39.952107 10151 net.cpp:425] prelu1_bn_inception_5c <- bn_inception_5c/1x1
I0926 19:17:39.952111 10151 net.cpp:386] prelu1_bn_inception_5c -> bn_inception_5c/1x1 (in-place)
I0926 19:17:39.952178 10151 net.cpp:141] Setting up prelu1_bn_inception_5c
I0926 19:17:39.952181 10151 net.cpp:148] Top shape: 16 64 8 8 (65536)
I0926 19:17:39.952183 10151 net.cpp:156] Memory required for data: 2184417536
I0926 19:17:39.952186 10151 layer_factory.hpp:77] Creating layer inception_5c/1x3x2_reduce
I0926 19:17:39.952199 10151 net.cpp:91] Creating Layer inception_5c/1x3x2_reduce
I0926 19:17:39.952203 10151 net.cpp:425] inception_5c/1x3x2_reduce <- inception_5b/output_inception_5b/output_0_split_1
I0926 19:17:39.952206 10151 net.cpp:399] inception_5c/1x3x2_reduce -> inception_5c/1x3x2_reduce
I0926 19:17:39.953590 10151 net.cpp:141] Setting up inception_5c/1x3x2_reduce
I0926 19:17:39.953598 10151 net.cpp:148] Top shape: 16 96 8 8 (98304)
I0926 19:17:39.953599 10151 net.cpp:156] Memory required for data: 2184810752
I0926 19:17:39.953603 10151 layer_factory.hpp:77] Creating layer bn_inception_5c_1x3x2reduce
I0926 19:17:39.953608 10151 net.cpp:91] Creating Layer bn_inception_5c_1x3x2reduce
I0926 19:17:39.953611 10151 net.cpp:425] bn_inception_5c_1x3x2reduce <- inception_5c/1x3x2_reduce
I0926 19:17:39.953615 10151 net.cpp:399] bn_inception_5c_1x3x2reduce -> bn_inception_5c_1x3x2reduce
I0926 19:17:39.953760 10151 net.cpp:141] Setting up bn_inception_5c_1x3x2reduce
I0926 19:17:39.953764 10151 net.cpp:148] Top shape: 16 96 8 8 (98304)
I0926 19:17:39.953766 10151 net.cpp:156] Memory required for data: 2185203968
I0926 19:17:39.953770 10151 layer_factory.hpp:77] Creating layer bn_inception_5c_1x3x2reduce_scale
I0926 19:17:39.953775 10151 net.cpp:91] Creating Layer bn_inception_5c_1x3x2reduce_scale
I0926 19:17:39.953778 10151 net.cpp:425] bn_inception_5c_1x3x2reduce_scale <- bn_inception_5c_1x3x2reduce
I0926 19:17:39.953783 10151 net.cpp:386] bn_inception_5c_1x3x2reduce_scale -> bn_inception_5c_1x3x2reduce (in-place)
I0926 19:17:39.953810 10151 layer_factory.hpp:77] Creating layer bn_inception_5c_1x3x2reduce_scale
I0926 19:17:39.953888 10151 net.cpp:141] Setting up bn_inception_5c_1x3x2reduce_scale
I0926 19:17:39.953892 10151 net.cpp:148] Top shape: 16 96 8 8 (98304)
I0926 19:17:39.953894 10151 net.cpp:156] Memory required for data: 2185597184
I0926 19:17:39.953897 10151 layer_factory.hpp:77] Creating layer prelu1_bn_inception_5c_1x3x2reduce
I0926 19:17:39.953902 10151 net.cpp:91] Creating Layer prelu1_bn_inception_5c_1x3x2reduce
I0926 19:17:39.953904 10151 net.cpp:425] prelu1_bn_inception_5c_1x3x2reduce <- bn_inception_5c_1x3x2reduce
I0926 19:17:39.953907 10151 net.cpp:386] prelu1_bn_inception_5c_1x3x2reduce -> bn_inception_5c_1x3x2reduce (in-place)
I0926 19:17:39.953969 10151 net.cpp:141] Setting up prelu1_bn_inception_5c_1x3x2reduce
I0926 19:17:39.953974 10151 net.cpp:148] Top shape: 16 96 8 8 (98304)
I0926 19:17:39.953975 10151 net.cpp:156] Memory required for data: 2185990400
I0926 19:17:39.953977 10151 layer_factory.hpp:77] Creating layer bn_inception_5c_1x3x2reduce_prelu1_bn_inception_5c_1x3x2reduce_0_split
I0926 19:17:39.953981 10151 net.cpp:91] Creating Layer bn_inception_5c_1x3x2reduce_prelu1_bn_inception_5c_1x3x2reduce_0_split
I0926 19:17:39.957185 10151 net.cpp:425] bn_inception_5c_1x3x2reduce_prelu1_bn_inception_5c_1x3x2reduce_0_split <- bn_inception_5c_1x3x2reduce
I0926 19:17:39.957193 10151 net.cpp:399] bn_inception_5c_1x3x2reduce_prelu1_bn_inception_5c_1x3x2reduce_0_split -> bn_inception_5c_1x3x2reduce_prelu1_bn_inception_5c_1x3x2reduce_0_split_0
I0926 19:17:39.957200 10151 net.cpp:399] bn_inception_5c_1x3x2reduce_prelu1_bn_inception_5c_1x3x2reduce_0_split -> bn_inception_5c_1x3x2reduce_prelu1_bn_inception_5c_1x3x2reduce_0_split_1
I0926 19:17:39.957236 10151 net.cpp:141] Setting up bn_inception_5c_1x3x2reduce_prelu1_bn_inception_5c_1x3x2reduce_0_split
I0926 19:17:39.957240 10151 net.cpp:148] Top shape: 16 96 8 8 (98304)
I0926 19:17:39.957242 10151 net.cpp:148] Top shape: 16 96 8 8 (98304)
I0926 19:17:39.957244 10151 net.cpp:156] Memory required for data: 2186776832
I0926 19:17:39.957247 10151 layer_factory.hpp:77] Creating layer inception_5c/1x3
I0926 19:17:39.957252 10151 net.cpp:91] Creating Layer inception_5c/1x3
I0926 19:17:39.957255 10151 net.cpp:425] inception_5c/1x3 <- bn_inception_5c_1x3x2reduce_prelu1_bn_inception_5c_1x3x2reduce_0_split_0
I0926 19:17:39.957260 10151 net.cpp:399] inception_5c/1x3 -> inception_5c/1x3
I0926 19:17:39.958856 10151 net.cpp:141] Setting up inception_5c/1x3
I0926 19:17:39.958871 10151 net.cpp:148] Top shape: 16 128 8 8 (131072)
I0926 19:17:39.958874 10151 net.cpp:156] Memory required for data: 2187301120
I0926 19:17:39.958878 10151 layer_factory.hpp:77] Creating layer bn_inception_5c/1x3
I0926 19:17:39.958885 10151 net.cpp:91] Creating Layer bn_inception_5c/1x3
I0926 19:17:39.958889 10151 net.cpp:425] bn_inception_5c/1x3 <- inception_5c/1x3
I0926 19:17:39.958892 10151 net.cpp:399] bn_inception_5c/1x3 -> bn_inception_5c/1x3
I0926 19:17:39.959029 10151 net.cpp:141] Setting up bn_inception_5c/1x3
I0926 19:17:39.959034 10151 net.cpp:148] Top shape: 16 128 8 8 (131072)
I0926 19:17:39.959036 10151 net.cpp:156] Memory required for data: 2187825408
I0926 19:17:39.959040 10151 layer_factory.hpp:77] Creating layer bn_inception_5c/1x3_scale
I0926 19:17:39.959044 10151 net.cpp:91] Creating Layer bn_inception_5c/1x3_scale
I0926 19:17:39.959048 10151 net.cpp:425] bn_inception_5c/1x3_scale <- bn_inception_5c/1x3
I0926 19:17:39.959051 10151 net.cpp:386] bn_inception_5c/1x3_scale -> bn_inception_5c/1x3 (in-place)
I0926 19:17:39.959080 10151 layer_factory.hpp:77] Creating layer bn_inception_5c/1x3_scale
I0926 19:17:39.959151 10151 net.cpp:141] Setting up bn_inception_5c/1x3_scale
I0926 19:17:39.959156 10151 net.cpp:148] Top shape: 16 128 8 8 (131072)
I0926 19:17:39.959157 10151 net.cpp:156] Memory required for data: 2188349696
I0926 19:17:39.959161 10151 layer_factory.hpp:77] Creating layer prelu1_bn_inception_5c/1x3
I0926 19:17:39.959164 10151 net.cpp:91] Creating Layer prelu1_bn_inception_5c/1x3
I0926 19:17:39.959167 10151 net.cpp:425] prelu1_bn_inception_5c/1x3 <- bn_inception_5c/1x3
I0926 19:17:39.959170 10151 net.cpp:386] prelu1_bn_inception_5c/1x3 -> bn_inception_5c/1x3 (in-place)
I0926 19:17:39.959231 10151 net.cpp:141] Setting up prelu1_bn_inception_5c/1x3
I0926 19:17:39.959235 10151 net.cpp:148] Top shape: 16 128 8 8 (131072)
I0926 19:17:39.959238 10151 net.cpp:156] Memory required for data: 2188873984
I0926 19:17:39.959239 10151 layer_factory.hpp:77] Creating layer inception_5c/3x1
I0926 19:17:39.959244 10151 net.cpp:91] Creating Layer inception_5c/3x1
I0926 19:17:39.959247 10151 net.cpp:425] inception_5c/3x1 <- bn_inception_5c_1x3x2reduce_prelu1_bn_inception_5c_1x3x2reduce_0_split_1
I0926 19:17:39.959251 10151 net.cpp:399] inception_5c/3x1 -> inception_5c/3x1
I0926 19:17:39.960795 10151 net.cpp:141] Setting up inception_5c/3x1
I0926 19:17:39.960803 10151 net.cpp:148] Top shape: 16 128 8 8 (131072)
I0926 19:17:39.960805 10151 net.cpp:156] Memory required for data: 2189398272
I0926 19:17:39.960808 10151 layer_factory.hpp:77] Creating layer bn_inception_5c/3x1
I0926 19:17:39.960814 10151 net.cpp:91] Creating Layer bn_inception_5c/3x1
I0926 19:17:39.960818 10151 net.cpp:425] bn_inception_5c/3x1 <- inception_5c/3x1
I0926 19:17:39.960822 10151 net.cpp:399] bn_inception_5c/3x1 -> bn_inception_5c/3x1
I0926 19:17:39.960957 10151 net.cpp:141] Setting up bn_inception_5c/3x1
I0926 19:17:39.960960 10151 net.cpp:148] Top shape: 16 128 8 8 (131072)
I0926 19:17:39.960963 10151 net.cpp:156] Memory required for data: 2189922560
I0926 19:17:39.960966 10151 layer_factory.hpp:77] Creating layer bn_inception_5c/3x1_scale
I0926 19:17:39.960971 10151 net.cpp:91] Creating Layer bn_inception_5c/3x1_scale
I0926 19:17:39.960973 10151 net.cpp:425] bn_inception_5c/3x1_scale <- bn_inception_5c/3x1
I0926 19:17:39.960976 10151 net.cpp:386] bn_inception_5c/3x1_scale -> bn_inception_5c/3x1 (in-place)
I0926 19:17:39.961004 10151 layer_factory.hpp:77] Creating layer bn_inception_5c/3x1_scale
I0926 19:17:39.961076 10151 net.cpp:141] Setting up bn_inception_5c/3x1_scale
I0926 19:17:39.961081 10151 net.cpp:148] Top shape: 16 128 8 8 (131072)
I0926 19:17:39.961082 10151 net.cpp:156] Memory required for data: 2190446848
I0926 19:17:39.961086 10151 layer_factory.hpp:77] Creating layer prelu1_bn_inception_5c/3x1
I0926 19:17:39.961089 10151 net.cpp:91] Creating Layer prelu1_bn_inception_5c/3x1
I0926 19:17:39.961092 10151 net.cpp:425] prelu1_bn_inception_5c/3x1 <- bn_inception_5c/3x1
I0926 19:17:39.961100 10151 net.cpp:386] prelu1_bn_inception_5c/3x1 -> bn_inception_5c/3x1 (in-place)
I0926 19:17:39.961160 10151 net.cpp:141] Setting up prelu1_bn_inception_5c/3x1
I0926 19:17:39.961163 10151 net.cpp:148] Top shape: 16 128 8 8 (131072)
I0926 19:17:39.961165 10151 net.cpp:156] Memory required for data: 2190971136
I0926 19:17:39.961169 10151 layer_factory.hpp:77] Creating layer inception_5c/1x3x3_reduce
I0926 19:17:39.961174 10151 net.cpp:91] Creating Layer inception_5c/1x3x3_reduce
I0926 19:17:39.961175 10151 net.cpp:425] inception_5c/1x3x3_reduce <- inception_5a/output_inception_5a/output_0_split_4
I0926 19:17:39.961180 10151 net.cpp:399] inception_5c/1x3x3_reduce -> inception_5c/1x3x3_reduce
I0926 19:17:39.962080 10151 net.cpp:141] Setting up inception_5c/1x3x3_reduce
I0926 19:17:39.962088 10151 net.cpp:148] Top shape: 16 16 8 8 (16384)
I0926 19:17:39.962090 10151 net.cpp:156] Memory required for data: 2191036672
I0926 19:17:39.962095 10151 layer_factory.hpp:77] Creating layer bn_inception_5c/1x3x3
I0926 19:17:39.962100 10151 net.cpp:91] Creating Layer bn_inception_5c/1x3x3
I0926 19:17:39.962103 10151 net.cpp:425] bn_inception_5c/1x3x3 <- inception_5c/1x3x3_reduce
I0926 19:17:39.962107 10151 net.cpp:399] bn_inception_5c/1x3x3 -> bn_inception_5c/1x3x3
I0926 19:17:39.962262 10151 net.cpp:141] Setting up bn_inception_5c/1x3x3
I0926 19:17:39.962267 10151 net.cpp:148] Top shape: 16 16 8 8 (16384)
I0926 19:17:39.962270 10151 net.cpp:156] Memory required for data: 2191102208
I0926 19:17:39.962275 10151 layer_factory.hpp:77] Creating layer bn_inception_5c/1x3x3_scale
I0926 19:17:39.962280 10151 net.cpp:91] Creating Layer bn_inception_5c/1x3x3_scale
I0926 19:17:39.962281 10151 net.cpp:425] bn_inception_5c/1x3x3_scale <- bn_inception_5c/1x3x3
I0926 19:17:39.962285 10151 net.cpp:386] bn_inception_5c/1x3x3_scale -> bn_inception_5c/1x3x3 (in-place)
I0926 19:17:39.962312 10151 layer_factory.hpp:77] Creating layer bn_inception_5c/1x3x3_scale
I0926 19:17:39.962391 10151 net.cpp:141] Setting up bn_inception_5c/1x3x3_scale
I0926 19:17:39.962395 10151 net.cpp:148] Top shape: 16 16 8 8 (16384)
I0926 19:17:39.962398 10151 net.cpp:156] Memory required for data: 2191167744
I0926 19:17:39.962401 10151 layer_factory.hpp:77] Creating layer prelu1_bn_inception_5c/1x3x3
I0926 19:17:39.962404 10151 net.cpp:91] Creating Layer prelu1_bn_inception_5c/1x3x3
I0926 19:17:39.962407 10151 net.cpp:425] prelu1_bn_inception_5c/1x3x3 <- bn_inception_5c/1x3x3
I0926 19:17:39.962410 10151 net.cpp:386] prelu1_bn_inception_5c/1x3x3 -> bn_inception_5c/1x3x3 (in-place)
I0926 19:17:39.962481 10151 net.cpp:141] Setting up prelu1_bn_inception_5c/1x3x3
I0926 19:17:39.962484 10151 net.cpp:148] Top shape: 16 16 8 8 (16384)
I0926 19:17:39.980527 10151 net.cpp:156] Memory required for data: 2191233280
I0926 19:17:39.980536 10151 layer_factory.hpp:77] Creating layer inception_5c/3x3
I0926 19:17:39.980545 10151 net.cpp:91] Creating Layer inception_5c/3x3
I0926 19:17:39.980550 10151 net.cpp:425] inception_5c/3x3 <- bn_inception_5c/1x3x3
I0926 19:17:39.980554 10151 net.cpp:399] inception_5c/3x3 -> inception_5c/3x3
I0926 19:17:39.981514 10151 net.cpp:141] Setting up inception_5c/3x3
I0926 19:17:39.981523 10151 net.cpp:148] Top shape: 16 32 8 8 (32768)
I0926 19:17:39.981525 10151 net.cpp:156] Memory required for data: 2191364352
I0926 19:17:39.981529 10151 layer_factory.hpp:77] Creating layer bn_inception_5c/3x3
I0926 19:17:39.981535 10151 net.cpp:91] Creating Layer bn_inception_5c/3x3
I0926 19:17:39.981539 10151 net.cpp:425] bn_inception_5c/3x3 <- inception_5c/3x3
I0926 19:17:39.981544 10151 net.cpp:399] bn_inception_5c/3x3 -> bn_inception_5c/3x3
I0926 19:17:39.981701 10151 net.cpp:141] Setting up bn_inception_5c/3x3
I0926 19:17:39.981706 10151 net.cpp:148] Top shape: 16 32 8 8 (32768)
I0926 19:17:39.981709 10151 net.cpp:156] Memory required for data: 2191495424
I0926 19:17:39.981714 10151 layer_factory.hpp:77] Creating layer bn_inception_5c/3x3_scale
I0926 19:17:39.981719 10151 net.cpp:91] Creating Layer bn_inception_5c/3x3_scale
I0926 19:17:39.981720 10151 net.cpp:425] bn_inception_5c/3x3_scale <- bn_inception_5c/3x3
I0926 19:17:39.981732 10151 net.cpp:386] bn_inception_5c/3x3_scale -> bn_inception_5c/3x3 (in-place)
I0926 19:17:39.981765 10151 layer_factory.hpp:77] Creating layer bn_inception_5c/3x3_scale
I0926 19:17:39.981864 10151 net.cpp:141] Setting up bn_inception_5c/3x3_scale
I0926 19:17:39.981870 10151 net.cpp:148] Top shape: 16 32 8 8 (32768)
I0926 19:17:39.981873 10151 net.cpp:156] Memory required for data: 2191626496
I0926 19:17:39.981876 10151 layer_factory.hpp:77] Creating layer prelu1_bn_inception_5c/3x3
I0926 19:17:39.981881 10151 net.cpp:91] Creating Layer prelu1_bn_inception_5c/3x3
I0926 19:17:39.981884 10151 net.cpp:425] prelu1_bn_inception_5c/3x3 <- bn_inception_5c/3x3
I0926 19:17:39.981889 10151 net.cpp:386] prelu1_bn_inception_5c/3x3 -> bn_inception_5c/3x3 (in-place)
I0926 19:17:39.981966 10151 net.cpp:141] Setting up prelu1_bn_inception_5c/3x3
I0926 19:17:39.981969 10151 net.cpp:148] Top shape: 16 32 8 8 (32768)
I0926 19:17:39.981971 10151 net.cpp:156] Memory required for data: 2191757568
I0926 19:17:39.981974 10151 layer_factory.hpp:77] Creating layer bn_inception_5c/3x3_prelu1_bn_inception_5c/3x3_0_split
I0926 19:17:39.981978 10151 net.cpp:91] Creating Layer bn_inception_5c/3x3_prelu1_bn_inception_5c/3x3_0_split
I0926 19:17:39.981981 10151 net.cpp:425] bn_inception_5c/3x3_prelu1_bn_inception_5c/3x3_0_split <- bn_inception_5c/3x3
I0926 19:17:39.981986 10151 net.cpp:399] bn_inception_5c/3x3_prelu1_bn_inception_5c/3x3_0_split -> bn_inception_5c/3x3_prelu1_bn_inception_5c/3x3_0_split_0
I0926 19:17:39.981989 10151 net.cpp:399] bn_inception_5c/3x3_prelu1_bn_inception_5c/3x3_0_split -> bn_inception_5c/3x3_prelu1_bn_inception_5c/3x3_0_split_1
I0926 19:17:39.982017 10151 net.cpp:141] Setting up bn_inception_5c/3x3_prelu1_bn_inception_5c/3x3_0_split
I0926 19:17:39.982020 10151 net.cpp:148] Top shape: 16 32 8 8 (32768)
I0926 19:17:39.982023 10151 net.cpp:148] Top shape: 16 32 8 8 (32768)
I0926 19:17:39.982025 10151 net.cpp:156] Memory required for data: 2192019712
I0926 19:17:39.982028 10151 layer_factory.hpp:77] Creating layer inception_5c/3x1xa
I0926 19:17:39.982034 10151 net.cpp:91] Creating Layer inception_5c/3x1xa
I0926 19:17:39.982038 10151 net.cpp:425] inception_5c/3x1xa <- bn_inception_5c/3x3_prelu1_bn_inception_5c/3x3_0_split_0
I0926 19:17:39.982041 10151 net.cpp:399] inception_5c/3x1xa -> inception_5c/3x1xa
I0926 19:17:39.983013 10151 net.cpp:141] Setting up inception_5c/3x1xa
I0926 19:17:39.983021 10151 net.cpp:148] Top shape: 16 32 8 8 (32768)
I0926 19:17:39.983024 10151 net.cpp:156] Memory required for data: 2192150784
I0926 19:17:39.983028 10151 layer_factory.hpp:77] Creating layer bn_inception_5c/3x1xa
I0926 19:17:39.983036 10151 net.cpp:91] Creating Layer bn_inception_5c/3x1xa
I0926 19:17:39.983038 10151 net.cpp:425] bn_inception_5c/3x1xa <- inception_5c/3x1xa
I0926 19:17:39.983042 10151 net.cpp:399] bn_inception_5c/3x1xa -> bn_inception_5c/3x1xa
I0926 19:17:39.983202 10151 net.cpp:141] Setting up bn_inception_5c/3x1xa
I0926 19:17:39.983206 10151 net.cpp:148] Top shape: 16 32 8 8 (32768)
I0926 19:17:39.983208 10151 net.cpp:156] Memory required for data: 2192281856
I0926 19:17:39.983213 10151 layer_factory.hpp:77] Creating layer bn_inception_5c/3x1xa_scale
I0926 19:17:39.983218 10151 net.cpp:91] Creating Layer bn_inception_5c/3x1xa_scale
I0926 19:17:39.983222 10151 net.cpp:425] bn_inception_5c/3x1xa_scale <- bn_inception_5c/3x1xa
I0926 19:17:39.983224 10151 net.cpp:386] bn_inception_5c/3x1xa_scale -> bn_inception_5c/3x1xa (in-place)
I0926 19:17:39.983256 10151 layer_factory.hpp:77] Creating layer bn_inception_5c/3x1xa_scale
I0926 19:17:39.983343 10151 net.cpp:141] Setting up bn_inception_5c/3x1xa_scale
I0926 19:17:39.983347 10151 net.cpp:148] Top shape: 16 32 8 8 (32768)
I0926 19:17:39.983350 10151 net.cpp:156] Memory required for data: 2192412928
I0926 19:17:39.983353 10151 layer_factory.hpp:77] Creating layer prelu1_bn_inception_5c/3x1xa
I0926 19:17:39.983357 10151 net.cpp:91] Creating Layer prelu1_bn_inception_5c/3x1xa
I0926 19:17:39.983360 10151 net.cpp:425] prelu1_bn_inception_5c/3x1xa <- bn_inception_5c/3x1xa
I0926 19:17:39.983371 10151 net.cpp:386] prelu1_bn_inception_5c/3x1xa -> bn_inception_5c/3x1xa (in-place)
I0926 19:17:39.983445 10151 net.cpp:141] Setting up prelu1_bn_inception_5c/3x1xa
I0926 19:17:39.983449 10151 net.cpp:148] Top shape: 16 32 8 8 (32768)
I0926 19:17:39.983451 10151 net.cpp:156] Memory required for data: 2192544000
I0926 19:17:39.983454 10151 layer_factory.hpp:77] Creating layer inception_5c/1x3xb
I0926 19:17:39.983460 10151 net.cpp:91] Creating Layer inception_5c/1x3xb
I0926 19:17:39.983464 10151 net.cpp:425] inception_5c/1x3xb <- bn_inception_5c/3x3_prelu1_bn_inception_5c/3x3_0_split_1
I0926 19:17:39.983467 10151 net.cpp:399] inception_5c/1x3xb -> inception_5c/1x3xb
I0926 19:17:39.984383 10151 net.cpp:141] Setting up inception_5c/1x3xb
I0926 19:17:39.984392 10151 net.cpp:148] Top shape: 16 32 8 8 (32768)
I0926 19:17:39.984395 10151 net.cpp:156] Memory required for data: 2192675072
I0926 19:17:39.984400 10151 layer_factory.hpp:77] Creating layer bn_inception_5c/1x3xb
I0926 19:17:39.984405 10151 net.cpp:91] Creating Layer bn_inception_5c/1x3xb
I0926 19:17:39.984407 10151 net.cpp:425] bn_inception_5c/1x3xb <- inception_5c/1x3xb
I0926 19:17:39.984414 10151 net.cpp:399] bn_inception_5c/1x3xb -> bn_inception_5c/1x3xb
I0926 19:17:39.984572 10151 net.cpp:141] Setting up bn_inception_5c/1x3xb
I0926 19:17:39.984577 10151 net.cpp:148] Top shape: 16 32 8 8 (32768)
I0926 19:17:39.984580 10151 net.cpp:156] Memory required for data: 2192806144
I0926 19:17:39.984585 10151 layer_factory.hpp:77] Creating layer bn_inception_5c/1x3xb_scale
I0926 19:17:39.984589 10151 net.cpp:91] Creating Layer bn_inception_5c/1x3xb_scale
I0926 19:17:39.984592 10151 net.cpp:425] bn_inception_5c/1x3xb_scale <- bn_inception_5c/1x3xb
I0926 19:17:39.984596 10151 net.cpp:386] bn_inception_5c/1x3xb_scale -> bn_inception_5c/1x3xb (in-place)
I0926 19:17:39.984627 10151 layer_factory.hpp:77] Creating layer bn_inception_5c/1x3xb_scale
I0926 19:17:39.984714 10151 net.cpp:141] Setting up bn_inception_5c/1x3xb_scale
I0926 19:17:39.984719 10151 net.cpp:148] Top shape: 16 32 8 8 (32768)
I0926 19:17:39.984720 10151 net.cpp:156] Memory required for data: 2192937216
I0926 19:17:39.984724 10151 layer_factory.hpp:77] Creating layer prelu1_bn_inception_5c/1x3xb
I0926 19:17:39.984727 10151 net.cpp:91] Creating Layer prelu1_bn_inception_5c/1x3xb
I0926 19:17:39.984730 10151 net.cpp:425] prelu1_bn_inception_5c/1x3xb <- bn_inception_5c/1x3xb
I0926 19:17:39.984733 10151 net.cpp:386] prelu1_bn_inception_5c/1x3xb -> bn_inception_5c/1x3xb (in-place)
I0926 19:17:39.984805 10151 net.cpp:141] Setting up prelu1_bn_inception_5c/1x3xb
I0926 19:17:39.987545 10151 net.cpp:148] Top shape: 16 32 8 8 (32768)
I0926 19:17:39.987550 10151 net.cpp:156] Memory required for data: 2193068288
I0926 19:17:39.987555 10151 layer_factory.hpp:77] Creating layer inception_5c/pool
I0926 19:17:39.987560 10151 net.cpp:91] Creating Layer inception_5c/pool
I0926 19:17:39.987563 10151 net.cpp:425] inception_5c/pool <- inception_5b/output_inception_5b/output_0_split_2
I0926 19:17:39.987567 10151 net.cpp:399] inception_5c/pool -> inception_5c/pool
I0926 19:17:39.987609 10151 net.cpp:141] Setting up inception_5c/pool
I0926 19:17:39.987613 10151 net.cpp:148] Top shape: 16 416 8 8 (425984)
I0926 19:17:39.987615 10151 net.cpp:156] Memory required for data: 2194772224
I0926 19:17:39.987617 10151 layer_factory.hpp:77] Creating layer inception_5c/pool_proj
I0926 19:17:39.987624 10151 net.cpp:91] Creating Layer inception_5c/pool_proj
I0926 19:17:39.987627 10151 net.cpp:425] inception_5c/pool_proj <- inception_5c/pool
I0926 19:17:39.987632 10151 net.cpp:399] inception_5c/pool_proj -> inception_5c/pool_proj
I0926 19:17:39.988940 10151 net.cpp:141] Setting up inception_5c/pool_proj
I0926 19:17:39.988950 10151 net.cpp:148] Top shape: 16 32 8 8 (32768)
I0926 19:17:39.988952 10151 net.cpp:156] Memory required for data: 2194903296
I0926 19:17:39.988957 10151 layer_factory.hpp:77] Creating layer bn_inception_5c/pool_proj
I0926 19:17:39.988965 10151 net.cpp:91] Creating Layer bn_inception_5c/pool_proj
I0926 19:17:39.988979 10151 net.cpp:425] bn_inception_5c/pool_proj <- inception_5c/pool_proj
I0926 19:17:39.988988 10151 net.cpp:399] bn_inception_5c/pool_proj -> bn_inception_5c/pool_proj
I0926 19:17:39.989229 10151 net.cpp:141] Setting up bn_inception_5c/pool_proj
I0926 19:17:39.989239 10151 net.cpp:148] Top shape: 16 32 8 8 (32768)
I0926 19:17:39.989243 10151 net.cpp:156] Memory required for data: 2195034368
I0926 19:17:39.989251 10151 layer_factory.hpp:77] Creating layer bn_inception_5c/pool_proj_scale
I0926 19:17:39.989259 10151 net.cpp:91] Creating Layer bn_inception_5c/pool_proj_scale
I0926 19:17:39.989264 10151 net.cpp:425] bn_inception_5c/pool_proj_scale <- bn_inception_5c/pool_proj
I0926 19:17:39.989269 10151 net.cpp:386] bn_inception_5c/pool_proj_scale -> bn_inception_5c/pool_proj (in-place)
I0926 19:17:39.989310 10151 layer_factory.hpp:77] Creating layer bn_inception_5c/pool_proj_scale
I0926 19:17:39.989408 10151 net.cpp:141] Setting up bn_inception_5c/pool_proj_scale
I0926 19:17:39.989414 10151 net.cpp:148] Top shape: 16 32 8 8 (32768)
I0926 19:17:39.989416 10151 net.cpp:156] Memory required for data: 2195165440
I0926 19:17:39.989419 10151 layer_factory.hpp:77] Creating layer prelu1_bn_inception_5c/pool
I0926 19:17:39.989424 10151 net.cpp:91] Creating Layer prelu1_bn_inception_5c/pool
I0926 19:17:39.989426 10151 net.cpp:425] prelu1_bn_inception_5c/pool <- bn_inception_5c/pool_proj
I0926 19:17:39.989433 10151 net.cpp:386] prelu1_bn_inception_5c/pool -> bn_inception_5c/pool_proj (in-place)
I0926 19:17:39.989511 10151 net.cpp:141] Setting up prelu1_bn_inception_5c/pool
I0926 19:17:39.989514 10151 net.cpp:148] Top shape: 16 32 8 8 (32768)
I0926 19:17:39.989516 10151 net.cpp:156] Memory required for data: 2195296512
I0926 19:17:39.989519 10151 layer_factory.hpp:77] Creating layer inception_5c/output
I0926 19:17:39.989523 10151 net.cpp:91] Creating Layer inception_5c/output
I0926 19:17:39.989526 10151 net.cpp:425] inception_5c/output <- bn_inception_5c/1x1
I0926 19:17:39.989529 10151 net.cpp:425] inception_5c/output <- bn_inception_5c/3x1
I0926 19:17:39.989532 10151 net.cpp:425] inception_5c/output <- bn_inception_5c/1x3
I0926 19:17:39.989536 10151 net.cpp:425] inception_5c/output <- bn_inception_5c/3x1xa
I0926 19:17:39.989537 10151 net.cpp:425] inception_5c/output <- bn_inception_5c/1x3xb
I0926 19:17:39.989540 10151 net.cpp:425] inception_5c/output <- bn_inception_5c/pool_proj
I0926 19:17:39.989543 10151 net.cpp:399] inception_5c/output -> inception_5c/output
I0926 19:17:39.989562 10151 net.cpp:141] Setting up inception_5c/output
I0926 19:17:39.989567 10151 net.cpp:148] Top shape: 16 416 8 8 (425984)
I0926 19:17:39.989568 10151 net.cpp:156] Memory required for data: 2197000448
I0926 19:17:39.989572 10151 layer_factory.hpp:77] Creating layer inception_5_end/pool
I0926 19:17:39.989575 10151 net.cpp:91] Creating Layer inception_5_end/pool
I0926 19:17:39.989578 10151 net.cpp:425] inception_5_end/pool <- inception_5c/output
I0926 19:17:39.989581 10151 net.cpp:399] inception_5_end/pool -> inception_5_end/pool
I0926 19:17:39.989737 10151 net.cpp:141] Setting up inception_5_end/pool
I0926 19:17:39.989744 10151 net.cpp:148] Top shape: 16 416 4 4 (106496)
I0926 19:17:39.989747 10151 net.cpp:156] Memory required for data: 2197426432
I0926 19:17:39.989748 10151 layer_factory.hpp:77] Creating layer loss1/classifier
I0926 19:17:39.989753 10151 net.cpp:91] Creating Layer loss1/classifier
I0926 19:17:39.989756 10151 net.cpp:425] loss1/classifier <- inception_5_end/pool
I0926 19:17:39.989760 10151 net.cpp:399] loss1/classifier -> loss1/classifier
I0926 19:17:39.991616 10151 net.cpp:141] Setting up loss1/classifier
I0926 19:17:39.991621 10151 net.cpp:148] Top shape: 16 12 (192)
I0926 19:17:39.991624 10151 net.cpp:156] Memory required for data: 2197427200
I0926 19:17:39.991627 10151 layer_factory.hpp:77] Creating layer loss1/classifier_loss1/classifier_0_split
I0926 19:17:39.991632 10151 net.cpp:91] Creating Layer loss1/classifier_loss1/classifier_0_split
I0926 19:17:39.991636 10151 net.cpp:425] loss1/classifier_loss1/classifier_0_split <- loss1/classifier
I0926 19:17:39.991646 10151 net.cpp:399] loss1/classifier_loss1/classifier_0_split -> loss1/classifier_loss1/classifier_0_split_0
I0926 19:17:39.991649 10151 net.cpp:399] loss1/classifier_loss1/classifier_0_split -> loss1/classifier_loss1/classifier_0_split_1
I0926 19:17:39.991654 10151 net.cpp:399] loss1/classifier_loss1/classifier_0_split -> loss1/classifier_loss1/classifier_0_split_2
I0926 19:17:39.991690 10151 net.cpp:141] Setting up loss1/classifier_loss1/classifier_0_split
I0926 19:17:39.991694 10151 net.cpp:148] Top shape: 16 12 (192)
I0926 19:17:39.991698 10151 net.cpp:148] Top shape: 16 12 (192)
I0926 19:17:39.991699 10151 net.cpp:148] Top shape: 16 12 (192)
I0926 19:17:39.991701 10151 net.cpp:156] Memory required for data: 2197429504
I0926 19:17:39.991703 10151 layer_factory.hpp:77] Creating layer loss1/loss
I0926 19:17:39.991708 10151 net.cpp:91] Creating Layer loss1/loss
I0926 19:17:39.991709 10151 net.cpp:425] loss1/loss <- loss1/classifier_loss1/classifier_0_split_0
I0926 19:17:39.991713 10151 net.cpp:425] loss1/loss <- label_data_1_split_0
…
