…
I0928 21:17:25.412137 10764 net.cpp:313] The NetState phase (0) differed from the phase (1) specified by a rule in layer accuracy
I0928 21:17:25.412797 10764 net.cpp:49] Initializing net from parameters: 
name: "Resnet_50"
state {
  phase: TRAIN
}
layer {
  name: "data"
  type: "Data"
  top: "data"
  top: "label"
  include {
    phase: TRAIN
  }
  transform_param {
    mirror: true
    crop_size: 224
    mean_file: "/media/red/BRIDGE/data/BOT/mean.binaryproto"
  }
  data_param {
    source: "/media/red/DATA/data/BOT/ccrvc_train_lmdb"
    batch_size: 8
    backend: LMDB
  }
}
layer {
  name: "conv_1"
  type: "Convolution"
  bottom: "data"
  top: "conv_1"
  param {
    lr_mult: 1
    decay_mult: 1
  }
  param {
    lr_mult: 2
    decay_mult: 0
  }
  convolution_param {
    num_output: 64
    pad: 3
    kernel_size: 7
    stride: 2
    weight_filler {
      type: "xavier"
    }
    bias_filler {
      type: "constant"
      value: 0
    }
  }
}
layer {
  name: "bn_1"
  type: "BatchNorm"
  bottom: "conv_1"
  top: "conv_1"
  param {
    lr_mult: 0
    decay_mult: 0
  }
  param {
    lr_mult: 0
    decay_mult: 0
  }
  param {
    lr_mult: 0
    decay_mult: 0
  }
  batch_norm_param {
    use_global_stats: false
  }
}
layer {
  name: "scale_1"
  type: "Scale"
  bottom: "conv_1"
  top: "conv_1"
  scale_param {
    bias_term: true
  }
}
layer {
  name: "relu_1"
  type: "ReLU"
  bottom: "conv_1"
  top: "conv_1"
}
layer {
  name: "pool1"
  type: "Pooling"
  bottom: "conv_1"
  top: "pool1"
  pooling_param {
    pool: MAX
    kernel_size: 3
    stride: 2
  }
}
layer {
  name: "conv_stage0_block0_proj_shortcut"
  type: "Convolution"
  bottom: "pool1"
  top: "conv_stage0_block0_proj_shortcut"
  param {
    lr_mult: 1
    decay_mult: 1
  }
  param {
    lr_mult: 2
    decay_mult: 0
  }
  convolution_param {
    num_output: 256
    pad: 0
    kernel_size: 1
    stride: 1
    weight_filler {
      type: "xavier"
    }
    bias_filler {
      type: "constant"
      value: 0
    }
  }
}
layer {
  name: "bn_stage0_block0_proj_shortcut"
  type: "BatchNorm"
  bottom: "conv_stage0_block0_proj_shortcut"
  top: "conv_stage0_block0_proj_shortcut"
  param {
    lr_mult: 0
    decay_mult: 0
  }
  param {
    lr_mult: 0
    decay_mult: 0
  }
  param {
    lr_mult: 0
    decay_mult: 0
  }
  batch_norm_param {
    use_global_stats: false
  }
}
layer {
  name: "scale_stage0_block0_proj_shortcut"
  type: "Scale"
  bottom: "conv_stage0_block0_proj_shortcut"
  top: "conv_stage0_block0_proj_shortcut"
  scale_param {
    bias_term: true
  }
}
layer {
  name: "conv_stage0_block0_branch2a"
  type: "Convolution"
  bottom: "pool1"
  top: "conv_stage0_block0_branch2a"
  param {
    lr_mult: 1
    decay_mult: 1
  }
  param {
    lr_mult: 2
    decay_mult: 0
  }
  convolution_param {
    num_output: 64
    pad: 0
    kernel_size: 1
    stride: 1
    weight_filler {
      type: "xavier"
    }
    bias_filler {
      type: "constant"
      value: 0
    }
  }
}
layer {
  name: "bn_stage0_block0_branch2a"
  type: "BatchNorm"
  bottom: "conv_stage0_block0_branch2a"
  top: "conv_stage0_block0_branch2a"
  param {
    lr_mult: 0
    decay_mult: 0
  }
  param {
    lr_mult: 0
    decay_mult: 0
  }
  param {
    lr_mult: 0
    decay_mult: 0
  }
  batch_norm_param {
    use_global_stats: false
  }
}
layer {
  name: "scale_stage0_block0_branch2a"
  type: "Scale"
  bottom: "conv_stage0_block0_branch2a"
  top: "conv_stage0_block0_branch2a"
  scale_param {
    bias_term: true
  }
}
layer {
  name: "relu_stage0_block0_branch2a"
  type: "ReLU"
  bottom: "conv_stage0_block0_branch2a"
  top: "conv_stage0_block0_branch2a"
}
layer {
  name: "conv_stage0_block0_branch2b"
  type: "Convolution"
  bottom: "conv_stage0_block0_branch2a"
  top: "conv_stage0_block0_branch2b"
  param {
    lr_mult: 1
    decay_mult: 1
  }
  param {
    lr_mult: 2
    decay_mult: 0
  }
  convolution_param {
    num_output: 64
    pad: 1
    kernel_size: 3
    stride: 1
    weight_filler {
      type: "xavier"
    }
    bias_filler {
      type: "constant"
      value: 0
    }
  }
}
layer {
  name: "bn_stage0_block0_branch2b"
  type: "BatchNorm"
  bottom: "conv_stage0_block0_branch2b"
  top: "conv_stage0_block0_branch2b"
  param {
    lr_mult: 0
    decay_mult: 0
  }
  param {
    lr_mult: 0
    decay_mult: 0
  }
  param {
    lr_mult: 0
    decay_mult: 0
  }
  batch_norm_param {
    use_global_stats: false
  }
}
layer {
  name: "scale_stage0_block0_branch2b"
  type: "Scale"
  bottom: "conv_stage0_block0_branch2b"
  top: "conv_stage0_block0_branch2b"
  scale_param {
    bias_term: true
  }
}
layer {
  name: "relu_stage0_block0_branch2b"
  type: "ReLU"
  bottom: "conv_stage0_block0_branch2b"
  top: "conv_stage0_block0_branch2b"
}
layer {
  name: "conv_stage0_block0_branch2c"
  type: "Convolution"
  bottom: "conv_stage0_block0_branch2b"
  top: "conv_stage0_block0_branch2c"
  param {
    lr_mult: 1
    decay_mult: 1
  }
  param {
    lr_mult: 2
    decay_mult: 0
  }
  convolution_param {
    num_output: 256
    pad: 0
    kernel_size: 1
    stride: 1
    weight_filler {
      type: "xavier"
    }
    bias_filler {
      type: "constant"
      value: 0
    }
  }
}
layer {
  name: "bn_stage0_block0_branch2c"
  type: "BatchNorm"
  bottom: "conv_stage0_block0_branch2c"
  top: "conv_stage0_block0_branch2c"
  param {
    lr_mult: 0
    decay_mult: 0
  }
  param {
    lr_mult: 0
    decay_mult: 0
  }
  param {
    lr_mult: 0
    decay_mult: 0
  }
  batch_norm_param {
    use_global_stats: false
  }
}
layer {
  name: "scale_stage0_block0_branch2c"
  type: "Scale"
  bottom: "conv_stage0_block0_branch2c"
  top: "conv_stage0_block0_branch2c"
  scale_param {
    bias_term: true
  }
}
layer {
  name: "eltwise_stage0_block0"
  type: "Eltwise"
  bottom: "conv_stage0_block0_proj_shortcut"
  bottom: "conv_stage0_block0_branch2c"
  top: "eltwise_stage0_block0"
}
layer {
  name: "relu_stage0_block0"
  type: "ReLU"
  bottom: "eltwise_stage0_block0"
  top: "eltwise_stage0_block0"
}
layer {
  name: "conv_stage0_block1_branch2a"
  type: "Convolution"
  bottom: "eltwise_stage0_block0"
  top: "conv_stage0_block1_branch2a"
  param {
    lr_mult: 1
    decay_mult: 1
  }
  param {
    lr_mult: 2
    decay_mult: 0
  }
  convolution_param {
    num_output: 64
    pad: 0
    kernel_size: 1
    stride: 1
    weight_filler {
      type: "xavier"
    }
    bias_filler {
      type: "constant"
      value: 0
    }
  }
}
layer {
  name: "bn_stage0_block1_branch2a"
  type: "BatchNorm"
  bottom: "conv_stage0_block1_branch2a"
  top: "conv_stage0_block1_branch2a"
  param {
    lr_mult: 0
    decay_mult: 0
  }
  param {
    lr_mult: 0
    decay_mult: 0
  }
  param {
    lr_mult: 0
    decay_mult: 0
  }
  batch_norm_param {
    use_global_stats: false
  }
}
layer {
  name: "scale_stage0_block1_branch2a"
  type: "Scale"
  bottom: "conv_stage0_block1_branch2a"
  top: "conv_stage0_block1_branch2a"
  scale_param {
    bias_term: true
  }
}
layer {
  name: "relu_stage0_block1_branch2a"
  type: "ReLU"
  bottom: "conv_stage0_block1_branch2a"
  top: "conv_stage0_block1_branch2a"
}
layer {
  name: "conv_stage0_block1_branch2b"
  type: "Convolution"
  bottom: "conv_stage0_block1_branch2a"
  top: "conv_stage0_block1_branch2b"
  param {
    lr_mult: 1
    decay_mult: 1
  }
  param {
    lr_mult: 2
    decay_mult: 0
  }
  convolution_param {
    num_output: 64
    pad: 1
    kernel_size: 3
    stride: 1
    weight_filler {
      type: "xavier"
    }
    bias_filler {
      type: "constant"
      value: 0
    }
  }
}
layer {
  name: "bn_stage0_block1_branch2b"
  type: "BatchNorm"
  bottom: "conv_stage0_block1_branch2b"
  top: "conv_stage0_block1_branch2b"
  param {
    lr_mult: 0
    decay_mult: 0
  }
  param {
    lr_mult: 0
    decay_mult: 0
  }
  param {
    lr_mult: 0
    decay_mult: 0
  }
  batch_norm_param {
    use_global_stats: false
  }
}
layer {
  name: "scale_stage0_block1_branch2b"
  type: "Scale"
  bottom: "conv_stage0_block1_branch2b"
  top: "conv_stage0_block1_branch2b"
  scale_param {
    bias_term: true
  }
}
layer {
  name: "relu_stage0_block1_branch2b"
  type: "ReLU"
  bottom: "conv_stage0_block1_branch2b"
  top: "conv_stage0_block1_branch2b"
}
layer {
  name: "conv_stage0_block1_branch2c"
  type: "Convolution"
  bottom: "conv_stage0_block1_branch2b"
  top: "conv_stage0_block1_branch2c"
  param {
    lr_mult: 1
    decay_mult: 1
  }
  param {
    lr_mult: 2
    decay_mult: 0
  }
  convolution_param {
    num_output: 256
    pad: 0
    kernel_size: 1
    stride: 1
    weight_filler {
      type: "xavier"
    }
    bias_filler {
      type: "constant"
      value: 0
    }
  }
}
layer {
  name: "bn_stage0_block1_branch2c"
  type: "BatchNorm"
  bottom: "conv_stage0_block1_branch2c"
  top: "conv_stage0_block1_branch2c"
  param {
    lr_mult: 0
    decay_mult: 0
  }
  param {
    lr_mult: 0
    decay_mult: 0
  }
  param {
    lr_mult: 0
    decay_mult: 0
  }
  batch_norm_param {
    use_global_stats: false
  }
}
layer {
  name: "scale_stage0_block1_branch2c"
  type: "Scale"
  bottom: "conv_stage0_block1_branch2c"
  top: "conv_stage0_block1_branch2c"
  scale_param {
    bias_term: true
  }
}
layer {
  name: "eltwise_stage0_block1"
  type: "Eltwise"
  bottom: "eltwise_stage0_block0"
  bottom: "conv_stage0_block1_branch2c"
  top: "eltwise_stage0_block1"
}
layer {
  name: "relu_stage0_block1"
  type: "ReLU"
  bottom: "eltwise_stage0_block1"
  top: "eltwise_stage0_block1"
}
layer {
  name: "conv_stage0_block2_branch2a"
  type: "Convolution"
  bottom: "eltwise_stage0_block1"
  top: "conv_stage0_block2_branch2a"
  param {
    lr_mult: 1
    decay_mult: 1
  }
  param {
    lr_mult: 2
    decay_mult: 0
  }
  convolution_param {
    num_output: 64
    pad: 0
    kernel_size: 1
    stride: 1
    weight_filler {
      type: "xavier"
    }
    bias_filler {
      type: "constant"
      value: 0
    }
  }
}
layer {
  name: "bn_stage0_block2_branch2a"
  type: "BatchNorm"
  bottom: "conv_stage0_block2_branch2a"
  top: "conv_stage0_block2_branch2a"
  param {
    lr_mult: 0
    decay_mult: 0
  }
  param {
    lr_mult: 0
    decay_mult: 0
  }
  param {
    lr_mult: 0
    decay_mult: 0
  }
  batch_norm_param {
    use_global_stats: false
  }
}
layer {
  name: "scale_stage0_block2_branch2a"
  type: "Scale"
  bottom: "conv_stage0_block2_branch2a"
  top: "conv_stage0_block2_branch2a"
  scale_param {
    bias_term: true
  }
}
layer {
  name: "relu_stage0_block2_branch2a"
  type: "ReLU"
  bottom: "conv_stage0_block2_branch2a"
  top: "conv_stage0_block2_branch2a"
}
layer {
  name: "conv_stage0_block2_branch2b"
  type: "Convolution"
  bottom: "conv_stage0_block2_branch2a"
  top: "conv_stage0_block2_branch2b"
  param {
    lr_mult: 1
    decay_mult: 1
  }
  param {
    lr_mult: 2
    decay_mult: 0
  }
  convolution_param {
    num_output: 64
    pad: 1
    kernel_size: 3
    stride: 1
    weight_filler {
      type: "xavier"
    }
    bias_filler {
      type: "constant"
      value: 0
    }
  }
}
layer {
  name: "bn_stage0_block2_branch2b"
  type: "BatchNorm"
  bottom: "conv_stage0_block2_branch2b"
  top: "conv_stage0_block2_branch2b"
  param {
    lr_mult: 0
    decay_mult: 0
  }
  param {
    lr_mult: 0
    decay_mult: 0
  }
  param {
    lr_mult: 0
    decay_mult: 0
  }
  batch_norm_param {
    use_global_stats: false
  }
}
layer {
  name: "scale_stage0_block2_branch2b"
  type: "Scale"
  bottom: "conv_stage0_block2_branch2b"
  top: "conv_stage0_block2_branch2b"
  scale_param {
    bias_term: true
  }
}
layer {
  name: "relu_stage0_block2_branch2b"
  type: "ReLU"
  bottom: "conv_stage0_block2_branch2b"
  top: "conv_stage0_block2_branch2b"
}
layer {
  name: "conv_stage0_block2_branch2c"
  type: "Convolution"
  bottom: "conv_stage0_block2_branch2b"
  top: "conv_stage0_block2_branch2c"
  param {
    lr_mult: 1
    decay_mult: 1
  }
  param {
    lr_mult: 2
    decay_mult: 0
  }
  convolution_param {
    num_output: 256
    pad: 0
    kernel_size: 1
    stride: 1
    weight_filler {
      type: "xavier"
    }
    bias_filler {
      type: "constant"
      value: 0
    }
  }
}
layer {
  name: "bn_stage0_block2_branch2c"
  type: "BatchNorm"
  bottom: "conv_stage0_block2_branch2c"
  top: "conv_stage0_block2_branch2c"
  param {
    lr_mult: 0
    decay_mult: 0
  }
  param {
    lr_mult: 0
    decay_mult: 0
  }
  param {
    lr_mult: 0
    decay_mult: 0
  }
  batch_norm_param {
    use_global_stats: false
  }
}
layer {
  name: "scale_stage0_block2_branch2c"
  type: "Scale"
  bottom: "conv_stage0_block2_branch2c"
  top: "conv_stage0_block2_branch2c"
  scale_param {
    bias_term: true
  }
}
layer {
  name: "eltwise_stage0_block2"
  type: "Eltwise"
  bottom: "eltwise_stage0_block1"
  bottom: "conv_stage0_block2_branch2c"
  top: "eltwise_stage0_block2"
}
layer {
  name: "relu_stage0_block2"
  type: "ReLU"
  bottom: "eltwise_stage0_block2"
  top: "eltwise_stage0_block2"
}
layer {
  name: "conv_stage1_block0_proj_shortcut"
  type: "Convolution"
  bottom: "eltwise_stage0_block2"
  top: "conv_stage1_block0_proj_shortcut"
  param {
    lr_mult: 1
    decay_mult: 1
  }
  param {
    lr_mult: 2
    decay_mult: 0
  }
  convolution_param {
    num_output: 512
    pad: 0
    kernel_size: 1
    stride: 2
    weight_filler {
      type: "xavier"
    }
    bias_filler {
      type: "constant"
      value: 0
    }
  }
}
layer {
  name: "bn_stage1_block0_proj_shortcut"
  type: "BatchNorm"
  bottom: "conv_stage1_block0_proj_shortcut"
  top: "conv_stage1_block0_proj_shortcut"
  param {
    lr_mult: 0
    decay_mult: 0
  }
  param {
    lr_mult: 0
    decay_mult: 0
  }
  param {
    lr_mult: 0
    decay_mult: 0
  }
  batch_norm_param {
    use_global_stats: false
  }
}
layer {
  name: "scale_stage1_block0_proj_shortcut"
  type: "Scale"
  bottom: "conv_stage1_block0_proj_shortcut"
  top: "conv_stage1_block0_proj_shortcut"
  scale_param {
    bias_term: true
  }
}
layer {
  name: "conv_stage1_block0_branch2a"
  type: "Convolution"
  bottom: "eltwise_stage0_block2"
  top: "conv_stage1_block0_branch2a"
  param {
    lr_mult: 1
    decay_mult: 1
  }
  param {
    lr_mult: 2
    decay_mult: 0
  }
  convolution_param {
    num_output: 128
    pad: 0
    kernel_size: 1
    stride: 2
    weight_filler {
      type: "xavier"
    }
    bias_filler {
      type: "constant"
      value: 0
    }
  }
}
layer {
  name: "bn_stage1_block0_branch2a"
  type: "BatchNorm"
  bottom: "conv_stage1_block0_branch2a"
  top: "conv_stage1_block0_branch2a"
  param {
    lr_mult: 0
    decay_mult: 0
  }
  param {
    lr_mult: 0
    decay_mult: 0
  }
  param {
    lr_mult: 0
    decay_mult: 0
  }
  batch_norm_param {
    use_global_stats: false
  }
}
layer {
  name: "scale_stage1_block0_branch2a"
  type: "Scale"
  bottom: "conv_stage1_block0_branch2a"
  top: "conv_stage1_block0_branch2a"
  scale_param {
    bias_term: true
  }
}
layer {
  name: "relu_stage1_block0_branch2a"
  type: "ReLU"
  bottom: "conv_stage1_block0_branch2a"
  top: "conv_stage1_block0_branch2a"
}
layer {
  name: "conv_stage1_block0_branch2b"
  type: "Convolution"
  bottom: "conv_stage1_block0_branch2a"
  top: "conv_stage1_block0_branch2b"
  param {
    lr_mult: 1
    decay_mult: 1
  }
  param {
    lr_mult: 2
    decay_mult: 0
  }
  convolution_param {
    num_output: 128
    pad: 1
    kernel_size: 3
    stride: 1
    weight_filler {
      type: "xavier"
    }
    bias_filler {
      type: "constant"
      value: 0
    }
  }
}
layer {
  name: "bn_stage1_block0_branch2b"
  type: "BatchNorm"
  bottom: "conv_stage1_block0_branch2b"
  top: "conv_stage1_block0_branch2b"
  param {
    lr_mult: 0
    decay_mult: 0
  }
  param {
    lr_mult: 0
    decay_mult: 0
  }
  param {
    lr_mult: 0
    decay_mult: 0
  }
  batch_norm_param {
    use_global_stats: false
  }
}
layer {
  name: "scale_stage1_block0_branch2b"
  type: "Scale"
  bottom: "conv_stage1_block0_branch2b"
  top: "conv_stage1_block0_branch2b"
  scale_param {
    bias_term: true
  }
}
layer {
  name: "relu_stage1_block0_branch2b"
  type: "ReLU"
  bottom: "conv_stage1_block0_branch2b"
  top: "conv_stage1_block0_branch2b"
}
layer {
  name: "conv_stage1_block0_branch2c"
  type: "Convolution"
  bottom: "conv_stage1_block0_branch2b"
  top: "conv_stage1_block0_branch2c"
  param {
    lr_mult: 1
    decay_mult: 1
  }
  param {
    lr_mult: 2
    decay_mult: 0
  }
  convolution_param {
    num_output: 512
    pad: 0
    kernel_size: 1
    stride: 1
    weight_filler {
      type: "xavier"
    }
    bias_filler {
      type: "constant"
      value: 0
    }
  }
}
layer {
  name: "bn_stage1_block0_branch2c"
  type: "BatchNorm"
  bottom: "conv_stage1_block0_branch2c"
  top: "conv_stage1_block0_branch2c"
  param {
    lr_mult: 0
    decay_mult: 0
  }
  param {
    lr_mult: 0
    decay_mult: 0
  }
  param {
    lr_mult: 0
    decay_mult: 0
  }
  batch_norm_param {
    use_global_stats: false
  }
}
layer {
  name: "scale_stage1_block0_branch2c"
  type: "Scale"
  bottom: "conv_stage1_block0_branch2c"
  top: "conv_stage1_block0_branch2c"
  scale_param {
    bias_term: true
  }
}
layer {
  name: "eltwise_stage1_block0"
  type: "Eltwise"
  bottom: "conv_stage1_block0_proj_shortcut"
  bottom: "conv_stage1_block0_branch2c"
  top: "eltwise_stage1_block0"
}
layer {
  name: "relu_stage1_block0"
  type: "ReLU"
  bottom: "eltwise_stage1_block0"
  top: "eltwise_stage1_block0"
}
layer {
  name: "conv_stage1_block1_branch2a"
  type: "Convolution"
  bottom: "eltwise_stage1_block0"
  top: "conv_stage1_block1_branch2a"
  param {
    lr_mult: 1
    decay_mult: 1
  }
  param {
    lr_mult: 2
    decay_mult: 0
  }
  convolution_param {
    num_output: 128
    pad: 0
    kernel_size: 1
    stride: 1
    weight_filler {
      type: "xavier"
    }
    bias_filler {
      type: "constant"
      value: 0
    }
  }
}
layer {
  name: "bn_stage1_block1_branch2a"
  type: "BatchNorm"
  bottom: "conv_stage1_block1_branch2a"
  top: "conv_stage1_block1_branch2a"
  param {
    lr_mult: 0
    decay_mult: 0
  }
  param {
    lr_mult: 0
    decay_mult: 0
  }
  param {
    lr_mult: 0
    decay_mult: 0
  }
  batch_norm_param {
    use_global_stats: false
  }
}
layer {
  name: "scale_stage1_block1_branch2a"
  type: "Scale"
  bottom: "conv_stage1_block1_branch2a"
  top: "conv_stage1_block1_branch2a"
  scale_param {
    bias_term: true
  }
}
layer {
  name: "relu_stage1_block1_branch2a"
  type: "ReLU"
  bottom: "conv_stage1_block1_branch2a"
  top: "conv_stage1_block1_branch2a"
}
layer {
  name: "conv_stage1_block1_branch2b"
  type: "Convolution"
  bottom: "conv_stage1_block1_branch2a"
  top: "conv_stage1_block1_branch2b"
  param {
    lr_mult: 1
    decay_mult: 1
  }
  param {
    lr_mult: 2
    decay_mult: 0
  }
  convolution_param {
    num_output: 128
    pad: 1
    kernel_size: 3
    stride: 1
    weight_filler {
      type: "xavier"
    }
    bias_filler {
      type: "constant"
      value: 0
    }
  }
}
layer {
  name: "bn_stage1_block1_branch2b"
  type: "BatchNorm"
  bottom: "conv_stage1_block1_branch2b"
  top: "conv_stage1_block1_branch2b"
  param {
    lr_mult: 0
    decay_mult: 0
  }
  param {
    lr_mult: 0
    decay_mult: 0
  }
  param {
    lr_mult: 0
    decay_mult: 0
  }
  batch_norm_param {
    use_global_stats: false
  }
}
layer {
  name: "scale_stage1_block1_branch2b"
  type: "Scale"
  bottom: "conv_stage1_block1_branch2b"
  top: "conv_stage1_block1_branch2b"
  scale_param {
    bias_term: true
  }
}
layer {
  name: "relu_stage1_block1_branch2b"
  type: "ReLU"
  bottom: "conv_stage1_block1_branch2b"
  top: "conv_stage1_block1_branch2b"
}
layer {
  name: "conv_stage1_block1_branch2c"
  type: "Convolution"
  bottom: "conv_stage1_block1_branch2b"
  top: "conv_stage1_block1_branch2c"
  param {
    lr_mult: 1
    decay_mult: 1
  }
  param {
    lr_mult: 2
    decay_mult: 0
  }
  convolution_param {
    num_output: 512
    pad: 0
    kernel_size: 1
    stride: 1
    weight_filler {
      type: "xavier"
    }
    bias_filler {
      type: "constant"
      value: 0
    }
  }
}
layer {
  name: "bn_stage1_block1_branch2c"
  type: "BatchNorm"
  bottom: "conv_stage1_block1_branch2c"
  top: "conv_stage1_block1_branch2c"
  param {
    lr_mult: 0
    decay_mult: 0
  }
  param {
    lr_mult: 0
    decay_mult: 0
  }
  param {
    lr_mult: 0
    decay_mult: 0
  }
  batch_norm_param {
    use_global_stats: false
  }
}
layer {
  name: "scale_stage1_block1_branch2c"
  type: "Scale"
  bottom: "conv_stage1_block1_branch2c"
  top: "conv_stage1_block1_branch2c"
  scale_param {
    bias_term: true
  }
}
layer {
  name: "eltwise_stage1_block1"
  type: "Eltwise"
  bottom: "eltwise_stage1_block0"
  bottom: "conv_stage1_block1_branch2c"
  top: "eltwise_stage1_block1"
}
layer {
  name: "relu_stage1_block1"
  type: "ReLU"
  bottom: "eltwise_stage1_block1"
  top: "eltwise_stage1_block1"
}
layer {
  name: "conv_stage1_block2_branch2a"
  type: "Convolution"
  bottom: "eltwise_stage1_block1"
  top: "conv_stage1_block2_branch2a"
  param {
    lr_mult: 1
    decay_mult: 1
  }
  param {
    lr_mult: 2
    decay_mult: 0
  }
  convolution_param {
    num_output: 128
    pad: 0
    kernel_size: 1
    stride: 1
    weight_filler {
      type: "xavier"
    }
    bias_filler {
      type: "constant"
      value: 0
    }
  }
}
layer {
  name: "bn_stage1_block2_branch2a"
  type: "BatchNorm"
  bottom: "conv_stage1_block2_branch2a"
  top: "conv_stage1_block2_branch2a"
  param {
    lr_mult: 0
    decay_mult: 0
  }
  param {
    lr_mult: 0
    decay_mult: 0
  }
  param {
    lr_mult: 0
    decay_mult: 0
  }
  batch_norm_param {
    use_global_stats: false
  }
}
layer {
  name: "scale_stage1_block2_branch2a"
  type: "Scale"
  bottom: "conv_stage1_block2_branch2a"
  top: "conv_stage1_block2_branch2a"
  scale_param {
    bias_term: true
  }
}
layer {
  name: "relu_stage1_block2_branch2a"
  type: "ReLU"
  bottom: "conv_stage1_block2_branch2a"
  top: "conv_stage1_block2_branch2a"
}
layer {
  name: "conv_stage1_block2_branch2b"
  type: "Convolution"
  bottom: "conv_stage1_block2_branch2a"
  top: "conv_stage1_block2_branch2b"
  param {
    lr_mult: 1
    decay_mult: 1
  }
  param {
    lr_mult: 2
    decay_mult: 0
  }
  convolution_param {
    num_output: 128
    pad: 1
    kernel_size: 3
    stride: 1
    weight_filler {
      type: "xavier"
    }
    bias_filler {
      type: "constant"
      value: 0
    }
  }
}
layer {
  name: "bn_stage1_block2_branch2b"
  type: "BatchNorm"
  bottom: "conv_stage1_block2_branch2b"
  top: "conv_stage1_block2_branch2b"
  param {
    lr_mult: 0
    decay_mult: 0
  }
  param {
    lr_mult: 0
    decay_mult: 0
  }
  param {
    lr_mult: 0
    decay_mult: 0
  }
  batch_norm_param {
    use_global_stats: false
  }
}
layer {
  name: "scale_stage1_block2_branch2b"
  type: "Scale"
  bottom: "conv_stage1_block2_branch2b"
  top: "conv_stage1_block2_branch2b"
  scale_param {
    bias_term: true
  }
}
layer {
  name: "relu_stage1_block2_branch2b"
  type: "ReLU"
  bottom: "conv_stage1_block2_branch2b"
  top: "conv_stage1_block2_branch2b"
}
layer {
  name: "conv_stage1_block2_branch2c"
  type: "Convolution"
  bottom: "conv_stage1_block2_branch2b"
  top: "conv_stage1_block2_branch2c"
  param {
    lr_mult: 1
    decay_mult: 1
  }
  param {
    lr_mult: 2
    decay_mult: 0
  }
  convolution_param {
    num_output: 512
    pad: 0
    kernel_size: 1
    stride: 1
    weight_filler {
      type: "xavier"
    }
    bias_filler {
      type: "constant"
      value: 0
    }
  }
}
layer {
  name: "bn_stage1_block2_branch2c"
  type: "BatchNorm"
  bottom: "conv_stage1_block2_branch2c"
  top: "conv_stage1_block2_branch2c"
  param {
    lr_mult: 0
    decay_mult: 0
  }
  param {
    lr_mult: 0
    decay_mult: 0
  }
  param {
    lr_mult: 0
    decay_mult: 0
  }
  batch_norm_param {
    use_global_stats: false
  }
}
layer {
  name: "scale_stage1_block2_branch2c"
  type: "Scale"
  bottom: "conv_stage1_block2_branch2c"
  top: "conv_stage1_block2_branch2c"
  scale_param {
    bias_term: true
  }
}
layer {
  name: "eltwise_stage1_block2"
  type: "Eltwise"
  bottom: "eltwise_stage1_block1"
  bottom: "conv_stage1_block2_branch2c"
  top: "eltwise_stage1_block2"
}
layer {
  name: "relu_stage1_block2"
  type: "ReLU"
  bottom: "eltwise_stage1_block2"
  top: "eltwise_stage1_block2"
}
layer {
  name: "conv_stage1_block3_branch2a"
  type: "Convolution"
  bottom: "eltwise_stage1_block2"
  top: "conv_stage1_block3_branch2a"
  param {
    lr_mult: 1
    decay_mult: 1
  }
  param {
    lr_mult: 2
    decay_mult: 0
  }
  convolution_param {
    num_output: 128
    pad: 0
    kernel_size: 1
    stride: 1
    weight_filler {
      type: "xavier"
    }
    bias_filler {
      type: "constant"
      value: 0
    }
  }
}
layer {
  name: "bn_stage1_block3_branch2a"
  type: "BatchNorm"
  bottom: "conv_stage1_block3_branch2a"
  top: "conv_stage1_block3_branch2a"
  param {
    lr_mult: 0
    decay_mult: 0
  }
  param {
    lr_mult: 0
    decay_mult: 0
  }
  param {
    lr_mult: 0
    decay_mult: 0
  }
  batch_norm_param {
    use_global_stats: false
  }
}
layer {
  name: "scale_stage1_block3_branch2a"
  type: "Scale"
  bottom: "conv_stage1_block3_branch2a"
  top: "conv_stage1_block3_branch2a"
  scale_param {
    bias_term: true
  }
}
layer {
  name: "relu_stage1_block3_branch2a"
  type: "ReLU"
  bottom: "conv_stage1_block3_branch2a"
  top: "conv_stage1_block3_branch2a"
}
layer {
  name: "conv_stage1_block3_branch2b"
  type: "Convolution"
  bottom: "conv_stage1_block3_branch2a"
  top: "conv_stage1_block3_branch2b"
  param {
    lr_mult: 1
    decay_mult: 1
  }
  param {
    lr_mult: 2
    decay_mult: 0
  }
  convolution_param {
    num_output: 128
    pad: 1
    kernel_size: 3
    stride: 1
    weight_filler {
      type: "xavier"
    }
    bias_filler {
      type: "constant"
      value: 0
    }
  }
}
layer {
  name: "bn_stage1_block3_branch2b"
  type: "BatchNorm"
  bottom: "conv_stage1_block3_branch2b"
  top: "conv_stage1_block3_branch2b"
  param {
    lr_mult: 0
    decay_mult: 0
  }
  param {
    lr_mult: 0
    decay_mult: 0
  }
  param {
    lr_mult: 0
    decay_mult: 0
  }
  batch_norm_param {
    use_global_stats: false
  }
}
layer {
  name: "scale_stage1_block3_branch2b"
  type: "Scale"
  bottom: "conv_stage1_block3_branch2b"
  top: "conv_stage1_block3_branch2b"
  scale_param {
    bias_term: true
  }
}
layer {
  name: "relu_stage1_block3_branch2b"
  type: "ReLU"
  bottom: "conv_stage1_block3_branch2b"
  top: "conv_stage1_block3_branch2b"
}
layer {
  name: "conv_stage1_block3_branch2c"
  type: "Convolution"
  bottom: "conv_stage1_block3_branch2b"
  top: "conv_stage1_block3_branch2c"
  param {
    lr_mult: 1
    decay_mult: 1
  }
  param {
    lr_mult: 2
    decay_mult: 0
  }
  convolution_param {
    num_output: 512
    pad: 0
    kernel_size: 1
    stride: 1
    weight_filler {
      type: "xavier"
    }
    bias_filler {
      type: "constant"
      value: 0
    }
  }
}
layer {
  name: "bn_stage1_block3_branch2c"
  type: "BatchNorm"
  bottom: "conv_stage1_block3_branch2c"
  top: "conv_stage1_block3_branch2c"
  param {
    lr_mult: 0
    decay_mult: 0
  }
  param {
    lr_mult: 0
    decay_mult: 0
  }
  param {
    lr_mult: 0
    decay_mult: 0
  }
  batch_norm_param {
    use_global_stats: false
  }
}
layer {
  name: "scale_stage1_block3_branch2c"
  type: "Scale"
  bottom: "conv_stage1_block3_branch2c"
  top: "conv_stage1_block3_branch2c"
  scale_param {
    bias_term: true
  }
}
layer {
  name: "eltwise_stage1_block3"
  type: "Eltwise"
  bottom: "eltwise_stage1_block2"
  bottom: "conv_stage1_block3_branch2c"
  top: "eltwise_stage1_block3"
}
layer {
  name: "relu_stage1_block3"
  type: "ReLU"
  bottom: "eltwise_stage1_block3"
  top: "eltwise_stage1_block3"
}
layer {
  name: "conv_stage2_block0_proj_shortcut"
  type: "Convolution"
  bottom: "eltwise_stage1_block3"
  top: "conv_stage2_block0_proj_shortcut"
  param {
    lr_mult: 1
    decay_mult: 1
  }
  param {
    lr_mult: 2
    decay_mult: 0
  }
  convolution_param {
    num_output: 1024
    pad: 0
    kernel_size: 1
    stride: 2
    weight_filler {
      type: "xavier"
    }
    bias_filler {
      type: "constant"
      value: 0
    }
  }
}
layer {
  name: "bn_stage2_block0_proj_shortcut"
  type: "BatchNorm"
  bottom: "conv_stage2_block0_proj_shortcut"
  top: "conv_stage2_block0_proj_shortcut"
  param {
    lr_mult: 0
    decay_mult: 0
  }
  param {
    lr_mult: 0
    decay_mult: 0
  }
  param {
    lr_mult: 0
    decay_mult: 0
  }
  batch_norm_param {
    use_global_stats: false
  }
}
layer {
  name: "scale_stage2_block0_proj_shortcut"
  type: "Scale"
  bottom: "conv_stage2_block0_proj_shortcut"
  top: "conv_stage2_block0_proj_shortcut"
  scale_param {
    bias_term: true
  }
}
layer {
  name: "conv_stage2_block0_branch2a"
  type: "Convolution"
  bottom: "eltwise_stage1_block3"
  top: "conv_stage2_block0_branch2a"
  param {
    lr_mult: 1
    decay_mult: 1
  }
  param {
    lr_mult: 2
    decay_mult: 0
  }
  convolution_param {
    num_output: 256
    pad: 0
    kernel_size: 1
    stride: 2
    weight_filler {
      type: "xavier"
    }
    bias_filler {
      type: "constant"
      value: 0
    }
  }
}
layer {
  name: "bn_stage2_block0_branch2a"
  type: "BatchNorm"
  bottom: "conv_stage2_block0_branch2a"
  top: "conv_stage2_block0_branch2a"
  param {
    lr_mult: 0
    decay_mult: 0
  }
  param {
    lr_mult: 0
    decay_mult: 0
  }
  param {
    lr_mult: 0
    decay_mult: 0
  }
  batch_norm_param {
    use_global_stats: false
  }
}
layer {
  name: "scale_stage2_block0_branch2a"
  type: "Scale"
  bottom: "conv_stage2_block0_branch2a"
  top: "conv_stage2_block0_branch2a"
  scale_param {
    bias_term: true
  }
}
layer {
  name: "relu_stage2_block0_branch2a"
  type: "ReLU"
  bottom: "conv_stage2_block0_branch2a"
  top: "conv_stage2_block0_branch2a"
}
layer {
  name: "conv_stage2_block0_branch2b"
  type: "Convolution"
  bottom: "conv_stage2_block0_branch2a"
  top: "conv_stage2_block0_branch2b"
  param {
    lr_mult: 1
    decay_mult: 1
  }
  param {
    lr_mult: 2
    decay_mult: 0
  }
  convolution_param {
    num_output: 256
    pad: 1
    kernel_size: 3
    stride: 1
    weight_filler {
      type: "xavier"
    }
    bias_filler {
      type: "constant"
      value: 0
    }
  }
}
layer {
  nam
I0928 21:17:25.413352 10764 layer_factory.hpp:77] Creating layer data
I0928 21:17:25.413707 10764 net.cpp:91] Creating Layer data
I0928 21:17:25.413714 10764 net.cpp:399] data -> data
I0928 21:17:25.413741 10764 net.cpp:399] data -> label
I0928 21:17:25.413750 10764 data_transformer.cpp:25] Loading mean file from: /media/red/BRIDGE/data/BOT/mean.binaryproto
I0928 21:17:25.414535 10773 db_lmdb.cpp:35] Opened lmdb /media/red/DATA/data/BOT/ccrvc_train_lmdb
I0928 21:17:25.427383 10764 data_layer.cpp:41] output data size: 8,3,224,224
I0928 21:17:25.433317 10764 net.cpp:141] Setting up data
I0928 21:17:25.433356 10764 net.cpp:148] Top shape: 8 3 224 224 (1204224)
I0928 21:17:25.433360 10764 net.cpp:148] Top shape: 8 (8)
I0928 21:17:25.433364 10764 net.cpp:156] Memory required for data: 4816928
I0928 21:17:25.433372 10764 layer_factory.hpp:77] Creating layer conv_1
I0928 21:17:25.433394 10764 net.cpp:91] Creating Layer conv_1
I0928 21:17:25.433399 10764 net.cpp:425] conv_1 <- data
I0928 21:17:25.433411 10764 net.cpp:399] conv_1 -> conv_1
I0928 21:17:25.697986 10764 net.cpp:141] Setting up conv_1
I0928 21:17:25.698005 10764 net.cpp:148] Top shape: 8 64 112 112 (6422528)
I0928 21:17:25.698009 10764 net.cpp:156] Memory required for data: 30507040
I0928 21:17:25.698037 10764 layer_factory.hpp:77] Creating layer bn_1
I0928 21:17:25.698065 10764 net.cpp:91] Creating Layer bn_1
I0928 21:17:25.698070 10764 net.cpp:425] bn_1 <- conv_1
I0928 21:17:25.698074 10764 net.cpp:386] bn_1 -> conv_1 (in-place)
I0928 21:17:25.698211 10764 net.cpp:141] Setting up bn_1
I0928 21:17:25.698216 10764 net.cpp:148] Top shape: 8 64 112 112 (6422528)
I0928 21:17:25.698218 10764 net.cpp:156] Memory required for data: 56197152
I0928 21:17:25.698237 10764 layer_factory.hpp:77] Creating layer scale_1
I0928 21:17:25.698261 10764 net.cpp:91] Creating Layer scale_1
I0928 21:17:25.698262 10764 net.cpp:425] scale_1 <- conv_1
I0928 21:17:25.698290 10764 net.cpp:386] scale_1 -> conv_1 (in-place)
I0928 21:17:25.698374 10764 layer_factory.hpp:77] Creating layer scale_1
I0928 21:17:25.698501 10764 net.cpp:141] Setting up scale_1
I0928 21:17:25.698506 10764 net.cpp:148] Top shape: 8 64 112 112 (6422528)
I0928 21:17:25.698508 10764 net.cpp:156] Memory required for data: 81887264
I0928 21:17:25.698513 10764 layer_factory.hpp:77] Creating layer relu_1
I0928 21:17:25.698518 10764 net.cpp:91] Creating Layer relu_1
I0928 21:17:25.698520 10764 net.cpp:425] relu_1 <- conv_1
I0928 21:17:25.698524 10764 net.cpp:386] relu_1 -> conv_1 (in-place)
I0928 21:17:25.698647 10764 net.cpp:141] Setting up relu_1
I0928 21:17:25.698653 10764 net.cpp:148] Top shape: 8 64 112 112 (6422528)
I0928 21:17:25.698668 10764 net.cpp:156] Memory required for data: 107577376
I0928 21:17:25.698671 10764 layer_factory.hpp:77] Creating layer pool1
I0928 21:17:25.698678 10764 net.cpp:91] Creating Layer pool1
I0928 21:17:25.698681 10764 net.cpp:425] pool1 <- conv_1
I0928 21:17:25.698684 10764 net.cpp:399] pool1 -> pool1
I0928 21:17:25.698712 10764 net.cpp:141] Setting up pool1
I0928 21:17:25.698716 10764 net.cpp:148] Top shape: 8 64 56 56 (1605632)
I0928 21:17:25.698719 10764 net.cpp:156] Memory required for data: 113999904
I0928 21:17:25.698722 10764 layer_factory.hpp:77] Creating layer pool1_pool1_0_split
I0928 21:17:25.698725 10764 net.cpp:91] Creating Layer pool1_pool1_0_split
I0928 21:17:25.698729 10764 net.cpp:425] pool1_pool1_0_split <- pool1
I0928 21:17:25.698731 10764 net.cpp:399] pool1_pool1_0_split -> pool1_pool1_0_split_0
I0928 21:17:25.698735 10764 net.cpp:399] pool1_pool1_0_split -> pool1_pool1_0_split_1
I0928 21:17:25.698753 10764 net.cpp:141] Setting up pool1_pool1_0_split
I0928 21:17:25.698757 10764 net.cpp:148] Top shape: 8 64 56 56 (1605632)
I0928 21:17:25.698760 10764 net.cpp:148] Top shape: 8 64 56 56 (1605632)
I0928 21:17:25.698762 10764 net.cpp:156] Memory required for data: 126844960
I0928 21:17:25.698765 10764 layer_factory.hpp:77] Creating layer conv_stage0_block0_proj_shortcut
I0928 21:17:25.698771 10764 net.cpp:91] Creating Layer conv_stage0_block0_proj_shortcut
I0928 21:17:25.698774 10764 net.cpp:425] conv_stage0_block0_proj_shortcut <- pool1_pool1_0_split_0
I0928 21:17:25.698778 10764 net.cpp:399] conv_stage0_block0_proj_shortcut -> conv_stage0_block0_proj_shortcut
I0928 21:17:25.699867 10764 net.cpp:141] Setting up conv_stage0_block0_proj_shortcut
I0928 21:17:25.699877 10764 net.cpp:148] Top shape: 8 256 56 56 (6422528)
I0928 21:17:25.699880 10764 net.cpp:156] Memory required for data: 152535072
I0928 21:17:25.699887 10764 layer_factory.hpp:77] Creating layer bn_stage0_block0_proj_shortcut
I0928 21:17:25.699893 10764 net.cpp:91] Creating Layer bn_stage0_block0_proj_shortcut
I0928 21:17:25.699898 10764 net.cpp:425] bn_stage0_block0_proj_shortcut <- conv_stage0_block0_proj_shortcut
I0928 21:17:25.699901 10764 net.cpp:386] bn_stage0_block0_proj_shortcut -> conv_stage0_block0_proj_shortcut (in-place)
I0928 21:17:25.699998 10764 net.cpp:141] Setting up bn_stage0_block0_proj_shortcut
I0928 21:17:25.700003 10764 net.cpp:148] Top shape: 8 256 56 56 (6422528)
I0928 21:17:25.700006 10764 net.cpp:156] Memory required for data: 178225184
I0928 21:17:25.700011 10764 layer_factory.hpp:77] Creating layer scale_stage0_block0_proj_shortcut
I0928 21:17:25.700016 10764 net.cpp:91] Creating Layer scale_stage0_block0_proj_shortcut
I0928 21:17:25.700018 10764 net.cpp:425] scale_stage0_block0_proj_shortcut <- conv_stage0_block0_proj_shortcut
I0928 21:17:25.700021 10764 net.cpp:386] scale_stage0_block0_proj_shortcut -> conv_stage0_block0_proj_shortcut (in-place)
I0928 21:17:25.700043 10764 layer_factory.hpp:77] Creating layer scale_stage0_block0_proj_shortcut
I0928 21:17:25.700101 10764 net.cpp:141] Setting up scale_stage0_block0_proj_shortcut
I0928 21:17:25.700106 10764 net.cpp:148] Top shape: 8 256 56 56 (6422528)
I0928 21:17:25.700109 10764 net.cpp:156] Memory required for data: 203915296
I0928 21:17:25.700114 10764 layer_factory.hpp:77] Creating layer conv_stage0_block0_branch2a
I0928 21:17:25.700126 10764 net.cpp:91] Creating Layer conv_stage0_block0_branch2a
I0928 21:17:25.700129 10764 net.cpp:425] conv_stage0_block0_branch2a <- pool1_pool1_0_split_1
I0928 21:17:25.700134 10764 net.cpp:399] conv_stage0_block0_branch2a -> conv_stage0_block0_branch2a
I0928 21:17:25.700731 10764 net.cpp:141] Setting up conv_stage0_block0_branch2a
I0928 21:17:25.700740 10764 net.cpp:148] Top shape: 8 64 56 56 (1605632)
I0928 21:17:25.700743 10764 net.cpp:156] Memory required for data: 210337824
I0928 21:17:25.700748 10764 layer_factory.hpp:77] Creating layer bn_stage0_block0_branch2a
I0928 21:17:25.700753 10764 net.cpp:91] Creating Layer bn_stage0_block0_branch2a
I0928 21:17:25.700757 10764 net.cpp:425] bn_stage0_block0_branch2a <- conv_stage0_block0_branch2a
I0928 21:17:25.700760 10764 net.cpp:386] bn_stage0_block0_branch2a -> conv_stage0_block0_branch2a (in-place)
I0928 21:17:25.700860 10764 net.cpp:141] Setting up bn_stage0_block0_branch2a
I0928 21:17:25.700865 10764 net.cpp:148] Top shape: 8 64 56 56 (1605632)
I0928 21:17:25.700868 10764 net.cpp:156] Memory required for data: 216760352
I0928 21:17:25.700875 10764 layer_factory.hpp:77] Creating layer scale_stage0_block0_branch2a
I0928 21:17:25.700881 10764 net.cpp:91] Creating Layer scale_stage0_block0_branch2a
I0928 21:17:25.700882 10764 net.cpp:425] scale_stage0_block0_branch2a <- conv_stage0_block0_branch2a
I0928 21:17:25.700886 10764 net.cpp:386] scale_stage0_block0_branch2a -> conv_stage0_block0_branch2a (in-place)
I0928 21:17:25.700908 10764 layer_factory.hpp:77] Creating layer scale_stage0_block0_branch2a
I0928 21:17:25.700969 10764 net.cpp:141] Setting up scale_stage0_block0_branch2a
I0928 21:17:25.700974 10764 net.cpp:148] Top shape: 8 64 56 56 (1605632)
I0928 21:17:25.700978 10764 net.cpp:156] Memory required for data: 223182880
I0928 21:17:25.700981 10764 layer_factory.hpp:77] Creating layer relu_stage0_block0_branch2a
I0928 21:17:25.700985 10764 net.cpp:91] Creating Layer relu_stage0_block0_branch2a
I0928 21:17:25.700989 10764 net.cpp:425] relu_stage0_block0_branch2a <- conv_stage0_block0_branch2a
I0928 21:17:25.700992 10764 net.cpp:386] relu_stage0_block0_branch2a -> conv_stage0_block0_branch2a (in-place)
I0928 21:17:25.701087 10764 net.cpp:141] Setting up relu_stage0_block0_branch2a
I0928 21:17:25.701092 10764 net.cpp:148] Top shape: 8 64 56 56 (1605632)
I0928 21:17:25.701095 10764 net.cpp:156] Memory required for data: 229605408
I0928 21:17:25.701098 10764 layer_factory.hpp:77] Creating layer conv_stage0_block0_branch2b
I0928 21:17:25.701104 10764 net.cpp:91] Creating Layer conv_stage0_block0_branch2b
I0928 21:17:25.701107 10764 net.cpp:425] conv_stage0_block0_branch2b <- conv_stage0_block0_branch2a
I0928 21:17:25.701112 10764 net.cpp:399] conv_stage0_block0_branch2b -> conv_stage0_block0_branch2b
I0928 21:17:25.702330 10764 net.cpp:141] Setting up conv_stage0_block0_branch2b
I0928 21:17:25.702339 10764 net.cpp:148] Top shape: 8 64 56 56 (1605632)
I0928 21:17:25.702342 10764 net.cpp:156] Memory required for data: 236027936
I0928 21:17:25.702347 10764 layer_factory.hpp:77] Creating layer bn_stage0_block0_branch2b
I0928 21:17:25.702353 10764 net.cpp:91] Creating Layer bn_stage0_block0_branch2b
I0928 21:17:25.702355 10764 net.cpp:425] bn_stage0_block0_branch2b <- conv_stage0_block0_branch2b
I0928 21:17:25.702359 10764 net.cpp:386] bn_stage0_block0_branch2b -> conv_stage0_block0_branch2b (in-place)
I0928 21:17:25.702461 10764 net.cpp:141] Setting up bn_stage0_block0_branch2b
I0928 21:17:25.702466 10764 net.cpp:148] Top shape: 8 64 56 56 (1605632)
I0928 21:17:25.702469 10764 net.cpp:156] Memory required for data: 242450464
I0928 21:17:25.702474 10764 layer_factory.hpp:77] Creating layer scale_stage0_block0_branch2b
I0928 21:17:25.702481 10764 net.cpp:91] Creating Layer scale_stage0_block0_branch2b
I0928 21:17:25.702483 10764 net.cpp:425] scale_stage0_block0_branch2b <- conv_stage0_block0_branch2b
I0928 21:17:25.702486 10764 net.cpp:386] scale_stage0_block0_branch2b -> conv_stage0_block0_branch2b (in-place)
I0928 21:17:25.702508 10764 layer_factory.hpp:77] Creating layer scale_stage0_block0_branch2b
I0928 21:17:25.702577 10764 net.cpp:141] Setting up scale_stage0_block0_branch2b
I0928 21:17:25.702582 10764 net.cpp:148] Top shape: 8 64 56 56 (1605632)
I0928 21:17:25.702585 10764 net.cpp:156] Memory required for data: 248872992
I0928 21:17:25.702589 10764 layer_factory.hpp:77] Creating layer relu_stage0_block0_branch2b
I0928 21:17:25.702594 10764 net.cpp:91] Creating Layer relu_stage0_block0_branch2b
I0928 21:17:25.702597 10764 net.cpp:425] relu_stage0_block0_branch2b <- conv_stage0_block0_branch2b
I0928 21:17:25.702600 10764 net.cpp:386] relu_stage0_block0_branch2b -> conv_stage0_block0_branch2b (in-place)
I0928 21:17:25.702697 10764 net.cpp:141] Setting up relu_stage0_block0_branch2b
I0928 21:17:25.702702 10764 net.cpp:148] Top shape: 8 64 56 56 (1605632)
I0928 21:17:25.702705 10764 net.cpp:156] Memory required for data: 255295520
I0928 21:17:25.702708 10764 layer_factory.hpp:77] Creating layer conv_stage0_block0_branch2c
I0928 21:17:25.702713 10764 net.cpp:91] Creating Layer conv_stage0_block0_branch2c
I0928 21:17:25.702716 10764 net.cpp:425] conv_stage0_block0_branch2c <- conv_stage0_block0_branch2b
I0928 21:17:25.702720 10764 net.cpp:399] conv_stage0_block0_branch2c -> conv_stage0_block0_branch2c
I0928 21:17:25.703398 10764 net.cpp:141] Setting up conv_stage0_block0_branch2c
I0928 21:17:25.703408 10764 net.cpp:148] Top shape: 8 256 56 56 (6422528)
I0928 21:17:25.703413 10764 net.cpp:156] Memory required for data: 280985632
I0928 21:17:25.703418 10764 layer_factory.hpp:77] Creating layer bn_stage0_block0_branch2c
I0928 21:17:25.703424 10764 net.cpp:91] Creating Layer bn_stage0_block0_branch2c
I0928 21:17:25.703428 10764 net.cpp:425] bn_stage0_block0_branch2c <- conv_stage0_block0_branch2c
I0928 21:17:25.703433 10764 net.cpp:386] bn_stage0_block0_branch2c -> conv_stage0_block0_branch2c (in-place)
I0928 21:17:25.703574 10764 net.cpp:141] Setting up bn_stage0_block0_branch2c
I0928 21:17:25.703583 10764 net.cpp:148] Top shape: 8 256 56 56 (6422528)
I0928 21:17:25.703598 10764 net.cpp:156] Memory required for data: 306675744
I0928 21:17:25.703605 10764 layer_factory.hpp:77] Creating layer scale_stage0_block0_branch2c
I0928 21:17:25.703610 10764 net.cpp:91] Creating Layer scale_stage0_block0_branch2c
I0928 21:17:25.703613 10764 net.cpp:425] scale_stage0_block0_branch2c <- conv_stage0_block0_branch2c
I0928 21:17:25.703616 10764 net.cpp:386] scale_stage0_block0_branch2c -> conv_stage0_block0_branch2c (in-place)
I0928 21:17:25.703640 10764 layer_factory.hpp:77] Creating layer scale_stage0_block0_branch2c
I0928 21:17:25.703721 10764 net.cpp:141] Setting up scale_stage0_block0_branch2c
I0928 21:17:25.703725 10764 net.cpp:148] Top shape: 8 256 56 56 (6422528)
I0928 21:17:25.703740 10764 net.cpp:156] Memory required for data: 332365856
I0928 21:17:25.703744 10764 layer_factory.hpp:77] Creating layer eltwise_stage0_block0
I0928 21:17:25.703748 10764 net.cpp:91] Creating Layer eltwise_stage0_block0
I0928 21:17:25.703752 10764 net.cpp:425] eltwise_stage0_block0 <- conv_stage0_block0_proj_shortcut
I0928 21:17:25.703754 10764 net.cpp:425] eltwise_stage0_block0 <- conv_stage0_block0_branch2c
I0928 21:17:25.703758 10764 net.cpp:399] eltwise_stage0_block0 -> eltwise_stage0_block0
I0928 21:17:25.703773 10764 net.cpp:141] Setting up eltwise_stage0_block0
I0928 21:17:25.703778 10764 net.cpp:148] Top shape: 8 256 56 56 (6422528)
I0928 21:17:25.703779 10764 net.cpp:156] Memory required for data: 358055968
I0928 21:17:25.703783 10764 layer_factory.hpp:77] Creating layer relu_stage0_block0
I0928 21:17:25.703786 10764 net.cpp:91] Creating Layer relu_stage0_block0
I0928 21:17:25.703789 10764 net.cpp:425] relu_stage0_block0 <- eltwise_stage0_block0
I0928 21:17:25.703793 10764 net.cpp:386] relu_stage0_block0 -> eltwise_stage0_block0 (in-place)
I0928 21:17:25.704066 10764 net.cpp:141] Setting up relu_stage0_block0
I0928 21:17:25.704073 10764 net.cpp:148] Top shape: 8 256 56 56 (6422528)
I0928 21:17:25.704090 10764 net.cpp:156] Memory required for data: 383746080
I0928 21:17:25.704093 10764 layer_factory.hpp:77] Creating layer eltwise_stage0_block0_relu_stage0_block0_0_split
I0928 21:17:25.704104 10764 net.cpp:91] Creating Layer eltwise_stage0_block0_relu_stage0_block0_0_split
I0928 21:17:25.704107 10764 net.cpp:425] eltwise_stage0_block0_relu_stage0_block0_0_split <- eltwise_stage0_block0
I0928 21:17:25.704111 10764 net.cpp:399] eltwise_stage0_block0_relu_stage0_block0_0_split -> eltwise_stage0_block0_relu_stage0_block0_0_split_0
I0928 21:17:25.704116 10764 net.cpp:399] eltwise_stage0_block0_relu_stage0_block0_0_split -> eltwise_stage0_block0_relu_stage0_block0_0_split_1
I0928 21:17:25.704138 10764 net.cpp:141] Setting up eltwise_stage0_block0_relu_stage0_block0_0_split
I0928 21:17:25.704143 10764 net.cpp:148] Top shape: 8 256 56 56 (6422528)
I0928 21:17:25.704146 10764 net.cpp:148] Top shape: 8 256 56 56 (6422528)
I0928 21:17:25.704149 10764 net.cpp:156] Memory required for data: 435126304
I0928 21:17:25.704150 10764 layer_factory.hpp:77] Creating layer conv_stage0_block1_branch2a
I0928 21:17:25.704169 10764 net.cpp:91] Creating Layer conv_stage0_block1_branch2a
I0928 21:17:25.704172 10764 net.cpp:425] conv_stage0_block1_branch2a <- eltwise_stage0_block0_relu_stage0_block0_0_split_0
I0928 21:17:25.704190 10764 net.cpp:399] conv_stage0_block1_branch2a -> conv_stage0_block1_branch2a
I0928 21:17:25.704705 10764 net.cpp:141] Setting up conv_stage0_block1_branch2a
I0928 21:17:25.704712 10764 net.cpp:148] Top shape: 8 64 56 56 (1605632)
I0928 21:17:25.704715 10764 net.cpp:156] Memory required for data: 441548832
I0928 21:17:25.704732 10764 layer_factory.hpp:77] Creating layer bn_stage0_block1_branch2a
I0928 21:17:25.704737 10764 net.cpp:91] Creating Layer bn_stage0_block1_branch2a
I0928 21:17:25.704741 10764 net.cpp:425] bn_stage0_block1_branch2a <- conv_stage0_block1_branch2a
I0928 21:17:25.704744 10764 net.cpp:386] bn_stage0_block1_branch2a -> conv_stage0_block1_branch2a (in-place)
I0928 21:17:25.704857 10764 net.cpp:141] Setting up bn_stage0_block1_branch2a
I0928 21:17:25.704861 10764 net.cpp:148] Top shape: 8 64 56 56 (1605632)
I0928 21:17:25.704864 10764 net.cpp:156] Memory required for data: 447971360
I0928 21:17:25.704884 10764 layer_factory.hpp:77] Creating layer scale_stage0_block1_branch2a
I0928 21:17:25.704887 10764 net.cpp:91] Creating Layer scale_stage0_block1_branch2a
I0928 21:17:25.704890 10764 net.cpp:425] scale_stage0_block1_branch2a <- conv_stage0_block1_branch2a
I0928 21:17:25.704895 10764 net.cpp:386] scale_stage0_block1_branch2a -> conv_stage0_block1_branch2a (in-place)
I0928 21:17:25.704916 10764 layer_factory.hpp:77] Creating layer scale_stage0_block1_branch2a
I0928 21:17:25.704984 10764 net.cpp:141] Setting up scale_stage0_block1_branch2a
I0928 21:17:25.704989 10764 net.cpp:148] Top shape: 8 64 56 56 (1605632)
I0928 21:17:25.704991 10764 net.cpp:156] Memory required for data: 454393888
I0928 21:17:25.704995 10764 layer_factory.hpp:77] Creating layer relu_stage0_block1_branch2a
I0928 21:17:25.704999 10764 net.cpp:91] Creating Layer relu_stage0_block1_branch2a
I0928 21:17:25.705003 10764 net.cpp:425] relu_stage0_block1_branch2a <- conv_stage0_block1_branch2a
I0928 21:17:25.705006 10764 net.cpp:386] relu_stage0_block1_branch2a -> conv_stage0_block1_branch2a (in-place)
I0928 21:17:25.705260 10764 net.cpp:141] Setting up relu_stage0_block1_branch2a
I0928 21:17:25.705268 10764 net.cpp:148] Top shape: 8 64 56 56 (1605632)
I0928 21:17:25.705271 10764 net.cpp:156] Memory required for data: 460816416
I0928 21:17:25.705273 10764 layer_factory.hpp:77] Creating layer conv_stage0_block1_branch2b
I0928 21:17:25.705281 10764 net.cpp:91] Creating Layer conv_stage0_block1_branch2b
I0928 21:17:25.705283 10764 net.cpp:425] conv_stage0_block1_branch2b <- conv_stage0_block1_branch2a
I0928 21:17:25.705288 10764 net.cpp:399] conv_stage0_block1_branch2b -> conv_stage0_block1_branch2b
I0928 21:17:25.706120 10764 net.cpp:141] Setting up conv_stage0_block1_branch2b
I0928 21:17:25.706128 10764 net.cpp:148] Top shape: 8 64 56 56 (1605632)
I0928 21:17:25.706131 10764 net.cpp:156] Memory required for data: 467238944
I0928 21:17:25.706141 10764 layer_factory.hpp:77] Creating layer bn_stage0_block1_branch2b
I0928 21:17:25.706147 10764 net.cpp:91] Creating Layer bn_stage0_block1_branch2b
I0928 21:17:25.706151 10764 net.cpp:425] bn_stage0_block1_branch2b <- conv_stage0_block1_branch2b
I0928 21:17:25.706156 10764 net.cpp:386] bn_stage0_block1_branch2b -> conv_stage0_block1_branch2b (in-place)
I0928 21:17:25.706265 10764 net.cpp:141] Setting up bn_stage0_block1_branch2b
I0928 21:17:25.706270 10764 net.cpp:148] Top shape: 8 64 56 56 (1605632)
I0928 21:17:25.706274 10764 net.cpp:156] Memory required for data: 473661472
I0928 21:17:25.706277 10764 layer_factory.hpp:77] Creating layer scale_stage0_block1_branch2b
I0928 21:17:25.706282 10764 net.cpp:91] Creating Layer scale_stage0_block1_branch2b
I0928 21:17:25.706285 10764 net.cpp:425] scale_stage0_block1_branch2b <- conv_stage0_block1_branch2b
I0928 21:17:25.706288 10764 net.cpp:386] scale_stage0_block1_branch2b -> conv_stage0_block1_branch2b (in-place)
I0928 21:17:25.706312 10764 layer_factory.hpp:77] Creating layer scale_stage0_block1_branch2b
I0928 21:17:25.706382 10764 net.cpp:141] Setting up scale_stage0_block1_branch2b
I0928 21:17:25.706387 10764 net.cpp:148] Top shape: 8 64 56 56 (1605632)
I0928 21:17:25.706389 10764 net.cpp:156] Memory required for data: 480084000
I0928 21:17:25.706393 10764 layer_factory.hpp:77] Creating layer relu_stage0_block1_branch2b
I0928 21:17:25.706398 10764 net.cpp:91] Creating Layer relu_stage0_block1_branch2b
I0928 21:17:25.706400 10764 net.cpp:425] relu_stage0_block1_branch2b <- conv_stage0_block1_branch2b
I0928 21:17:25.706404 10764 net.cpp:386] relu_stage0_block1_branch2b -> conv_stage0_block1_branch2b (in-place)
I0928 21:17:25.706507 10764 net.cpp:141] Setting up relu_stage0_block1_branch2b
I0928 21:17:25.706512 10764 net.cpp:148] Top shape: 8 64 56 56 (1605632)
I0928 21:17:25.706516 10764 net.cpp:156] Memory required for data: 486506528
I0928 21:17:25.706518 10764 layer_factory.hpp:77] Creating layer conv_stage0_block1_branch2c
I0928 21:17:25.706526 10764 net.cpp:91] Creating Layer conv_stage0_block1_branch2c
I0928 21:17:25.706529 10764 net.cpp:425] conv_stage0_block1_branch2c <- conv_stage0_block1_branch2b
I0928 21:17:25.706535 10764 net.cpp:399] conv_stage0_block1_branch2c -> conv_stage0_block1_branch2c
I0928 21:17:25.707255 10764 net.cpp:141] Setting up conv_stage0_block1_branch2c
I0928 21:17:25.707263 10764 net.cpp:148] Top shape: 8 256 56 56 (6422528)
I0928 21:17:25.707281 10764 net.cpp:156] Memory required for data: 512196640
I0928 21:17:25.707286 10764 layer_factory.hpp:77] Creating layer bn_stage0_block1_branch2c
I0928 21:17:25.707291 10764 net.cpp:91] Creating Layer bn_stage0_block1_branch2c
I0928 21:17:25.707294 10764 net.cpp:425] bn_stage0_block1_branch2c <- conv_stage0_block1_branch2c
I0928 21:17:25.707299 10764 net.cpp:386] bn_stage0_block1_branch2c -> conv_stage0_block1_branch2c (in-place)
I0928 21:17:25.707406 10764 net.cpp:141] Setting up bn_stage0_block1_branch2c
I0928 21:17:25.707411 10764 net.cpp:148] Top shape: 8 256 56 56 (6422528)
I0928 21:17:25.707413 10764 net.cpp:156] Memory required for data: 537886752
I0928 21:17:25.707417 10764 layer_factory.hpp:77] Creating layer scale_stage0_block1_branch2c
I0928 21:17:25.707422 10764 net.cpp:91] Creating Layer scale_stage0_block1_branch2c
I0928 21:17:25.707425 10764 net.cpp:425] scale_stage0_block1_branch2c <- conv_stage0_block1_branch2c
I0928 21:17:25.707429 10764 net.cpp:386] scale_stage0_block1_branch2c -> conv_stage0_block1_branch2c (in-place)
I0928 21:17:25.707451 10764 layer_factory.hpp:77] Creating layer scale_stage0_block1_branch2c
I0928 21:17:25.707517 10764 net.cpp:141] Setting up scale_stage0_block1_branch2c
I0928 21:17:25.707521 10764 net.cpp:148] Top shape: 8 256 56 56 (6422528)
I0928 21:17:25.707525 10764 net.cpp:156] Memory required for data: 563576864
I0928 21:17:25.707528 10764 layer_factory.hpp:77] Creating layer eltwise_stage0_block1
I0928 21:17:25.707532 10764 net.cpp:91] Creating Layer eltwise_stage0_block1
I0928 21:17:25.707535 10764 net.cpp:425] eltwise_stage0_block1 <- eltwise_stage0_block0_relu_stage0_block0_0_split_1
I0928 21:17:25.707545 10764 net.cpp:425] eltwise_stage0_block1 <- conv_stage0_block1_branch2c
I0928 21:17:25.707548 10764 net.cpp:399] eltwise_stage0_block1 -> eltwise_stage0_block1
I0928 21:17:25.707564 10764 net.cpp:141] Setting up eltwise_stage0_block1
I0928 21:17:25.707569 10764 net.cpp:148] Top shape: 8 256 56 56 (6422528)
I0928 21:17:25.707572 10764 net.cpp:156] Memory required for data: 589266976
I0928 21:17:25.707574 10764 layer_factory.hpp:77] Creating layer relu_stage0_block1
I0928 21:17:25.707578 10764 net.cpp:91] Creating Layer relu_stage0_block1
I0928 21:17:25.707581 10764 net.cpp:425] relu_stage0_block1 <- eltwise_stage0_block1
I0928 21:17:25.707584 10764 net.cpp:386] relu_stage0_block1 -> eltwise_stage0_block1 (in-place)
I0928 21:17:25.707686 10764 net.cpp:141] Setting up relu_stage0_block1
I0928 21:17:25.707691 10764 net.cpp:148] Top shape: 8 256 56 56 (6422528)
I0928 21:17:25.707695 10764 net.cpp:156] Memory required for data: 614957088
I0928 21:17:25.707696 10764 layer_factory.hpp:77] Creating layer eltwise_stage0_block1_relu_stage0_block1_0_split
I0928 21:17:25.707700 10764 net.cpp:91] Creating Layer eltwise_stage0_block1_relu_stage0_block1_0_split
I0928 21:17:25.707703 10764 net.cpp:425] eltwise_stage0_block1_relu_stage0_block1_0_split <- eltwise_stage0_block1
I0928 21:17:25.707707 10764 net.cpp:399] eltwise_stage0_block1_relu_stage0_block1_0_split -> eltwise_stage0_block1_relu_stage0_block1_0_split_0
I0928 21:17:25.707711 10764 net.cpp:399] eltwise_stage0_block1_relu_stage0_block1_0_split -> eltwise_stage0_block1_relu_stage0_block1_0_split_1
I0928 21:17:25.707733 10764 net.cpp:141] Setting up eltwise_stage0_block1_relu_stage0_block1_0_split
I0928 21:17:25.707738 10764 net.cpp:148] Top shape: 8 256 56 56 (6422528)
I0928 21:17:25.707741 10764 net.cpp:148] Top shape: 8 256 56 56 (6422528)
I0928 21:17:25.707743 10764 net.cpp:156] Memory required for data: 666337312
I0928 21:17:25.707746 10764 layer_factory.hpp:77] Creating layer conv_stage0_block2_branch2a
I0928 21:17:25.707751 10764 net.cpp:91] Creating Layer conv_stage0_block2_branch2a
I0928 21:17:25.707754 10764 net.cpp:425] conv_stage0_block2_branch2a <- eltwise_stage0_block1_relu_stage0_block1_0_split_0
I0928 21:17:25.707759 10764 net.cpp:399] conv_stage0_block2_branch2a -> conv_stage0_block2_branch2a
I0928 21:17:25.708464 10764 net.cpp:141] Setting up conv_stage0_block2_branch2a
I0928 21:17:25.708473 10764 net.cpp:148] Top shape: 8 64 56 56 (1605632)
I0928 21:17:25.708477 10764 net.cpp:156] Memory required for data: 672759840
I0928 21:17:25.708480 10764 layer_factory.hpp:77] Creating layer bn_stage0_block2_branch2a
I0928 21:17:25.708487 10764 net.cpp:91] Creating Layer bn_stage0_block2_branch2a
I0928 21:17:25.708489 10764 net.cpp:425] bn_stage0_block2_branch2a <- conv_stage0_block2_branch2a
I0928 21:17:25.708493 10764 net.cpp:386] bn_stage0_block2_branch2a -> conv_stage0_block2_branch2a (in-place)
I0928 21:17:25.708606 10764 net.cpp:141] Setting up bn_stage0_block2_branch2a
I0928 21:17:25.708611 10764 net.cpp:148] Top shape: 8 64 56 56 (1605632)
I0928 21:17:25.708613 10764 net.cpp:156] Memory required for data: 679182368
I0928 21:17:25.708618 10764 layer_factory.hpp:77] Creating layer scale_stage0_block2_branch2a
I0928 21:17:25.708622 10764 net.cpp:91] Creating Layer scale_stage0_block2_branch2a
I0928 21:17:25.708626 10764 net.cpp:425] scale_stage0_block2_branch2a <- conv_stage0_block2_branch2a
I0928 21:17:25.708628 10764 net.cpp:386] scale_stage0_block2_branch2a -> conv_stage0_block2_branch2a (in-place)
I0928 21:17:25.708654 10764 layer_factory.hpp:77] Creating layer scale_stage0_block2_branch2a
I0928 21:17:25.708724 10764 net.cpp:141] Setting up scale_stage0_block2_branch2a
I0928 21:17:25.708729 10764 net.cpp:148] Top shape: 8 64 56 56 (1605632)
I0928 21:17:25.708732 10764 net.cpp:156] Memory required for data: 685604896
I0928 21:17:25.708735 10764 layer_factory.hpp:77] Creating layer relu_stage0_block2_branch2a
I0928 21:17:25.708740 10764 net.cpp:91] Creating Layer relu_stage0_block2_branch2a
I0928 21:17:25.708748 10764 net.cpp:425] relu_stage0_block2_branch2a <- conv_stage0_block2_branch2a
I0928 21:17:25.708751 10764 net.cpp:386] relu_stage0_block2_branch2a -> conv_stage0_block2_branch2a (in-place)
I0928 21:17:25.708853 10764 net.cpp:141] Setting up relu_stage0_block2_branch2a
I0928 21:17:25.708858 10764 net.cpp:148] Top shape: 8 64 56 56 (1605632)
I0928 21:17:25.708861 10764 net.cpp:156] Memory required for data: 692027424
I0928 21:17:25.708863 10764 layer_factory.hpp:77] Creating layer conv_stage0_block2_branch2b
I0928 21:17:25.708870 10764 net.cpp:91] Creating Layer conv_stage0_block2_branch2b
I0928 21:17:25.708873 10764 net.cpp:425] conv_stage0_block2_branch2b <- conv_stage0_block2_branch2a
I0928 21:17:25.708878 10764 net.cpp:399] conv_stage0_block2_branch2b -> conv_stage0_block2_branch2b
I0928 21:17:25.709724 10764 net.cpp:141] Setting up conv_stage0_block2_branch2b
I0928 21:17:25.709733 10764 net.cpp:148] Top shape: 8 64 56 56 (1605632)
I0928 21:17:25.709736 10764 net.cpp:156] Memory required for data: 698449952
I0928 21:17:25.709746 10764 layer_factory.hpp:77] Creating layer bn_stage0_block2_branch2b
I0928 21:17:25.709753 10764 net.cpp:91] Creating Layer bn_stage0_block2_branch2b
I0928 21:17:25.709756 10764 net.cpp:425] bn_stage0_block2_branch2b <- conv_stage0_block2_branch2b
I0928 21:17:25.709761 10764 net.cpp:386] bn_stage0_block2_branch2b -> conv_stage0_block2_branch2b (in-place)
I0928 21:17:25.709873 10764 net.cpp:141] Setting up bn_stage0_block2_branch2b
I0928 21:17:25.709878 10764 net.cpp:148] Top shape: 8 64 56 56 (1605632)
I0928 21:17:25.709882 10764 net.cpp:156] Memory required for data: 704872480
I0928 21:17:25.709885 10764 layer_factory.hpp:77] Creating layer scale_stage0_block2_branch2b
I0928 21:17:25.709890 10764 net.cpp:91] Creating Layer scale_stage0_block2_branch2b
I0928 21:17:25.709893 10764 net.cpp:425] scale_stage0_block2_branch2b <- conv_stage0_block2_branch2b
I0928 21:17:25.709897 10764 net.cpp:386] scale_stage0_block2_branch2b -> conv_stage0_block2_branch2b (in-place)
I0928 21:17:25.709921 10764 layer_factory.hpp:77] Creating layer scale_stage0_block2_branch2b
I0928 21:17:25.709991 10764 net.cpp:141] Setting up scale_stage0_block2_branch2b
I0928 21:17:25.709996 10764 net.cpp:148] Top shape: 8 64 56 56 (1605632)
I0928 21:17:25.710000 10764 net.cpp:156] Memory required for data: 711295008
I0928 21:17:25.710003 10764 layer_factory.hpp:77] Creating layer relu_stage0_block2_branch2b
I0928 21:17:25.710008 10764 net.cpp:91] Creating Layer relu_stage0_block2_branch2b
I0928 21:17:25.710011 10764 net.cpp:425] relu_stage0_block2_branch2b <- conv_stage0_block2_branch2b
I0928 21:17:25.710014 10764 net.cpp:386] relu_stage0_block2_branch2b -> conv_stage0_block2_branch2b (in-place)
I0928 21:17:25.710115 10764 net.cpp:141] Setting up relu_stage0_block2_branch2b
I0928 21:17:25.710121 10764 net.cpp:148] Top shape: 8 64 56 56 (1605632)
I0928 21:17:25.710124 10764 net.cpp:156] Memory required for data: 717717536
I0928 21:17:25.710126 10764 layer_factory.hpp:77] Creating layer conv_stage0_block2_branch2c
I0928 21:17:25.710134 10764 net.cpp:91] Creating Layer conv_stage0_block2_branch2c
I0928 21:17:25.710136 10764 net.cpp:425] conv_stage0_block2_branch2c <- conv_stage0_block2_branch2b
I0928 21:17:25.710141 10764 net.cpp:399] conv_stage0_block2_branch2c -> conv_stage0_block2_branch2c
I0928 21:17:25.710904 10764 net.cpp:141] Setting up conv_stage0_block2_branch2c
I0928 21:17:25.710914 10764 net.cpp:148] Top shape: 8 256 56 56 (6422528)
I0928 21:17:25.710918 10764 net.cpp:156] Memory required for data: 743407648
I0928 21:17:25.710922 10764 layer_factory.hpp:77] Creating layer bn_stage0_block2_branch2c
I0928 21:17:25.710927 10764 net.cpp:91] Creating Layer bn_stage0_block2_branch2c
I0928 21:17:25.710930 10764 net.cpp:425] bn_stage0_block2_branch2c <- conv_stage0_block2_branch2c
I0928 21:17:25.710935 10764 net.cpp:386] bn_stage0_block2_branch2c -> conv_stage0_block2_branch2c (in-place)
I0928 21:17:25.711068 10764 net.cpp:141] Setting up bn_stage0_block2_branch2c
I0928 21:17:25.711074 10764 net.cpp:148] Top shape: 8 256 56 56 (6422528)
I0928 21:17:25.711084 10764 net.cpp:156] Memory required for data: 769097760
I0928 21:17:25.711089 10764 layer_factory.hpp:77] Creating layer scale_stage0_block2_branch2c
I0928 21:17:25.711094 10764 net.cpp:91] Creating Layer scale_stage0_block2_branch2c
I0928 21:17:25.711097 10764 net.cpp:425] scale_stage0_block2_branch2c <- conv_stage0_block2_branch2c
I0928 21:17:25.711100 10764 net.cpp:386] scale_stage0_block2_branch2c -> conv_stage0_block2_branch2c (in-place)
I0928 21:17:25.711124 10764 layer_factory.hpp:77] Creating layer scale_stage0_block2_branch2c
I0928 21:17:25.711190 10764 net.cpp:141] Setting up scale_stage0_block2_branch2c
I0928 21:17:25.711195 10764 net.cpp:148] Top shape: 8 256 56 56 (6422528)
I0928 21:17:25.711197 10764 net.cpp:156] Memory required for data: 794787872
I0928 21:17:25.711201 10764 layer_factory.hpp:77] Creating layer eltwise_stage0_block2
I0928 21:17:25.711206 10764 net.cpp:91] Creating Layer eltwise_stage0_block2
I0928 21:17:25.711210 10764 net.cpp:425] eltwise_stage0_block2 <- eltwise_stage0_block1_relu_stage0_block1_0_split_1
I0928 21:17:25.711213 10764 net.cpp:425] eltwise_stage0_block2 <- conv_stage0_block2_branch2c
I0928 21:17:25.711216 10764 net.cpp:399] eltwise_stage0_block2 -> eltwise_stage0_block2
I0928 21:17:25.711230 10764 net.cpp:141] Setting up eltwise_stage0_block2
I0928 21:17:25.711235 10764 net.cpp:148] Top shape: 8 256 56 56 (6422528)
I0928 21:17:25.711236 10764 net.cpp:156] Memory required for data: 820477984
I0928 21:17:25.711238 10764 layer_factory.hpp:77] Creating layer relu_stage0_block2
I0928 21:17:25.711242 10764 net.cpp:91] Creating Layer relu_stage0_block2
I0928 21:17:25.711246 10764 net.cpp:425] relu_stage0_block2 <- eltwise_stage0_block2
I0928 21:17:25.711248 10764 net.cpp:386] relu_stage0_block2 -> eltwise_stage0_block2 (in-place)
I0928 21:17:25.711516 10764 net.cpp:141] Setting up relu_stage0_block2
I0928 21:17:25.711524 10764 net.cpp:148] Top shape: 8 256 56 56 (6422528)
I0928 21:17:25.711527 10764 net.cpp:156] Memory required for data: 846168096
I0928 21:17:25.711529 10764 layer_factory.hpp:77] Creating layer eltwise_stage0_block2_relu_stage0_block2_0_split
I0928 21:17:25.711534 10764 net.cpp:91] Creating Layer eltwise_stage0_block2_relu_stage0_block2_0_split
I0928 21:17:25.711536 10764 net.cpp:425] eltwise_stage0_block2_relu_stage0_block2_0_split <- eltwise_stage0_block2
I0928 21:17:25.711540 10764 net.cpp:399] eltwise_stage0_block2_relu_stage0_block2_0_split -> eltwise_stage0_block2_relu_stage0_block2_0_split_0
I0928 21:17:25.711545 10764 net.cpp:399] eltwise_stage0_block2_relu_stage0_block2_0_split -> eltwise_stage0_block2_relu_stage0_block2_0_split_1
I0928 21:17:25.711570 10764 net.cpp:141] Setting up eltwise_stage0_block2_relu_stage0_block2_0_split
I0928 21:17:25.711575 10764 net.cpp:148] Top shape: 8 256 56 56 (6422528)
I0928 21:17:25.711578 10764 net.cpp:148] Top shape: 8 256 56 56 (6422528)
I0928 21:17:25.711580 10764 net.cpp:156] Memory required for data: 897548320
I0928 21:17:25.711582 10764 layer_factory.hpp:77] Creating layer conv_stage1_block0_proj_shortcut
I0928 21:17:25.711588 10764 net.cpp:91] Creating Layer conv_stage1_block0_proj_shortcut
I0928 21:17:25.711591 10764 net.cpp:425] conv_stage1_block0_proj_shortcut <- eltwise_stage0_block2_relu_stage0_block2_0_split_0
I0928 21:17:25.711596 10764 net.cpp:399] conv_stage1_block0_proj_shortcut -> conv_stage1_block0_proj_shortcut
I0928 21:17:25.713295 10764 net.cpp:141] Setting up conv_stage1_block0_proj_shortcut
I0928 21:17:25.713304 10764 net.cpp:148] Top shape: 8 512 28 28 (3211264)
I0928 21:17:25.713307 10764 net.cpp:156] Memory required for data: 910393376
I0928 21:17:25.713311 10764 layer_factory.hpp:77] Creating layer bn_stage1_block0_proj_shortcut
I0928 21:17:25.713317 10764 net.cpp:91] Creating Layer bn_stage1_block0_proj_shortcut
I0928 21:17:25.713321 10764 net.cpp:425] bn_stage1_block0_proj_shortcut <- conv_stage1_block0_proj_shortcut
I0928 21:17:25.713325 10764 net.cpp:386] bn_stage1_block0_proj_shortcut -> conv_stage1_block0_proj_shortcut (in-place)
I0928 21:17:25.713440 10764 net.cpp:141] Setting up bn_stage1_block0_proj_shortcut
I0928 21:17:25.713445 10764 net.cpp:148] Top shape: 8 512 28 28 (3211264)
I0928 21:17:25.713449 10764 net.cpp:156] Memory required for data: 923238432
I0928 21:17:25.713454 10764 layer_factory.hpp:77] Creating layer scale_stage1_block0_proj_shortcut
I0928 21:17:25.713459 10764 net.cpp:91] Creating Layer scale_stage1_block0_proj_shortcut
I0928 21:17:25.713462 10764 net.cpp:425] scale_stage1_block0_proj_shortcut <- conv_stage1_block0_proj_shortcut
I0928 21:17:25.713465 10764 net.cpp:386] scale_stage1_block0_proj_shortcut -> conv_stage1_block0_proj_shortcut (in-place)
I0928 21:17:25.713490 10764 layer_factory.hpp:77] Creating layer scale_stage1_block0_proj_shortcut
I0928 21:17:25.713552 10764 net.cpp:141] Setting up scale_stage1_block0_proj_shortcut
I0928 21:17:25.713557 10764 net.cpp:148] Top shape: 8 512 28 28 (3211264)
I0928 21:17:25.713560 10764 net.cpp:156] Memory required for data: 936083488
I0928 21:17:25.713564 10764 layer_factory.hpp:77] Creating layer conv_stage1_block0_branch2a
I0928 21:17:25.713572 10764 net.cpp:91] Creating Layer conv_stage1_block0_branch2a
I0928 21:17:25.713574 10764 net.cpp:425] conv_stage1_block0_branch2a <- eltwise_stage0_block2_relu_stage0_block2_0_split_1
I0928 21:17:25.713579 10764 net.cpp:399] conv_stage1_block0_branch2a -> conv_stage1_block0_branch2a
I0928 21:17:25.714388 10764 net.cpp:141] Setting up conv_stage1_block0_branch2a
I0928 21:17:25.714398 10764 net.cpp:148] Top shape: 8 128 28 28 (802816)
I0928 21:17:25.714401 10764 net.cpp:156] Memory required for data: 939294752
I0928 21:17:25.714406 10764 layer_factory.hpp:77] Creating layer bn_stage1_block0_branch2a
I0928 21:17:25.714411 10764 net.cpp:91] Creating Layer bn_stage1_block0_branch2a
I0928 21:17:25.714414 10764 net.cpp:425] bn_stage1_block0_branch2a <- conv_stage1_block0_branch2a
I0928 21:17:25.714418 10764 net.cpp:386] bn_stage1_block0_branch2a -> conv_stage1_block0_branch2a (in-place)
I0928 21:17:25.714525 10764 net.cpp:141] Setting up bn_stage1_block0_branch2a
I0928 21:17:25.714530 10764 net.cpp:148] Top shape: 8 128 28 28 (802816)
I0928 21:17:25.714534 10764 net.cpp:156] Memory required for data: 942506016
I0928 21:17:25.714537 10764 layer_factory.hpp:77] Creating layer scale_stage1_block0_branch2a
I0928 21:17:25.714541 10764 net.cpp:91] Creating Layer scale_stage1_block0_branch2a
I0928 21:17:25.714545 10764 net.cpp:425] scale_stage1_block0_branch2a <- conv_stage1_block0_branch2a
I0928 21:17:25.714548 10764 net.cpp:386] scale_stage1_block0_branch2a -> conv_stage1_block0_branch2a (in-place)
I0928 21:17:25.714571 10764 layer_factory.hpp:77] Creating layer scale_stage1_block0_branch2a
I0928 21:17:25.714637 10764 net.cpp:141] Setting up scale_stage1_block0_branch2a
I0928 21:17:25.714642 10764 net.cpp:148] Top shape: 8 128 28 28 (802816)
I0928 21:17:25.714643 10764 net.cpp:156] Memory required for data: 945717280
I0928 21:17:25.714648 10764 layer_factory.hpp:77] Creating layer relu_stage1_block0_branch2a
I0928 21:17:25.714651 10764 net.cpp:91] Creating Layer relu_stage1_block0_branch2a
I0928 21:17:25.714653 10764 net.cpp:425] relu_stage1_block0_branch2a <- conv_stage1_block0_branch2a
I0928 21:17:25.714658 10764 net.cpp:386] relu_stage1_block0_branch2a -> conv_stage1_block0_branch2a (in-place)
I0928 21:17:25.714916 10764 net.cpp:141] Setting up relu_stage1_block0_branch2a
I0928 21:17:25.714925 10764 net.cpp:148] Top shape: 8 128 28 28 (802816)
I0928 21:17:25.714927 10764 net.cpp:156] Memory required for data: 948928544
I0928 21:17:25.714929 10764 layer_factory.hpp:77] Creating layer conv_stage1_block0_branch2b
I0928 21:17:25.714936 10764 net.cpp:91] Creating Layer conv_stage1_block0_branch2b
I0928 21:17:25.714939 10764 net.cpp:425] conv_stage1_block0_branch2b <- conv_stage1_block0_branch2a
I0928 21:17:25.714944 10764 net.cpp:399] conv_stage1_block0_branch2b -> conv_stage1_block0_branch2b
I0928 21:17:25.716635 10764 net.cpp:141] Setting up conv_stage1_block0_branch2b
I0928 21:17:25.716645 10764 net.cpp:148] Top shape: 8 128 28 28 (802816)
I0928 21:17:25.716653 10764 net.cpp:156] Memory required for data: 952139808
I0928 21:17:25.716658 10764 layer_factory.hpp:77] Creating layer bn_stage1_block0_branch2b
I0928 21:17:25.716663 10764 net.cpp:91] Creating Layer bn_stage1_block0_branch2b
I0928 21:17:25.716666 10764 net.cpp:425] bn_stage1_block0_branch2b <- conv_stage1_block0_branch2b
I0928 21:17:25.716670 10764 net.cpp:386] bn_stage1_block0_branch2b -> conv_stage1_block0_branch2b (in-place)
I0928 21:17:25.716785 10764 net.cpp:141] Setting up bn_stage1_block0_branch2b
I0928 21:17:25.716790 10764 net.cpp:148] Top shape: 8 128 28 28 (802816)
I0928 21:17:25.716794 10764 net.cpp:156] Memory required for data: 955351072
I0928 21:17:25.716797 10764 layer_factory.hpp:77] Creating layer scale_stage1_block0_branch2b
I0928 21:17:25.716802 10764 net.cpp:91] Creating Layer scale_stage1_block0_branch2b
I0928 21:17:25.716805 10764 net.cpp:425] scale_stage1_block0_branch2b <- conv_stage1_block0_branch2b
I0928 21:17:25.716809 10764 net.cpp:386] scale_stage1_block0_branch2b -> conv_stage1_block0_branch2b (in-place)
I0928 21:17:25.716835 10764 layer_factory.hpp:77] Creating layer scale_stage1_block0_branch2b
I0928 21:17:25.716899 10764 net.cpp:141] Setting up scale_stage1_block0_branch2b
I0928 21:17:25.716903 10764 net.cpp:148] Top shape: 8 128 28 28 (802816)
I0928 21:17:25.716907 10764 net.cpp:156] Memory required for data: 958562336
I0928 21:17:25.716910 10764 layer_factory.hpp:77] Creating layer relu_stage1_block0_branch2b
I0928 21:17:25.716917 10764 net.cpp:91] Creating Layer relu_stage1_block0_branch2b
I0928 21:17:25.716919 10764 net.cpp:425] relu_stage1_block0_branch2b <- conv_stage1_block0_branch2b
I0928 21:17:25.716922 10764 net.cpp:386] relu_stage1_block0_branch2b -> conv_stage1_block0_branch2b (in-place)
I0928 21:17:25.717030 10764 net.cpp:141] Setting up relu_stage1_block0_branch2b
I0928 21:17:25.717036 10764 net.cpp:148] Top shape: 8 128 28 28 (802816)
I0928 21:17:25.717038 10764 net.cpp:156] Memory required for data: 961773600
I0928 21:17:25.717041 10764 layer_factory.hpp:77] Creating layer conv_stage1_block0_branch2c
I0928 21:17:25.717046 10764 net.cpp:91] Creating Layer conv_stage1_block0_branch2c
I0928 21:17:25.717049 10764 net.cpp:425] conv_stage1_block0_branch2c <- conv_stage1_block0_branch2b
I0928 21:17:25.717054 10764 net.cpp:399] conv_stage1_block0_branch2c -> conv_stage1_block0_branch2c
I0928 21:17:25.718086 10764 net.cpp:141] Setting up conv_stage1_block0_branch2c
I0928 21:17:25.718094 10764 net.cpp:148] Top shape: 8 512 28 28 (3211264)
I0928 21:17:25.718097 10764 net.cpp:156] Memory required for data: 974618656
I0928 21:17:25.718101 10764 layer_factory.hpp:77] Creating layer bn_stage1_block0_branch2c
I0928 21:17:25.718112 10764 net.cpp:91] Creating Layer bn_stage1_block0_branch2c
I0928 21:17:25.718116 10764 net.cpp:425] bn_stage1_block0_branch2c <- conv_stage1_block0_branch2c
I0928 21:17:25.718121 10764 net.cpp:386] bn_stage1_block0_branch2c -> conv_stage1_block0_branch2c (in-place)
I0928 21:17:25.718231 10764 net.cpp:141] Setting up bn_stage1_block0_branch2c
I0928 21:17:25.718236 10764 net.cpp:148] Top shape: 8 512 28 28 (3211264)
I0928 21:17:25.718240 10764 net.cpp:156] Memory required for data: 987463712
I0928 21:17:25.718245 10764 layer_factory.hpp:77] Creating layer scale_stage1_block0_branch2c
I0928 21:17:25.718248 10764 net.cpp:91] Creating Layer scale_stage1_block0_branch2c
I0928 21:17:25.718251 10764 net.cpp:425] scale_stage1_block0_branch2c <- conv_stage1_block0_branch2c
I0928 21:17:25.718255 10764 net.cpp:386] scale_stage1_block0_branch2c -> conv_stage1_block0_branch2c (in-place)
I0928 21:17:25.718281 10764 layer_factory.hpp:77] Creating layer scale_stage1_block0_branch2c
I0928 21:17:25.718344 10764 net.cpp:141] Setting up scale_stage1_block0_branch2c
I0928 21:17:25.718349 10764 net.cpp:148] Top shape: 8 512 28 28 (3211264)
I0928 21:17:25.718353 10764 net.cpp:156] Memory required for data: 1000308768
I0928 21:17:25.718356 10764 layer_factory.hpp:77] Creating layer eltwise_stage1_block0
I0928 21:17:25.718361 10764 net.cpp:91] Creating Layer eltwise_stage1_block0
I0928 21:17:25.718369 10764 net.cpp:425] eltwise_stage1_block0 <- conv_stage1_block0_proj_shortcut
I0928 21:17:25.718374 10764 net.cpp:425] eltwise_stage1_block0 <- conv_stage1_block0_branch2c
I0928 21:17:25.718376 10764 net.cpp:399] eltwise_stage1_block0 -> eltwise_stage1_block0
I0928 21:17:25.718391 10764 net.cpp:141] Setting up eltwise_stage1_block0
I0928 21:17:25.718395 10764 net.cpp:148] Top shape: 8 512 28 28 (3211264)
I0928 21:17:25.718399 10764 net.cpp:156] Memory required for data: 1013153824
I0928 21:17:25.718400 10764 layer_factory.hpp:77] Creating layer relu_stage1_block0
I0928 21:17:25.718403 10764 net.cpp:91] Creating Layer relu_stage1_block0
I0928 21:17:25.718407 10764 net.cpp:425] relu_stage1_block0 <- eltwise_stage1_block0
I0928 21:17:25.718411 10764 net.cpp:386] relu_stage1_block0 -> eltwise_stage1_block0 (in-place)
I0928 21:17:25.718520 10764 net.cpp:141] Setting up relu_stage1_block0
I0928 21:17:25.718526 10764 net.cpp:148] Top shape: 8 512 28 28 (3211264)
I0928 21:17:25.718529 10764 net.cpp:156] Memory required for data: 1025998880
I0928 21:17:25.718531 10764 layer_factory.hpp:77] Creating layer eltwise_stage1_block0_relu_stage1_block0_0_split
I0928 21:17:25.718535 10764 net.cpp:91] Creating Layer eltwise_stage1_block0_relu_stage1_block0_0_split
I0928 21:17:25.718539 10764 net.cpp:425] eltwise_stage1_block0_relu_stage1_block0_0_split <- eltwise_stage1_block0
I0928 21:17:25.718542 10764 net.cpp:399] eltwise_stage1_block0_relu_stage1_block0_0_split -> eltwise_stage1_block0_relu_stage1_block0_0_split_0
I0928 21:17:25.718546 10764 net.cpp:399] eltwise_stage1_block0_relu_stage1_block0_0_split -> eltwise_stage1_block0_relu_stage1_block0_0_split_1
I0928 21:17:25.718570 10764 net.cpp:141] Setting up eltwise_stage1_block0_relu_stage1_block0_0_split
I0928 21:17:25.718575 10764 net.cpp:148] Top shape: 8 512 28 28 (3211264)
I0928 21:17:25.718577 10764 net.cpp:148] Top shape: 8 512 28 28 (3211264)
I0928 21:17:25.718580 10764 net.cpp:156] Memory required for data: 1051688992
I0928 21:17:25.718581 10764 layer_factory.hpp:77] Creating layer conv_stage1_block1_branch2a
I0928 21:17:25.718587 10764 net.cpp:91] Creating Layer conv_stage1_block1_branch2a
I0928 21:17:25.718590 10764 net.cpp:425] conv_stage1_block1_branch2a <- eltwise_stage1_block0_relu_stage1_block0_0_split_0
I0928 21:17:25.718595 10764 net.cpp:399] conv_stage1_block1_branch2a -> conv_stage1_block1_branch2a
I0928 21:17:25.719794 10764 net.cpp:141] Setting up conv_stage1_block1_branch2a
I0928 21:17:25.719802 10764 net.cpp:148] Top shape: 8 128 28 28 (802816)
I0928 21:17:25.719805 10764 net.cpp:156] Memory required for data: 1054900256
I0928 21:17:25.719810 10764 layer_factory.hpp:77] Creating layer bn_stage1_block1_branch2a
I0928 21:17:25.719815 10764 net.cpp:91] Creating Layer bn_stage1_block1_branch2a
I0928 21:17:25.719818 10764 net.cpp:425] bn_stage1_block1_branch2a <- conv_stage1_block1_branch2a
I0928 21:17:25.719822 10764 net.cpp:386] bn_stage1_block1_branch2a -> conv_stage1_block1_branch2a (in-place)
I0928 21:17:25.719936 10764 net.cpp:141] Setting up bn_stage1_block1_branch2a
I0928 21:17:25.719940 10764 net.cpp:148] Top shape: 8 128 28 28 (802816)
I0928 21:17:25.719944 10764 net.cpp:156] Memory required for data: 1058111520
I0928 21:17:25.719949 10764 layer_factory.hpp:77] Creating layer scale_stage1_block1_branch2a
I0928 21:17:25.719954 10764 net.cpp:91] Creating Layer scale_stage1_block1_branch2a
I0928 21:17:25.719955 10764 net.cpp:425] scale_stage1_block1_branch2a <- conv_stage1_block1_branch2a
I0928 21:17:25.719959 10764 net.cpp:386] scale_stage1_block1_branch2a -> conv_stage1_block1_branch2a (in-place)
I0928 21:17:25.719982 10764 layer_factory.hpp:77] Creating layer scale_stage1_block1_branch2a
I0928 21:17:25.720046 10764 net.cpp:141] Setting up scale_stage1_block1_branch2a
I0928 21:17:25.720052 10764 net.cpp:148] Top shape: 8 128 28 28 (802816)
I0928 21:17:25.720054 10764 net.cpp:156] Memory required for data: 1061322784
I0928 21:17:25.720057 10764 layer_factory.hpp:77] Creating layer relu_stage1_block1_branch2a
I0928 21:17:25.720062 10764 net.cpp:91] Creating Layer relu_stage1_block1_branch2a
I0928 21:17:25.720070 10764 net.cpp:425] relu_stage1_block1_branch2a <- conv_stage1_block1_branch2a
I0928 21:17:25.720075 10764 net.cpp:386] relu_stage1_block1_branch2a -> conv_stage1_block1_branch2a (in-place)
I0928 21:17:25.720343 10764 net.cpp:141] Setting up relu_stage1_block1_branch2a
I0928 21:17:25.720351 10764 net.cpp:148] Top shape: 8 128 28 28 (802816)
I0928 21:17:25.720355 10764 net.cpp:156] Memory required for data: 1064534048
I0928 21:17:25.720357 10764 layer_factory.hpp:77] Creating layer conv_stage1_block1_branch2b
I0928 21:17:25.720365 10764 net.cpp:91] Creating Layer conv_stage1_block1_branch2b
I0928 21:17:25.720367 10764 net.cpp:425] conv_stage1_block1_branch2b <- conv_stage1_block1_branch2a
I0928 21:17:25.720372 10764 net.cpp:399] conv_stage1_block1_branch2b -> conv_stage1_block1_branch2b
I0928 21:17:25.722455 10764 net.cpp:141] Setting up conv_stage1_block1_branch2b
I0928 21:17:25.722463 10764 net.cpp:148] Top shape: 8 128 28 28 (802816)
I0928 21:17:25.722466 10764 net.cpp:156] Memory required for data: 1067745312
I0928 21:17:25.722471 10764 layer_factory.hpp:77] Creating layer bn_stage1_block1_branch2b
I0928 21:17:25.722477 10764 net.cpp:91] Creating Layer bn_stage1_block1_branch2b
I0928 21:17:25.722481 10764 net.cpp:425] bn_stage1_block1_branch2b <- conv_stage1_block1_branch2b
I0928 21:17:25.722484 10764 net.cpp:386] bn_stage1_block1_branch2b -> conv_stage1_block1_branch2b (in-place)
I0928 21:17:25.722602 10764 net.cpp:141] Setting up bn_stage1_block1_branch2b
I0928 21:17:25.722607 10764 net.cpp:148] Top shape: 8 128 28 28 (802816)
I0928 21:17:25.722610 10764 net.cpp:156] Memory required for data: 1070956576
I0928 21:17:25.722615 10764 layer_factory.hpp:77] Creating layer scale_stage1_block1_branch2b
I0928 21:17:25.722620 10764 net.cpp:91] Creating Layer scale_stage1_block1_branch2b
I0928 21:17:25.722622 10764 net.cpp:425] scale_stage1_block1_branch2b <- conv_stage1_block1_branch2b
I0928 21:17:25.722626 10764 net.cpp:386] scale_stage1_block1_branch2b -> conv_stage1_block1_branch2b (in-place)
I0928 21:17:25.722651 10764 layer_factory.hpp:77] Creating layer scale_stage1_block1_branch2b
I0928 21:17:25.722718 10764 net.cpp:141] Setting up scale_stage1_block1_branch2b
I0928 21:17:25.722723 10764 net.cpp:148] Top shape: 8 128 28 28 (802816)
I0928 21:17:25.722724 10764 net.cpp:156] Memory required for data: 1074167840
I0928 21:17:25.722728 10764 layer_factory.hpp:77] Creating layer relu_stage1_block1_branch2b
I0928 21:17:25.722733 10764 net.cpp:91] Creating Layer relu_stage1_block1_branch2b
I0928 21:17:25.722736 10764 net.cpp:425] relu_stage1_block1_branch2b <- conv_stage1_block1_branch2b
I0928 21:17:25.722739 10764 net.cpp:386] relu_stage1_block1_branch2b -> conv_stage1_block1_branch2b (in-place)
I0928 21:17:25.722842 10764 net.cpp:141] Setting up relu_stage1_block1_branch2b
I0928 21:17:25.722848 10764 net.cpp:148] Top shape: 8 128 28 28 (802816)
I0928 21:17:25.722851 10764 net.cpp:156] Memory required for data: 1077379104
I0928 21:17:25.722852 10764 layer_factory.hpp:77] Creating layer conv_stage1_block1_branch2c
I0928 21:17:25.722858 10764 net.cpp:91] Creating Layer conv_stage1_block1_branch2c
I0928 21:17:25.722862 10764 net.cpp:425] conv_stage1_block1_branch2c <- conv_stage1_block1_branch2b
I0928 21:17:25.722867 10764 net.cpp:399] conv_stage1_block1_branch2c -> conv_stage1_block1_branch2c
I0928 21:17:25.723901 10764 net.cpp:141] Setting up conv_stage1_block1_branch2c
I0928 21:17:25.723911 10764 net.cpp:148] Top shape: 8 512 28 28 (3211264)
I0928 21:17:25.723913 10764 net.cpp:156] Memory required for data: 1090224160
I0928 21:17:25.723917 10764 layer_factory.hpp:77] Creating layer bn_stage1_block1_branch2c
I0928 21:17:25.723922 10764 net.cpp:91] Creating Layer bn_stage1_block1_branch2c
I0928 21:17:25.723927 10764 net.cpp:425] bn_stage1_block1_branch2c <- conv_stage1_block1_branch2c
I0928 21:17:25.723929 10764 net.cpp:386] bn_stage1_block1_branch2c -> conv_stage1_block1_branch2c (in-place)
I0928 21:17:25.724043 10764 net.cpp:141] Setting up bn_stage1_block1_branch2c
I0928 21:17:25.724056 10764 net.cpp:148] Top shape: 8 512 28 28 (3211264)
I0928 21:17:25.724058 10764 net.cpp:156] Memory required for data: 1103069216
I0928 21:17:25.724063 10764 layer_factory.hpp:77] Creating layer scale_stage1_block1_branch2c
I0928 21:17:25.724068 10764 net.cpp:91] Creating Layer scale_stage1_block1_branch2c
I0928 21:17:25.724072 10764 net.cpp:425] scale_stage1_block1_branch2c <- conv_stage1_block1_branch2c
I0928 21:17:25.724076 10764 net.cpp:386] scale_stage1_block1_branch2c -> conv_stage1_block1_branch2c (in-place)
I0928 21:17:25.724100 10764 layer_factory.hpp:77] Creating layer scale_stage1_block1_branch2c
I0928 21:17:25.724167 10764 net.cpp:141] Setting up scale_stage1_block1_branch2c
I0928 21:17:25.724172 10764 net.cpp:148] Top shape: 8 512 28 28 (3211264)
I0928 21:17:25.724174 10764 net.cpp:156] Memory required for data: 1115914272
I0928 21:17:25.724179 10764 layer_factory.hpp:77] Creating layer eltwise_stage1_block1
I0928 21:17:25.724184 10764 net.cpp:91] Creating Layer eltwise_stage1_block1
I0928 21:17:25.724186 10764 net.cpp:425] eltwise_stage1_block1 <- eltwise_stage1_block0_relu_stage1_block0_0_split_1
I0928 21:17:25.724189 10764 net.cpp:425] eltwise_stage1_block1 <- conv_stage1_block1_branch2c
I0928 21:17:25.724192 10764 net.cpp:399] eltwise_stage1_block1 -> eltwise_stage1_block1
I0928 21:17:25.724207 10764 net.cpp:141] Setting up eltwise_stage1_block1
I0928 21:17:25.724211 10764 net.cpp:148] Top shape: 8 512 28 28 (3211264)
I0928 21:17:25.724213 10764 net.cpp:156] Memory required for data: 1128759328
I0928 21:17:25.724215 10764 layer_factory.hpp:77] Creating layer relu_stage1_block1
I0928 21:17:25.724218 10764 net.cpp:91] Creating Layer relu_stage1_block1
I0928 21:17:25.724221 10764 net.cpp:425] relu_stage1_block1 <- eltwise_stage1_block1
I0928 21:17:25.724225 10764 net.cpp:386] relu_stage1_block1 -> eltwise_stage1_block1 (in-place)
I0928 21:17:25.724324 10764 net.cpp:141] Setting up relu_stage1_block1
I0928 21:17:25.724329 10764 net.cpp:148] Top shape: 8 512 28 28 (3211264)
I0928 21:17:25.724331 10764 net.cpp:156] Memory required for data: 1141604384
I0928 21:17:25.724334 10764 layer_factory.hpp:77] Creating layer eltwise_stage1_block1_relu_stage1_block1_0_split
I0928 21:17:25.724339 10764 net.cpp:91] Creating Layer eltwise_stage1_block1_relu_stage1_block1_0_split
I0928 21:17:25.724341 10764 net.cpp:425] eltwise_stage1_block1_relu_stage1_block1_0_split <- eltwise_stage1_block1
I0928 21:17:25.724345 10764 net.cpp:399] eltwise_stage1_block1_relu_stage1_block1_0_split -> eltwise_stage1_block1_relu_stage1_block1_0_split_0
I0928 21:17:25.724349 10764 net.cpp:399] eltwise_stage1_block1_relu_stage1_block1_0_split -> eltwise_stage1_block1_relu_stage1_block1_0_split_1
I0928 21:17:25.724375 10764 net.cpp:141] Setting up eltwise_stage1_block1_relu_stage1_block1_0_split
I0928 21:17:25.724378 10764 net.cpp:148] Top shape: 8 512 28 28 (3211264)
I0928 21:17:25.724381 10764 net.cpp:148] Top shape: 8 512 28 28 (3211264)
I0928 21:17:25.724383 10764 net.cpp:156] Memory required for data: 1167294496
I0928 21:17:25.724385 10764 layer_factory.hpp:77] Creating layer conv_stage1_block2_branch2a
I0928 21:17:25.724391 10764 net.cpp:91] Creating Layer conv_stage1_block2_branch2a
I0928 21:17:25.724395 10764 net.cpp:425] conv_stage1_block2_branch2a <- eltwise_stage1_block1_relu_stage1_block1_0_split_0
I0928 21:17:25.724400 10764 net.cpp:399] conv_stage1_block2_branch2a -> conv_stage1_block2_branch2a
I0928 21:17:25.725483 10764 net.cpp:141] Setting up conv_stage1_block2_branch2a
I0928 21:17:25.725493 10764 net.cpp:148] Top shape: 8 128 28 28 (802816)
I0928 21:17:25.725497 10764 net.cpp:156] Memory required for data: 1170505760
I0928 21:17:25.725500 10764 layer_factory.hpp:77] Creating layer bn_stage1_block2_branch2a
I0928 21:17:25.725505 10764 net.cpp:91] Creating Layer bn_stage1_block2_branch2a
I0928 21:17:25.725508 10764 net.cpp:425] bn_stage1_block2_branch2a <- conv_stage1_block2_branch2a
I0928 21:17:25.725512 10764 net.cpp:386] bn_stage1_block2_branch2a -> conv_stage1_block2_branch2a (in-place)
I0928 21:17:25.725633 10764 net.cpp:141] Setting up bn_stage1_block2_branch2a
I0928 21:17:25.725638 10764 net.cpp:148] Top shape: 8 128 28 28 (802816)
I0928 21:17:25.725641 10764 net.cpp:156] Memory required for data: 1173717024
I0928 21:17:25.725656 10764 layer_factory.hpp:77] Creating layer scale_stage1_block2_branch2a
I0928 21:17:25.725661 10764 net.cpp:91] Creating Layer scale_stage1_block2_branch2a
I0928 21:17:25.725664 10764 net.cpp:425] scale_stage1_block2_branch2a <- conv_stage1_block2_branch2a
I0928 21:17:25.725667 10764 net.cpp:386] scale_stage1_block2_branch2a -> conv_stage1_block2_branch2a (in-place)
I0928 21:17:25.725694 10764 layer_factory.hpp:77] Creating layer scale_stage1_block2_branch2a
I0928 21:17:25.725762 10764 net.cpp:141] Setting up scale_stage1_block2_branch2a
I0928 21:17:25.725767 10764 net.cpp:148] Top shape: 8 128 28 28 (802816)
I0928 21:17:25.725770 10764 net.cpp:156] Memory required for data: 1176928288
I0928 21:17:25.725775 10764 layer_factory.hpp:77] Creating layer relu_stage1_block2_branch2a
I0928 21:17:25.725778 10764 net.cpp:91] Creating Layer relu_stage1_block2_branch2a
I0928 21:17:25.725781 10764 net.cpp:425] relu_stage1_block2_branch2a <- conv_stage1_block2_branch2a
I0928 21:17:25.725785 10764 net.cpp:386] relu_stage1_block2_branch2a -> conv_stage1_block2_branch2a (in-place)
I0928 21:17:25.726048 10764 net.cpp:141] Setting up relu_stage1_block2_branch2a
I0928 21:17:25.726056 10764 net.cpp:148] Top shape: 8 128 28 28 (802816)
I0928 21:17:25.726059 10764 net.cpp:156] Memory required for data: 1180139552
I0928 21:17:25.726063 10764 layer_factory.hpp:77] Creating layer conv_stage1_block2_branch2b
I0928 21:17:25.726069 10764 net.cpp:91] Creating Layer conv_stage1_block2_branch2b
I0928 21:17:25.726073 10764 net.cpp:425] conv_stage1_block2_branch2b <- conv_stage1_block2_branch2a
I0928 21:17:25.726078 10764 net.cpp:399] conv_stage1_block2_branch2b -> conv_stage1_block2_branch2b
I0928 21:17:25.727776 10764 net.cpp:141] Setting up conv_stage1_block2_branch2b
I0928 21:17:25.727784 10764 net.cpp:148] Top shape: 8 128 28 28 (802816)
I0928 21:17:25.727787 10764 net.cpp:156] Memory required for data: 1183350816
I0928 21:17:25.727792 10764 layer_factory.hpp:77] Creating layer bn_stage1_block2_branch2b
I0928 21:17:25.727797 10764 net.cpp:91] Creating Layer bn_stage1_block2_branch2b
I0928 21:17:25.727802 10764 net.cpp:425] bn_stage1_block2_branch2b <- conv_stage1_block2_branch2b
I0928 21:17:25.727805 10764 net.cpp:386] bn_stage1_block2_branch2b -> conv_stage1_block2_branch2b (in-place)
I0928 21:17:25.727919 10764 net.cpp:141] Setting up bn_stage1_block2_branch2b
I0928 21:17:25.727924 10764 net.cpp:148] Top shape: 8 128 28 28 (802816)
I0928 21:17:25.727927 10764 net.cpp:156] Memory required for data: 1186562080
I0928 21:17:25.727931 10764 layer_factory.hpp:77] Creating layer scale_stage1_block2_branch2b
I0928 21:17:25.727937 10764 net.cpp:91] Creating Layer scale_stage1_block2_branch2b
I0928 21:17:25.727939 10764 net.cpp:425] scale_stage1_block2_branch2b <- conv_stage1_block2_branch2b
I0928 21:17:25.727943 10764 net.cpp:386] scale_stage1_block2_branch2b -> conv_stage1_block2_branch2b (in-place)
I0928 21:17:25.727968 10764 layer_factory.hpp:77] Creating layer scale_stage1_block2_branch2b
I0928 21:17:25.728035 10764 net.cpp:141] Setting up scale_stage1_block2_branch2b
I0928 21:17:25.728040 10764 net.cpp:148] Top shape: 8 128 28 28 (802816)
I0928 21:17:25.728042 10764 net.cpp:156] Memory required for data: 1189773344
I0928 21:17:25.728046 10764 layer_factory.hpp:77] Creating layer relu_stage1_block2_branch2b
I0928 21:17:25.728050 10764 net.cpp:91] Creating Layer relu_stage1_block2_branch2b
I0928 21:17:25.728054 10764 net.cpp:425] relu_stage1_block2_branch2b <- conv_stage1_block2_branch2b
I0928 21:17:25.728058 10764 net.cpp:386] relu_stage1_block2_branch2b -> conv_stage1_block2_branch2b (in-place)
I0928 21:17:25.728165 10764 net.cpp:141] Setting up relu_stage1_block2_branch2b
I0928 21:17:25.728170 10764 net.cpp:148] Top shape: 8 128 28 28 (802816)
I0928 21:17:25.728173 10764 net.cpp:156] Memory required for data: 1192984608
I0928 21:17:25.728183 10764 layer_factory.hpp:77] Creating layer conv_stage1_block2_branch2c
I0928 21:17:25.728189 10764 net.cpp:91] Creating Layer conv_stage1_block2_branch2c
I0928 21:17:25.728193 10764 net.cpp:425] conv_stage1_block2_branch2c <- conv_stage1_block2_branch2b
I0928 21:17:25.728198 10764 net.cpp:399] conv_stage1_block2_branch2c -> conv_stage1_block2_branch2c
I0928 21:17:25.729248 10764 net.cpp:141] Setting up conv_stage1_block2_branch2c
I0928 21:17:25.729256 10764 net.cpp:148] Top shape: 8 512 28 28 (3211264)
I0928 21:17:25.729259 10764 net.cpp:156] Memory required for data: 1205829664
I0928 21:17:25.729264 10764 layer_factory.hpp:77] Creating layer bn_stage1_block2_branch2c
I0928 21:17:25.729270 10764 net.cpp:91] Creating Layer bn_stage1_block2_branch2c
I0928 21:17:25.729274 10764 net.cpp:425] bn_stage1_block2_branch2c <- conv_stage1_block2_branch2c
I0928 21:17:25.729279 10764 net.cpp:386] bn_stage1_block2_branch2c -> conv_stage1_block2_branch2c (in-place)
I0928 21:17:25.729393 10764 net.cpp:141] Setting up bn_stage1_block2_branch2c
I0928 21:17:25.729398 10764 net.cpp:148] Top shape: 8 512 28 28 (3211264)
I0928 21:17:25.729400 10764 net.cpp:156] Memory required for data: 1218674720
I0928 21:17:25.729404 10764 layer_factory.hpp:77] Creating layer scale_stage1_block2_branch2c
I0928 21:17:25.729410 10764 net.cpp:91] Creating Layer scale_stage1_block2_branch2c
I0928 21:17:25.729413 10764 net.cpp:425] scale_stage1_block2_branch2c <- conv_stage1_block2_branch2c
I0928 21:17:25.729416 10764 net.cpp:386] scale_stage1_block2_branch2c -> conv_stage1_block2_branch2c (in-place)
I0928 21:17:25.729441 10764 layer_factory.hpp:77] Creating layer scale_stage1_block2_branch2c
I0928 21:17:25.729507 10764 net.cpp:141] Setting up scale_stage1_block2_branch2c
I0928 21:17:25.729512 10764 net.cpp:148] Top shape: 8 512 28 28 (3211264)
I0928 21:17:25.729516 10764 net.cpp:156] Memory required for data: 1231519776
I0928 21:17:25.729519 10764 layer_factory.hpp:77] Creating layer eltwise_stage1_block2
I0928 21:17:25.729523 10764 net.cpp:91] Creating Layer eltwise_stage1_block2
I0928 21:17:25.729526 10764 net.cpp:425] eltwise_stage1_block2 <- eltwise_stage1_block1_relu_stage1_block1_0_split_1
I0928 21:17:25.729529 10764 net.cpp:425] eltwise_stage1_block2 <- conv_stage1_block2_branch2c
I0928 21:17:25.729533 10764 net.cpp:399] eltwise_stage1_block2 -> eltwise_stage1_block2
I0928 21:17:25.729549 10764 net.cpp:141] Setting up eltwise_stage1_block2
I0928 21:17:25.729553 10764 net.cpp:148] Top shape: 8 512 28 28 (3211264)
I0928 21:17:25.729557 10764 net.cpp:156] Memory required for data: 1244364832
I0928 21:17:25.729558 10764 layer_factory.hpp:77] Creating layer relu_stage1_block2
I0928 21:17:25.729562 10764 net.cpp:91] Creating Layer relu_stage1_block2
I0928 21:17:25.729564 10764 net.cpp:425] relu_stage1_block2 <- eltwise_stage1_block2
I0928 21:17:25.729568 10764 net.cpp:386] relu_stage1_block2 -> eltwise_stage1_block2 (in-place)
I0928 21:17:25.729671 10764 net.cpp:141] Setting up relu_stage1_block2
I0928 21:17:25.729676 10764 net.cpp:148] Top shape: 8 512 28 28 (3211264)
I0928 21:17:25.729679 10764 net.cpp:156] Memory required for data: 1257209888
I0928 21:17:25.729681 10764 layer_factory.hpp:77] Creating layer eltwise_stage1_block2_relu_stage1_block2_0_split
I0928 21:17:25.729686 10764 net.cpp:91] Creating Layer eltwise_stage1_block2_relu_stage1_block2_0_split
I0928 21:17:25.729688 10764 net.cpp:425] eltwise_stage1_block2_relu_stage1_block2_0_split <- eltwise_stage1_block2
I0928 21:17:25.729692 10764 net.cpp:399] eltwise_stage1_block2_relu_stage1_block2_0_split -> eltwise_stage1_block2_relu_stage1_block2_0_split_0
I0928 21:17:25.729697 10764 net.cpp:399] eltwise_stage1_block2_relu_stage1_block2_0_split -> eltwise_stage1_block2_relu_stage1_block2_0_split_1
I0928 21:17:25.729722 10764 net.cpp:141] Setting up eltwise_stage1_block2_relu_stage1_block2_0_split
I0928 21:17:25.729727 10764 net.cpp:148] Top shape: 8 512 28 28 (3211264)
I0928 21:17:25.729729 10764 net.cpp:148] Top shape: 8 512 28 28 (3211264)
I0928 21:17:25.729732 10764 net.cpp:156] Memory required for data: 1282900000
I0928 21:17:25.729739 10764 layer_factory.hpp:77] Creating layer conv_stage1_block3_branch2a
I0928 21:17:25.729745 10764 net.cpp:91] Creating Layer conv_stage1_block3_branch2a
I0928 21:17:25.729748 10764 net.cpp:425] conv_stage1_block3_branch2a <- eltwise_stage1_block2_relu_stage1_block2_0_split_0
I0928 21:17:25.729753 10764 net.cpp:399] conv_stage1_block3_branch2a -> conv_stage1_block3_branch2a
I0928 21:17:25.731223 10764 net.cpp:141] Setting up conv_stage1_block3_branch2a
I0928 21:17:25.731232 10764 net.cpp:148] Top shape: 8 128 28 28 (802816)
I0928 21:17:25.731235 10764 net.cpp:156] Memory required for data: 1286111264
I0928 21:17:25.731240 10764 layer_factory.hpp:77] Creating layer bn_stage1_block3_branch2a
I0928 21:17:25.731245 10764 net.cpp:91] Creating Layer bn_stage1_block3_branch2a
I0928 21:17:25.731250 10764 net.cpp:425] bn_stage1_block3_branch2a <- conv_stage1_block3_branch2a
I0928 21:17:25.731253 10764 net.cpp:386] bn_stage1_block3_branch2a -> conv_stage1_block3_branch2a (in-place)
I0928 21:17:25.731367 10764 net.cpp:141] Setting up bn_stage1_block3_branch2a
I0928 21:17:25.731372 10764 net.cpp:148] Top shape: 8 128 28 28 (802816)
I0928 21:17:25.731374 10764 net.cpp:156] Memory required for data: 1289322528
I0928 21:17:25.731379 10764 layer_factory.hpp:77] Creating layer scale_stage1_block3_branch2a
I0928 21:17:25.731384 10764 net.cpp:91] Creating Layer scale_stage1_block3_branch2a
I0928 21:17:25.731386 10764 net.cpp:425] scale_stage1_block3_branch2a <- conv_stage1_block3_branch2a
I0928 21:17:25.731390 10764 net.cpp:386] scale_stage1_block3_branch2a -> conv_stage1_block3_branch2a (in-place)
I0928 21:17:25.731415 10764 layer_factory.hpp:77] Creating layer scale_stage1_block3_branch2a
I0928 21:17:25.731480 10764 net.cpp:141] Setting up scale_stage1_block3_branch2a
I0928 21:17:25.731485 10764 net.cpp:148] Top shape: 8 128 28 28 (802816)
I0928 21:17:25.731488 10764 net.cpp:156] Memory required for data: 1292533792
I0928 21:17:25.731492 10764 layer_factory.hpp:77] Creating layer relu_stage1_block3_branch2a
I0928 21:17:25.731498 10764 net.cpp:91] Creating Layer relu_stage1_block3_branch2a
I0928 21:17:25.731500 10764 net.cpp:425] relu_stage1_block3_branch2a <- conv_stage1_block3_branch2a
I0928 21:17:25.731503 10764 net.cpp:386] relu_stage1_block3_branch2a -> conv_stage1_block3_branch2a (in-place)
I0928 21:17:25.731607 10764 net.cpp:141] Setting up relu_stage1_block3_branch2a
I0928 21:17:25.731613 10764 net.cpp:148] Top shape: 8 128 28 28 (802816)
I0928 21:17:25.731616 10764 net.cpp:156] Memory required for data: 1295745056
I0928 21:17:25.731618 10764 layer_factory.hpp:77] Creating layer conv_stage1_block3_branch2b
I0928 21:17:25.731626 10764 net.cpp:91] Creating Layer conv_stage1_block3_branch2b
I0928 21:17:25.731628 10764 net.cpp:425] conv_stage1_block3_branch2b <- conv_stage1_block3_branch2a
I0928 21:17:25.731632 10764 net.cpp:399] conv_stage1_block3_branch2b -> conv_stage1_block3_branch2b
I0928 21:17:25.733351 10764 net.cpp:141] Setting up conv_stage1_block3_branch2b
I0928 21:17:25.733361 10764 net.cpp:148] Top shape: 8 128 28 28 (802816)
I0928 21:17:25.733363 10764 net.cpp:156] Memory required for data: 1298956320
I0928 21:17:25.733367 10764 layer_factory.hpp:77] Creating layer bn_stage1_block3_branch2b
I0928 21:17:25.733373 10764 net.cpp:91] Creating Layer bn_stage1_block3_branch2b
I0928 21:17:25.733377 10764 net.cpp:425] bn_stage1_block3_branch2b <- conv_stage1_block3_branch2b
I0928 21:17:25.733381 10764 net.cpp:386] bn_stage1_block3_branch2b -> conv_stage1_block3_branch2b (in-place)
I0928 21:17:25.733500 10764 net.cpp:141] Setting up bn_stage1_block3_branch2b
I0928 21:17:25.733505 10764 net.cpp:148] Top shape: 8 128 28 28 (802816)
I0928 21:17:25.733507 10764 net.cpp:156] Memory required for data: 1302167584
I0928 21:17:25.733512 10764 layer_factory.hpp:77] Creating layer scale_stage1_block3_branch2b
I0928 21:17:25.733517 10764 net.cpp:91] Creating Layer scale_stage1_block3_branch2b
I0928 21:17:25.733520 10764 net.cpp:425] scale_stage1_block3_branch2b <- conv_stage1_block3_branch2b
I0928 21:17:25.733532 10764 net.cpp:386] scale_stage1_block3_branch2b -> conv_stage1_block3_branch2b (in-place)
I0928 21:17:25.733558 10764 layer_factory.hpp:77] Creating layer scale_stage1_block3_branch2b
I0928 21:17:25.733626 10764 net.cpp:141] Setting up scale_stage1_block3_branch2b
I0928 21:17:25.733631 10764 net.cpp:148] Top shape: 8 128 28 28 (802816)
I0928 21:17:25.733633 10764 net.cpp:156] Memory required for data: 1305378848
I0928 21:17:25.733639 10764 layer_factory.hpp:77] Creating layer relu_stage1_block3_branch2b
I0928 21:17:25.733642 10764 net.cpp:91] Creating Layer relu_stage1_block3_branch2b
I0928 21:17:25.733644 10764 net.cpp:425] relu_stage1_block3_branch2b <- conv_stage1_block3_branch2b
I0928 21:17:25.733647 10764 net.cpp:386] relu_stage1_block3_branch2b -> conv_stage1_block3_branch2b (in-place)
I0928 21:17:25.733753 10764 net.cpp:141] Setting up relu_stage1_block3_branch2b
I0928 21:17:25.733759 10764 net.cpp:148] Top shape: 8 128 28 28 (802816)
I0928 21:17:25.733762 10764 net.cpp:156] Memory required for data: 1308590112
I0928 21:17:25.733764 10764 layer_factory.hpp:77] Creating layer conv_stage1_block3_branch2c
I0928 21:17:25.733770 10764 net.cpp:91] Creating Layer conv_stage1_block3_branch2c
I0928 21:17:25.733773 10764 net.cpp:425] conv_stage1_block3_branch2c <- conv_stage1_block3_branch2b
I0928 21:17:25.733778 10764 net.cpp:399] conv_stage1_block3_branch2c -> conv_stage1_block3_branch2c
I0928 21:17:25.734824 10764 net.cpp:141] Setting up conv_stage1_block3_branch2c
I0928 21:17:25.734833 10764 net.cpp:148] Top shape: 8 512 28 28 (3211264)
I0928 21:17:25.734836 10764 net.cpp:156] Memory required for data: 1321435168
I0928 21:17:25.734840 10764 layer_factory.hpp:77] Creating layer bn_stage1_block3_branch2c
I0928 21:17:25.734846 10764 net.cpp:91] Creating Layer bn_stage1_block3_branch2c
I0928 21:17:25.734849 10764 net.cpp:425] bn_stage1_block3_branch2c <- conv_stage1_block3_branch2c
I0928 21:17:25.734853 10764 net.cpp:386] bn_stage1_block3_branch2c -> conv_stage1_block3_branch2c (in-place)
I0928 21:17:25.734972 10764 net.cpp:141] Setting up bn_stage1_block3_branch2c
I0928 21:17:25.734977 10764 net.cpp:148] Top shape: 8 512 28 28 (3211264)
I0928 21:17:25.734978 10764 net.cpp:156] Memory required for data: 1334280224
I0928 21:17:25.734984 10764 layer_factory.hpp:77] Creating layer scale_stage1_block3_branch2c
I0928 21:17:25.734988 10764 net.cpp:91] Creating Layer scale_stage1_block3_branch2c
I0928 21:17:25.734992 10764 net.cpp:425] scale_stage1_block3_branch2c <- conv_stage1_block3_branch2c
I0928 21:17:25.734995 10764 net.cpp:386] scale_stage1_block3_branch2c -> conv_stage1_block3_branch2c (in-place)
I0928 21:17:25.735028 10764 layer_factory.hpp:77] Creating layer scale_stage1_block3_branch2c
I0928 21:17:25.735095 10764 net.cpp:141] Setting up scale_stage1_block3_branch2c
I0928 21:17:25.735100 10764 net.cpp:148] Top shape: 8 512 28 28 (3211264)
I0928 21:17:25.735102 10764 net.cpp:156] Memory required for data: 1347125280
I0928 21:17:25.735106 10764 layer_factory.hpp:77] Creating layer eltwise_stage1_block3
I0928 21:17:25.735112 10764 net.cpp:91] Creating Layer eltwise_stage1_block3
I0928 21:17:25.735116 10764 net.cpp:425] eltwise_stage1_block3 <- eltwise_stage1_block2_relu_stage1_block2_0_split_1
I0928 21:17:25.735118 10764 net.cpp:425] eltwise_stage1_block3 <- conv_stage1_block3_branch2c
I0928 21:17:25.735122 10764 net.cpp:399] eltwise_stage1_block3 -> eltwise_stage1_block3
I0928 21:17:25.735138 10764 net.cpp:141] Setting up eltwise_stage1_block3
I0928 21:17:25.735142 10764 net.cpp:148] Top shape: 8 512 28 28 (3211264)
I0928 21:17:25.735146 10764 net.cpp:156] Memory required for data: 1359970336
I0928 21:17:25.735147 10764 layer_factory.hpp:77] Creating layer relu_stage1_block3
I0928 21:17:25.735150 10764 net.cpp:91] Creating Layer relu_stage1_block3
I0928 21:17:25.735153 10764 net.cpp:425] relu_stage1_block3 <- eltwise_stage1_block3
I0928 21:17:25.735157 10764 net.cpp:386] relu_stage1_block3 -> eltwise_stage1_block3 (in-place)
I0928 21:17:25.735260 10764 net.cpp:141] Setting up relu_stage1_block3
I0928 21:17:25.735271 10764 net.cpp:148] Top shape: 8 512 28 28 (3211264)
I0928 21:17:25.735275 10764 net.cpp:156] Memory required for data: 1372815392
I0928 21:17:25.735276 10764 layer_factory.hpp:77] Creating layer eltwise_stage1_block3_relu_stage1_block3_0_split
I0928 21:17:25.735280 10764 net.cpp:91] Creating Layer eltwise_stage1_block3_relu_stage1_block3_0_split
I0928 21:17:25.735282 10764 net.cpp:425] eltwise_stage1_block3_relu_stage1_block3_0_split <- eltwise_stage1_block3
I0928 21:17:25.735285 10764 net.cpp:399] eltwise_stage1_block3_relu_stage1_block3_0_split -> eltwise_stage1_block3_relu_stage1_block3_0_split_0
I0928 21:17:25.735290 10764 net.cpp:399] eltwise_stage1_block3_relu_stage1_block3_0_split -> eltwise_stage1_block3_relu_stage1_block3_0_split_1
I0928 21:17:25.735316 10764 net.cpp:141] Setting up eltwise_stage1_block3_relu_stage1_block3_0_split
I0928 21:17:25.735319 10764 net.cpp:148] Top shape: 8 512 28 28 (3211264)
I0928 21:17:25.735322 10764 net.cpp:148] Top shape: 8 512 28 28 (3211264)
I0928 21:17:25.735324 10764 net.cpp:156] Memory required for data: 1398505504
I0928 21:17:25.735327 10764 layer_factory.hpp:77] Creating layer conv_stage2_block0_proj_shortcut
I0928 21:17:25.735332 10764 net.cpp:91] Creating Layer conv_stage2_block0_proj_shortcut
I0928 21:17:25.735335 10764 net.cpp:425] conv_stage2_block0_proj_shortcut <- eltwise_stage1_block3_relu_stage1_block3_0_split_0
I0928 21:17:25.735339 10764 net.cpp:399] conv_stage2_block0_proj_shortcut -> conv_stage2_block0_proj_shortcut
I0928 21:17:25.739545 10764 net.cpp:141] Setting up conv_stage2_block0_proj_shortcut
I0928 21:17:25.739555 10764 net.cpp:148] Top shape: 8 1024 14 14 (1605632)
I0928 21:17:25.739558 10764 net.cpp:156] Memory required for data: 1404928032
I0928 21:17:25.739562 10764 layer_factory.hpp:77] Creating layer bn_stage2_block0_proj_shortcut
I0928 21:17:25.739568 10764 net.cpp:91] Creating Layer bn_stage2_block0_proj_shortcut
I0928 21:17:25.739574 10764 net.cpp:425] bn_stage2_block0_proj_shortcut <- conv_stage2_block0_proj_shortcut
I0928 21:17:25.739578 10764 net.cpp:386] bn_stage2_block0_proj_shortcut -> conv_stage2_block0_proj_shortcut (in-place)
I0928 21:17:25.739696 10764 net.cpp:141] Setting up bn_stage2_block0_proj_shortcut
I0928 21:17:25.739701 10764 net.cpp:148] Top shape: 8 1024 14 14 (1605632)
I0928 21:17:25.739703 10764 net.cpp:156] Memory required for data: 1411350560
I0928 21:17:25.739707 10764 layer_factory.hpp:77] Creating layer scale_stage2_block0_proj_shortcut
I0928 21:17:25.739713 10764 net.cpp:91] Creating Layer scale_stage2_block0_proj_shortcut
I0928 21:17:25.739715 10764 net.cpp:425] scale_stage2_block0_proj_shortcut <- conv_stage2_block0_proj_shortcut
I0928 21:17:25.739719 10764 net.cpp:386] scale_stage2_block0_proj_shortcut -> conv_stage2_block0_proj_shortcut (in-place)
I0928 21:17:25.739742 10764 layer_factory.hpp:77] Creating layer scale_stage2_block0_proj_shortcut
I0928 21:17:25.739810 10764 net.cpp:141] Setting up scale_stage2_block0_proj_shortcut
I0928 21:17:25.739815 10764 net.cpp:148] Top shape: 8 1024 14 14 (1605632)
I0928 21:17:25.739817 10764 net.cpp:156] Memory required for data: 1417773088
I0928 21:17:25.739833 10764 layer_factory.hpp:77] Creating layer conv_stage2_block0_branch2a
I0928 21:17:25.739855 10764 net.cpp:91] Creating Layer conv_stage2_block0_branch2a
I0928 21:17:25.739856 10764 net.cpp:425] conv_stage2_block0_branch2a <- eltwise_stage1_block3_relu_stage1_block3_0_split_1
I0928 21:17:25.739861 10764 net.cpp:399] conv_stage2_block0_branch2a -> conv_stage2_block0_branch2a
I0928 21:17:25.741721 10764 net.cpp:141] Setting up conv_stage2_block0_branch2a
I0928 21:17:25.741744 10764 net.cpp:148] Top shape: 8 256 14 14 (401408)
I0928 21:17:25.741747 10764 net.cpp:156] Memory required for data: 1419378720
I0928 21:17:25.741751 10764 layer_factory.hpp:77] Creating layer bn_stage2_block0_branch2a
I0928 21:17:25.741756 10764 net.cpp:91] Creating Layer bn_stage2_block0_branch2a
I0928 21:17:25.741761 10764 net.cpp:425] bn_stage2_block0_branch2a <- conv_stage2_block0_branch2a
I0928 21:17:25.741773 10764 net.cpp:386] bn_stage2_block0_branch2a -> conv_stage2_block0_branch2a (in-place)
I0928 21:17:25.741930 10764 net.cpp:141] Setting up bn_stage2_block0_branch2a
I0928 21:17:25.741935 10764 net.cpp:148] Top shape: 8 256 14 14 (401408)
I0928 21:17:25.741936 10764 net.cpp:156] Memory required for data: 1420984352
I0928 21:17:25.741955 10764 layer_factory.hpp:77] Creating layer scale_stage2_block0_branch2a
I0928 21:17:25.741960 10764 net.cpp:91] Creating Layer scale_stage2_block0_branch2a
I0928 21:17:25.741962 10764 net.cpp:425] scale_stage2_block0_branch2a <- conv_stage2_block0_branch2a
I0928 21:17:25.741966 10764 net.cpp:386] scale_stage2_block0_branch2a -> conv_stage2_block0_branch2a (in-place)
I0928 21:17:25.741992 10764 layer_factory.hpp:77] Creating layer scale_stage2_block0_branch2a
I0928 21:17:25.742061 10764 net.cpp:141] Setting up scale_stage2_block0_branch2a
I0928 21:17:25.742065 10764 net.cpp:148] Top shape: 8 256 14 14 (401408)
I0928 21:17:25.742068 10764 net.cpp:156] Memory required for data: 1422589984
I0928 21:17:25.742071 10764 layer_factory.hpp:77] Creating layer relu_stage2_block0_branch2a
I0928 21:17:25.742075 10764 net.cpp:91] Creating Layer relu_stage2_block0_branch2a
I0928 21:17:25.742079 10764 net.cpp:425] relu_stage2_block0_branch2a <- conv_stage2_block0_branch2a
I0928 21:17:25.742081 10764 net.cpp:386] relu_stage2_block0_branch2a -> conv_stage2_block0_branch2a (in-place)
I0928 21:17:25.742354 10764 net.cpp:141] Setting up relu_stage2_block0_branch2a
I0928 21:17:25.742362 10764 net.cpp:148] Top shape: 8 256 14 14 (401408)
I0928 21:17:25.742365 10764 net.cpp:156] Memory required for data: 1424195616
I0928 21:17:25.742367 10764 layer_factory.hpp:77] Creating layer conv_stage2_block0_branch2b
I0928 21:17:25.742374 10764 net.cpp:91] Creating Layer conv_stage2_block0_branch2b
I0928 21:17:25.742377 10764 net.cpp:425] conv_stage2_block0_branch2b <- conv_stage2_block0_branch2a
I0928 21:17:25.742383 10764 net.cpp:399] conv_stage2_block0_branch2b -> conv_stage2_block0_branch2b
I0928 21:17:25.747071 10764 net.cpp:141] Setting up conv_stage2_block0_branch2b
I0928 21:17:25.747094 10764 net.cpp:148] Top shape: 8 256 14 14 (401408)
I0928 21:17:25.747097 10764 net.cpp:156] Memory required for data: 1425801248
I0928 21:17:25.747102 10764 layer_factory.hpp:77] Creating layer bn_stage2_block0_branch2b
I0928 21:17:25.747107 10764 net.cpp:91] Creating Layer bn_stage2_block0_branch2b
I0928 21:17:25.747112 10764 net.cpp:425] bn_stage2_block0_branch2b <- conv_stage2_block0_branch2b
I0928 21:17:25.747117 10764 net.cpp:386] bn_stage2_block0_branch2b -> conv_stage2_block0_branch2b (in-place)
I0928 21:17:25.747248 10764 net.cpp:141] Setting up bn_stage2_block0_branch2b
I0928 21:17:25.747252 10764 net.cpp:148] Top shape: 8 256 14 14 (401408)
I0928 21:17:25.747268 10764 net.cpp:156] Memory required for data: 1427406880
I0928 21:17:25.747273 10764 layer_factory.hpp:77] Creating layer scale_stage2_block0_branch2b
I0928 21:17:25.747278 10764 net.cpp:91] Creating Layer scale_stage2_block0_branch2b
I0928 21:17:25.747280 10764 net.cpp:425] scale_stage2_block0_branch2b <- conv_stage2_block0_branch2b
I0928 21:17:25.747284 10764 net.cpp:386] scale_stage2_block0_branch2b -> conv_stage2_block0_branch2b (in-place)
I0928 21:17:25.747310 10764 layer_factory.hpp:77] Creating layer scale_stage2_block0_branch2b
I0928 21:17:25.747377 10764 net.cpp:141] Setting up scale_stage2_block0_branch2b
I0928 21:17:25.747382 10764 net.cpp:148] Top shape: 8 256 14 14 (401408)
I0928 21:17:25.747385 10764 net.cpp:156] Memory required for data: 1429012512
I0928 21:17:25.747388 10764 layer_factory.hpp:77] Creating layer relu_stage2_block0_branch2b
I0928 21:17:25.747391 10764 net.cpp:91] Creating Layer relu_stage2_block0_branch2b
I0928 21:17:25.747395 10764 net.cpp:425] relu_stage2_block0_branch2b <- conv_stage2_block0_branch2b
I0928 21:17:25.747397 10764 net.cpp:386] relu_stage2_block0_branch2b -> conv_stage2_block0_branch2b (in-place)
I0928 21:17:25.747674 10764 net.cpp:141] Setting up relu_stage2_block0_branch2b
I0928 21:17:25.747681 10764 net.cpp:148] Top shape: 8 256 14 14 (401408)
I0928 21:17:25.747689 10764 net.cpp:156] Memory required for data: 1430618144
I0928 21:17:25.747692 10764 layer_factory.hpp:77] Creating layer conv_stage2_block0_branch2c
I0928 21:17:25.747714 10764 net.cpp:91] Creating Layer conv_stage2_block0_branch2c
I0928 21:17:25.747716 10764 net.cpp:425] conv_stage2_block0_branch2c <- conv_stage2_block0_branch2b
I0928 21:17:25.747735 10764 net.cpp:399] conv_stage2_block0_branch2c -> conv_stage2_block0_branch2c
I0928 21:17:25.749918 10764 net.cpp:141] Setting up conv_stage2_block0_branch2c
I0928 21:17:25.749927 10764 net.cpp:148] Top shape: 8 1024 14 14 (1605632)
I0928 21:17:25.749928 10764 net.cpp:156] Memory required for data: 1437040672
I0928 21:17:25.749933 10764 layer_factory.hpp:77] Creating layer bn_stage2_block0_branch2c
I0928 21:17:25.749951 10764 net.cpp:91] Creating Layer bn_stage2_block0_branch2c
I0928 21:17:25.749954 10764 net.cpp:425] bn_stage2_block0_branch2c <- conv_stage2_block0_branch2c
I0928 21:17:25.749958 10764 net.cpp:386] bn_stage2_block0_branch2c -> conv_stage2_block0_branch2c (in-place)
I0928 21:17:25.750105 10764 net.cpp:141] Setting up bn_stage2_block0_branch2c
I0928 21:17:25.750109 10764 net.cpp:148] Top shape: 8 1024 14 14 (1605632)
I0928 21:17:25.750111 10764 net.cpp:156] Memory required for data: 1443463200
I0928 21:17:25.750116 10764 layer_factory.hpp:77] Creating layer scale_stage2_block0_branch2c
I0928 21:17:25.750120 10764 net.cpp:91] Creating Layer scale_stage2_block0_branch2c
I0928 21:17:25.750135 10764 net.cpp:425] scale_stage2_block0_branch2c <- conv_stage2_block0_branch2c
I0928 21:17:25.750138 10764 net.cpp:386] scale_stage2_block0_branch2c -> conv_stage2_block0_branch2c (in-place)
I0928 21:17:25.750177 10764 layer_factory.hpp:77] Creating layer scale_stage2_block0_branch2c
I0928 21:17:25.750288 10764 net.cpp:141] Setting up scale_stage2_block0_branch2c
I0928 21:17:25.750291 10764 net.cpp:148] Top shape: 8 1024 14 14 (1605632)
I0928 21:17:25.750293 10764 net.cpp:156] Memory required for data: 1449885728
I0928 21:17:25.750298 10764 layer_factory.hpp:77] Creating layer eltwise_stage2_block0
I0928 21:17:25.750301 10764 net.cpp:91] Creating Layer eltwise_stage2_block0
I0928 21:17:25.750304 10764 net.cpp:425] eltwise_stage2_block0 <- conv_stage2_block0_proj_shortcut
I0928 21:17:25.750308 10764 net.cpp:425] eltwise_stage2_block0 <- conv_stage2_block0_branch2c
I0928 21:17:25.750310 10764 net.cpp:399] eltwise_stage2_block0 -> eltwise_stage2_block0
I0928 21:17:25.750341 10764 net.cpp:141] Setting up eltwise_stage2_block0
I0928 21:17:25.750346 10764 net.cpp:148] Top shape: 8 1024 14 14 (1605632)
I0928 21:17:25.750349 10764 net.cpp:156] Memory required for data: 1456308256
I0928 21:17:25.750350 10764 layer_factory.hpp:77] Creating layer relu_stage2_block0
I0928 21:17:25.750355 10764 net.cpp:91] Creating Layer relu_stage2_block0
I0928 21:17:25.750372 10764 net.cpp:425] relu_stage2_block0 <- eltwise_stage2_block0
I0928 21:17:25.750376 10764 net.cpp:386] relu_stage2_block0 -> eltwise_stage2_block0 (in-place)
I0928 21:17:25.750494 10764 net.cpp:141] Setting up relu_stage2_block0
I0928 21:17:25.750500 10764 net.cpp:148] Top shape: 8 1024 14 14 (1605632)
I0928 21:17:25.750504 10764 net.cpp:156] Memory required for data: 1462730784
I0928 21:17:25.750506 10764 layer_factory.hpp:77] Creating layer eltwise_stage2_block0_relu_stage2_block0_0_split
I0928 21:17:25.750509 10764 net.cpp:91] Creating Layer eltwise_stage2_block0_relu_stage2_block0_0_split
I0928 21:17:25.750512 10764 net.cpp:425] eltwise_stage2_block0_relu_stage2_block0_0_split <- eltwise_stage2_block0
I0928 21:17:25.750515 10764 net.cpp:399] eltwise_stage2_block0_relu_stage2_block0_0_split -> eltwise_stage2_block0_relu_stage2_block0_0_split_0
I0928 21:17:25.750520 10764 net.cpp:399] eltwise_stage2_block0_relu_stage2_block0_0_split -> eltwise_stage2_block0_relu_stage2_block0_0_split_1
I0928 21:17:25.750572 10764 net.cpp:141] Setting up eltwise_stage2_block0_relu_stage2_block0_0_split
I0928 21:17:25.750576 10764 net.cpp:148] Top shape: 8 1024 14 14 (1605632)
I0928 21:17:25.750586 10764 net.cpp:148] Top shape: 8 1024 14 14 (1605632)
I0928 21:17:25.750587 10764 net.cpp:156] Memory required for data: 1475575840
I0928 21:17:25.750591 10764 layer_factory.hpp:77] Creating layer conv_stage2_block1_branch2a
I0928 21:17:25.750632 10764 net.cpp:91] Creating Layer conv_stage2_block1_branch2a
I0928 21:17:25.750634 10764 net.cpp:425] conv_stage2_block1_branch2a <- eltwise_stage2_block0_relu_stage2_block0_0_split_0
I0928 21:17:25.750639 10764 net.cpp:399] conv_stage2_block1_branch2a -> conv_stage2_block1_branch2a
I0928 21:17:25.753284 10764 net.cpp:141] Setting up conv_stage2_block1_branch2a
I0928 21:17:25.753293 10764 net.cpp:148] Top shape: 8 256 14 14 (401408)
I0928 21:17:25.753298 10764 net.cpp:156] Memory required for data: 1477181472
I0928 21:17:25.753301 10764 layer_factory.hpp:77] Creating layer bn_stage2_block1_branch2a
I0928 21:17:25.753307 10764 net.cpp:91] Creating Layer bn_stage2_block1_branch2a
I0928 21:17:25.753311 10764 net.cpp:425] bn_stage2_block1_branch2a <- conv_stage2_block1_branch2a
I0928 21:17:25.753315 10764 net.cpp:386] bn_stage2_block1_branch2a -> conv_stage2_block1_branch2a (in-place)
I0928 21:17:25.753437 10764 net.cpp:141] Setting up bn_stage2_block1_branch2a
I0928 21:17:25.753442 10764 net.cpp:148] Top shape: 8 256 14 14 (401408)
I0928 21:17:25.753444 10764 net.cpp:156] Memory required for data: 1478787104
I0928 21:17:25.753449 10764 layer_factory.hpp:77] Creating layer scale_stage2_block1_branch2a
I0928 21:17:25.753454 10764 net.cpp:91] Creating Layer scale_stage2_block1_branch2a
I0928 21:17:25.753456 10764 net.cpp:425] scale_stage2_block1_branch2a <- conv_stage2_block1_branch2a
I0928 21:17:25.753460 10764 net.cpp:386] scale_stage2_block1_branch2a -> conv_stage2_block1_branch2a (in-place)
I0928 21:17:25.753485 10764 layer_factory.hpp:77] Creating layer scale_stage2_block1_branch2a
I0928 21:17:25.753553 10764 net.cpp:141] Setting up scale_stage2_block1_branch2a
I0928 21:17:25.753557 10764 net.cpp:148] Top shape: 8 256 14 14 (401408)
I0928 21:17:25.753561 10764 net.cpp:156] Memory required for data: 1480392736
I0928 21:17:25.753564 10764 layer_factory.hpp:77] Creating layer relu_stage2_block1_branch2a
I0928 21:17:25.753568 10764 net.cpp:91] Creating Layer relu_stage2_block1_branch2a
I0928 21:17:25.753571 10764 net.cpp:425] relu_stage2_block1_branch2a <- conv_stage2_block1_branch2a
I0928 21:17:25.753574 10764 net.cpp:386] relu_stage2_block1_branch2a -> conv_stage2_block1_branch2a (in-place)
I0928 21:17:25.753680 10764 net.cpp:141] Setting up relu_stage2_block1_branch2a
I0928 21:17:25.753686 10764 net.cpp:148] Top shape: 8 256 14 14 (401408)
I0928 21:17:25.753690 10764 net.cpp:156] Memory required for data: 1481998368
I0928 21:17:25.753691 10764 layer_factory.hpp:77] Creating layer conv_stage2_block1_branch2b
I0928 21:17:25.753697 10764 net.cpp:91] Creating Layer conv_stage2_block1_branch2b
I0928 21:17:25.753700 10764 net.cpp:425] conv_stage2_block1_branch2b <- conv_stage2_block1_branch2a
I0928 21:17:25.753705 10764 net.cpp:399] conv_stage2_block1_branch2b -> conv_stage2_block1_branch2b
I0928 21:17:25.758561 10764 net.cpp:141] Setting up conv_stage2_block1_branch2b
I0928 21:17:25.758570 10764 net.cpp:148] Top shape: 8 256 14 14 (401408)
I0928 21:17:25.758574 10764 net.cpp:156] Memory required for data: 1483604000
I0928 21:17:25.758579 10764 layer_factory.hpp:77] Creating layer bn_stage2_block1_branch2b
I0928 21:17:25.758584 10764 net.cpp:91] Creating Layer bn_stage2_block1_branch2b
I0928 21:17:25.758587 10764 net.cpp:425] bn_stage2_block1_branch2b <- conv_stage2_block1_branch2b
I0928 21:17:25.758591 10764 net.cpp:386] bn_stage2_block1_branch2b -> conv_stage2_block1_branch2b (in-place)
I0928 21:17:25.758721 10764 net.cpp:141] Setting up bn_stage2_block1_branch2b
I0928 21:17:25.758726 10764 net.cpp:148] Top shape: 8 256 14 14 (401408)
I0928 21:17:25.758729 10764 net.cpp:156] Memory required for data: 1485209632
I0928 21:17:25.758733 10764 layer_factory.hpp:77] Creating layer scale_stage2_block1_branch2b
I0928 21:17:25.758738 10764 net.cpp:91] Creating Layer scale_stage2_block1_branch2b
I0928 21:17:25.758749 10764 net.cpp:425] scale_stage2_block1_branch2b <- conv_stage2_block1_branch2b
I0928 21:17:25.758754 10764 net.cpp:386] scale_stage2_block1_branch2b -> conv_stage2_block1_branch2b (in-place)
I0928 21:17:25.758781 10764 layer_factory.hpp:77] Creating layer scale_stage2_block1_branch2b
I0928 21:17:25.758849 10764 net.cpp:141] Setting up scale_stage2_block1_branch2b
I0928 21:17:25.758854 10764 net.cpp:148] Top shape: 8 256 14 14 (401408)
I0928 21:17:25.758857 10764 net.cpp:156] Memory required for data: 1486815264
I0928 21:17:25.758862 10764 layer_factory.hpp:77] Creating layer relu_stage2_block1_branch2b
I0928 21:17:25.758865 10764 net.cpp:91] Creating Layer relu_stage2_block1_branch2b
I0928 21:17:25.758868 10764 net.cpp:425] relu_stage2_block1_branch2b <- conv_stage2_block1_branch2b
I0928 21:17:25.758872 10764 net.cpp:386] relu_stage2_block1_branch2b -> conv_stage2_block1_branch2b (in-place)
I0928 21:17:25.758981 10764 net.cpp:141] Setting up relu_stage2_block1_branch2b
I0928 21:17:25.758987 10764 net.cpp:148] Top shape: 8 256 14 14 (401408)
I0928 21:17:25.758991 10764 net.cpp:156] Memory required for data: 1488420896
I0928 21:17:25.758992 10764 layer_factory.hpp:77] Creating layer conv_stage2_block1_branch2c
I0928 21:17:25.758998 10764 net.cpp:91] Creating Layer conv_stage2_block1_branch2c
I0928 21:17:25.759002 10764 net.cpp:425] conv_stage2_block1_branch2c <- conv_stage2_block1_branch2b
I0928 21:17:25.759011 10764 net.cpp:399] conv_stage2_block1_branch2c -> conv_stage2_block1_branch2c
I0928 21:17:25.761281 10764 net.cpp:141] Setting up conv_stage2_block1_branch2c
I0928 21:17:25.761291 10764 net.cpp:148] Top shape: 8 1024 14 14 (1605632)
I0928 21:17:25.761293 10764 net.cpp:156] Memory required for data: 1494843424
I0928 21:17:25.761297 10764 layer_factory.hpp:77] Creating layer bn_stage2_block1_branch2c
I0928 21:17:25.761302 10764 net.cpp:91] Creating Layer bn_stage2_block1_branch2c
I0928 21:17:25.761307 10764 net.cpp:425] bn_stage2_block1_branch2c <- conv_stage2_block1_branch2c
I0928 21:17:25.761312 10764 net.cpp:386] bn_stage2_block1_branch2c -> conv_stage2_block1_branch2c (in-place)
I0928 21:17:25.761435 10764 net.cpp:141] Setting up bn_stage2_block1_branch2c
I0928 21:17:25.761440 10764 net.cpp:148] Top shape: 8 1024 14 14 (1605632)
I0928 21:17:25.761441 10764 net.cpp:156] Memory required for data: 1501265952
I0928 21:17:25.761445 10764 layer_factory.hpp:77] Creating layer scale_stage2_block1_branch2c
I0928 21:17:25.761451 10764 net.cpp:91] Creating Layer scale_stage2_block1_branch2c
I0928 21:17:25.761453 10764 net.cpp:425] scale_stage2_block1_branch2c <- conv_stage2_block1_branch2c
I0928 21:17:25.761456 10764 net.cpp:386] scale_stage2_block1_branch2c -> conv_stage2_block1_branch2c (in-place)
I0928 21:17:25.761482 10764 layer_factory.hpp:77] Creating layer scale_stage2_block1_branch2c
I0928 21:17:25.761565 10764 net.cpp:141] Setting up scale_stage2_block1_branch2c
I0928 21:17:25.761569 10764 net.cpp:148] Top shape: 8 1024 14 14 (1605632)
I0928 21:17:25.761584 10764 net.cpp:156] Memory required for data: 1507688480
I0928 21:17:25.761589 10764 layer_factory.hpp:77] Creating layer eltwise_stage2_block1
I0928 21:17:25.761592 10764 net.cpp:91] Creating Layer eltwise_stage2_block1
I0928 21:17:25.761596 10764 net.cpp:425] eltwise_stage2_block1 <- eltwise_stage2_block0_relu_stage2_block0_0_split_1
I0928 21:17:25.761600 10764 net.cpp:425] eltwise_stage2_block1 <- conv_stage2_block1_branch2c
I0928 21:17:25.761603 10764 net.cpp:399] eltwise_stage2_block1 -> eltwise_stage2_block1
I0928 21:17:25.761618 10764 net.cpp:141] Setting up eltwise_stage2_block1
I0928 21:17:25.761622 10764 net.cpp:148] Top shape: 8 1024 14 14 (1605632)
I0928 21:17:25.761625 10764 net.cpp:156] Memory required for data: 1514111008
I0928 21:17:25.761627 10764 layer_factory.hpp:77] Creating layer relu_stage2_block1
I0928 21:17:25.761631 10764 net.cpp:91] Creating Layer relu_stage2_block1
I0928 21:17:25.761633 10764 net.cpp:425] relu_stage2_block1 <- eltwise_stage2_block1
I0928 21:17:25.761636 10764 net.cpp:386] relu_stage2_block1 -> eltwise_stage2_block1 (in-place)
I0928 21:17:25.761761 10764 net.cpp:141] Setting up relu_stage2_block1
I0928 21:17:25.761767 10764 net.cpp:148] Top shape: 8 1024 14 14 (1605632)
I0928 21:17:25.761782 10764 net.cpp:156] Memory required for data: 1520533536
I0928 21:17:25.761785 10764 layer_factory.hpp:77] Creating layer eltwise_stage2_block1_relu_stage2_block1_0_split
I0928 21:17:25.761788 10764 net.cpp:91] Creating Layer eltwise_stage2_block1_relu_stage2_block1_0_split
I0928 21:17:25.761790 10764 net.cpp:425] eltwise_stage2_block1_relu_stage2_block1_0_split <- eltwise_stage2_block1
I0928 21:17:25.761795 10764 net.cpp:399] eltwise_stage2_block1_relu_stage2_block1_0_split -> eltwise_stage2_block1_relu_stage2_block1_0_split_0
I0928 21:17:25.761800 10764 net.cpp:399] eltwise_stage2_block1_relu_stage2_block1_0_split -> eltwise_stage2_block1_relu_stage2_block1_0_split_1
I0928 21:17:25.761824 10764 net.cpp:141] Setting up eltwise_stage2_block1_relu_stage2_block1_0_split
I0928 21:17:25.761828 10764 net.cpp:148] Top shape: 8 1024 14 14 (1605632)
I0928 21:17:25.761831 10764 net.cpp:148] Top shape: 8 1024 14 14 (1605632)
I0928 21:17:25.761833 10764 net.cpp:156] Memory required for data: 1533378592
I0928 21:17:25.761836 10764 layer_factory.hpp:77] Creating layer conv_stage2_block2_branch2a
I0928 21:17:25.761842 10764 net.cpp:91] Creating Layer conv_stage2_block2_branch2a
I0928 21:17:25.761844 10764 net.cpp:425] conv_stage2_block2_branch2a <- eltwise_stage2_block1_relu_stage2_block1_0_split_0
I0928 21:17:25.761848 10764 net.cpp:399] conv_stage2_block2_branch2a -> conv_stage2_block2_branch2a
I0928 21:17:25.764549 10764 net.cpp:141] Setting up conv_stage2_block2_branch2a
I0928 21:17:25.764561 10764 net.cpp:148] Top shape: 8 256 14 14 (401408)
I0928 21:17:25.764564 10764 net.cpp:156] Memory required for data: 1534984224
I0928 21:17:25.764570 10764 layer_factory.hpp:77] Creating layer bn_stage2_block2_branch2a
I0928 21:17:25.764576 10764 net.cpp:91] Creating Layer bn_stage2_block2_branch2a
I0928 21:17:25.764580 10764 net.cpp:425] bn_stage2_block2_branch2a <- conv_stage2_block2_branch2a
I0928 21:17:25.764585 10764 net.cpp:386] bn_stage2_block2_branch2a -> conv_stage2_block2_branch2a (in-place)
I0928 21:17:25.764710 10764 net.cpp:141] Setting up bn_stage2_block2_branch2a
I0928 21:17:25.764715 10764 net.cpp:148] Top shape: 8 256 14 14 (401408)
I0928 21:17:25.764717 10764 net.cpp:156] Memory required for data: 1536589856
I0928 21:17:25.764721 10764 layer_factory.hpp:77] Creating layer scale_stage2_block2_branch2a
I0928 21:17:25.764727 10764 net.cpp:91] Creating Layer scale_stage2_block2_branch2a
I0928 21:17:25.764730 10764 net.cpp:425] scale_stage2_block2_branch2a <- conv_stage2_block2_branch2a
I0928 21:17:25.764734 10764 net.cpp:386] scale_stage2_block2_branch2a -> conv_stage2_block2_branch2a (in-place)
I0928 21:17:25.764761 10764 layer_factory.hpp:77] Creating layer scale_stage2_block2_branch2a
I0928 21:17:25.764830 10764 net.cpp:141] Setting up scale_stage2_block2_branch2a
I0928 21:17:25.764835 10764 net.cpp:148] Top shape: 8 256 14 14 (401408)
I0928 21:17:25.764837 10764 net.cpp:156] Memory required for data: 1538195488
I0928 21:17:25.764842 10764 layer_factory.hpp:77] Creating layer relu_stage2_block2_branch2a
I0928 21:17:25.764845 10764 net.cpp:91] Creating Layer relu_stage2_block2_branch2a
I0928 21:17:25.764848 10764 net.cpp:425] relu_stage2_block2_branch2a <- conv_stage2_block2_branch2a
I0928 21:17:25.764852 10764 net.cpp:386] relu_stage2_block2_branch2a -> conv_stage2_block2_branch2a (in-place)
I0928 21:17:25.765138 10764 net.cpp:141] Setting up relu_stage2_block2_branch2a
I0928 21:17:25.765147 10764 net.cpp:148] Top shape: 8 256 14 14 (401408)
I0928 21:17:25.765149 10764 net.cpp:156] Memory required for data: 1539801120
I0928 21:17:25.765152 10764 layer_factory.hpp:77] Creating layer conv_stage2_block2_branch2b
I0928 21:17:25.765159 10764 net.cpp:91] Creating Layer conv_stage2_block2_branch2b
I0928 21:17:25.765162 10764 net.cpp:425] conv_stage2_block2_branch2b <- conv_stage2_block2_branch2a
I0928 21:17:25.765167 10764 net.cpp:399] conv_stage2_block2_branch2b -> conv_stage2_block2_branch2b
I0928 21:17:25.770051 10764 net.cpp:141] Setting up conv_stage2_block2_branch2b
I0928 21:17:25.770061 10764 net.cpp:148] Top shape: 8 256 14 14 (401408)
I0928 21:17:25.770064 10764 net.cpp:156] Memory required for data: 1541406752
I0928 21:17:25.770069 10764 layer_factory.hpp:77] Creating layer bn_stage2_block2_branch2b
I0928 21:17:25.770076 10764 net.cpp:91] Creating Layer bn_stage2_block2_branch2b
I0928 21:17:25.770079 10764 net.cpp:425] bn_stage2_block2_branch2b <- conv_stage2_block2_branch2b
I0928 21:17:25.770084 10764 net.cpp:386] bn_stage2_block2_branch2b -> conv_stage2_block2_branch2b (in-place)
I0928 21:17:25.770212 10764 net.cpp:141] Setting up bn_stage2_block2_branch2b
I0928 21:17:25.770217 10764 net.cpp:148] Top shape: 8 256 14 14 (401408)
I0928 21:17:25.770220 10764 net.cpp:156] Memory required for data: 1543012384
I0928 21:17:25.770226 10764 layer_factory.hpp:77] Creating layer scale_stage2_block2_branch2b
I0928 21:17:25.770231 10764 net.cpp:91] Creating Layer scale_stage2_block2_branch2b
I0928 21:17:25.770234 10764 net.cpp:425] scale_stage2_block2_branch2b <- conv_stage2_block2_branch2b
I0928 21:17:25.770238 10764 net.cpp:386] scale_stage2_block2_branch2b -> conv_stage2_block2_branch2b (in-place)
I0928 21:17:25.770267 10764 layer_factory.hpp:77] Creating layer scale_stage2_block2_branch2b
I0928 21:17:25.770336 10764 net.cpp:141] Setting up scale_stage2_block2_branch2b
I0928 21:17:25.770341 10764 net.cpp:148] Top shape: 8 256 14 14 (401408)
I0928 21:17:25.770344 10764 net.cpp:156] Memory required for data: 1544618016
I0928 21:17:25.770347 10764 layer_factory.hpp:77] Creating layer relu_stage2_block2_branch2b
I0928 21:17:25.770352 10764 net.cpp:91] Creating Layer relu_stage2_block2_branch2b
I0928 21:17:25.770355 10764 net.cpp:425] relu_stage2_block2_branch2b <- conv_stage2_block2_branch2b
I0928 21:17:25.770359 10764 net.cpp:386] relu_stage2_block2_branch2b -> conv_stage2_block2_branch2b (in-place)
I0928 21:17:25.770633 10764 net.cpp:141] Setting up relu_stage2_block2_branch2b
I0928 21:17:25.770642 10764 net.cpp:148] Top shape: 8 256 14 14 (401408)
I0928 21:17:25.770644 10764 net.cpp:156] Memory required for data: 1546223648
I0928 21:17:25.770647 10764 layer_factory.hpp:77] Creating layer conv_stage2_block2_branch2c
I0928 21:17:25.770654 10764 net.cpp:91] Creating Layer conv_stage2_block2_branch2c
I0928 21:17:25.770658 10764 net.cpp:425] conv_stage2_block2_branch2c <- conv_stage2_block2_branch2b
I0928 21:17:25.770663 10764 net.cpp:399] conv_stage2_block2_branch2c -> conv_stage2_block2_branch2c
I0928 21:17:25.772965 10764 net.cpp:141] Setting up conv_stage2_block2_branch2c
I0928 21:17:25.772974 10764 net.cpp:148] Top shape: 8 1024 14 14 (1605632)
I0928 21:17:25.772977 10764 net.cpp:156] Memory required for data: 1552646176
I0928 21:17:25.772981 10764 layer_factory.hpp:77] Creating layer bn_stage2_block2_branch2c
I0928 21:17:25.772986 10764 net.cpp:91] Creating Layer bn_stage2_block2_branch2c
I0928 21:17:25.772989 10764 net.cpp:425] bn_stage2_block2_branch2c <- conv_stage2_block2_branch2c
I0928 21:17:25.772994 10764 net.cpp:386] bn_stage2_block2_branch2c -> conv_stage2_block2_branch2c (in-place)
I0928 21:17:25.773123 10764 net.cpp:141] Setting up bn_stage2_block2_branch2c
I0928 21:17:25.773126 10764 net.cpp:148] Top shape: 8 1024 14 14 (1605632)
I0928 21:17:25.773129 10764 net.cpp:156] Memory required for data: 1559068704
I0928 21:17:25.773134 10764 layer_factory.hpp:77] Creating layer scale_stage2_block2_branch2c
I0928 21:17:25.773138 10764 net.cpp:91] Creating Layer scale_stage2_block2_branch2c
I0928 21:17:25.773141 10764 net.cpp:425] scale_stage2_block2_branch2c <- conv_stage2_block2_branch2c
I0928 21:17:25.773145 10764 net.cpp:386] scale_stage2_block2_branch2c -> conv_stage2_block2_branch2c (in-place)
I0928 21:17:25.773171 10764 layer_factory.hpp:77] Creating layer scale_stage2_block2_branch2c
I0928 21:17:25.773243 10764 net.cpp:141] Setting up scale_stage2_block2_branch2c
I0928 21:17:25.773248 10764 net.cpp:148] Top shape: 8 1024 14 14 (1605632)
I0928 21:17:25.773257 10764 net.cpp:156] Memory required for data: 1565491232
I0928 21:17:25.773262 10764 layer_factory.hpp:77] Creating layer eltwise_stage2_block2
I0928 21:17:25.773267 10764 net.cpp:91] Creating Layer eltwise_stage2_block2
I0928 21:17:25.773270 10764 net.cpp:425] eltwise_stage2_block2 <- eltwise_stage2_block1_relu_stage2_block1_0_split_1
I0928 21:17:25.773274 10764 net.cpp:425] eltwise_stage2_block2 <- conv_stage2_block2_branch2c
I0928 21:17:25.773279 10764 net.cpp:399] eltwise_stage2_block2 -> eltwise_stage2_block2
I0928 21:17:25.773295 10764 net.cpp:141] Setting up eltwise_stage2_block2
I0928 21:17:25.773300 10764 net.cpp:148] Top shape: 8 1024 14 14 (1605632)
I0928 21:17:25.773303 10764 net.cpp:156] Memory required for data: 1571913760
I0928 21:17:25.773305 10764 layer_factory.hpp:77] Creating layer relu_stage2_block2
I0928 21:17:25.773309 10764 net.cpp:91] Creating Layer relu_stage2_block2
I0928 21:17:25.773313 10764 net.cpp:425] relu_stage2_block2 <- eltwise_stage2_block2
I0928 21:17:25.773315 10764 net.cpp:386] relu_stage2_block2 -> eltwise_stage2_block2 (in-place)
I0928 21:17:25.773423 10764 net.cpp:141] Setting up relu_stage2_block2
I0928 21:17:25.773428 10764 net.cpp:148] Top shape: 8 1024 14 14 (1605632)
I0928 21:17:25.773432 10764 net.cpp:156] Memory required for data: 1578336288
I0928 21:17:25.773433 10764 layer_factory.hpp:77] Creating layer eltwise_stage2_block2_relu_stage2_block2_0_split
I0928 21:17:25.773437 10764 net.cpp:91] Creating Layer eltwise_stage2_block2_relu_stage2_block2_0_split
I0928 21:17:25.773440 10764 net.cpp:425] eltwise_stage2_block2_relu_stage2_block2_0_split <- eltwise_stage2_block2
I0928 21:17:25.773444 10764 net.cpp:399] eltwise_stage2_block2_relu_stage2_block2_0_split -> eltwise_stage2_block2_relu_stage2_block2_0_split_0
I0928 21:17:25.773449 10764 net.cpp:399] eltwise_stage2_block2_relu_stage2_block2_0_split -> eltwise_stage2_block2_relu_stage2_block2_0_split_1
I0928 21:17:25.773475 10764 net.cpp:141] Setting up eltwise_stage2_block2_relu_stage2_block2_0_split
I0928 21:17:25.773480 10764 net.cpp:148] Top shape: 8 1024 14 14 (1605632)
I0928 21:17:25.773483 10764 net.cpp:148] Top shape: 8 1024 14 14 (1605632)
I0928 21:17:25.773485 10764 net.cpp:156] Memory required for data: 1591181344
I0928 21:17:25.773488 10764 layer_factory.hpp:77] Creating layer conv_stage2_block3_branch2a
I0928 21:17:25.773494 10764 net.cpp:91] Creating Layer conv_stage2_block3_branch2a
I0928 21:17:25.773497 10764 net.cpp:425] conv_stage2_block3_branch2a <- eltwise_stage2_block2_relu_stage2_block2_0_split_0
I0928 21:17:25.773501 10764 net.cpp:399] conv_stage2_block3_branch2a -> conv_stage2_block3_branch2a
I0928 21:17:25.776244 10764 net.cpp:141] Setting up conv_stage2_block3_branch2a
I0928 21:17:25.776257 10764 net.cpp:148] Top shape: 8 256 14 14 (401408)
I0928 21:17:25.776259 10764 net.cpp:156] Memory required for data: 1592786976
I0928 21:17:25.776263 10764 layer_factory.hpp:77] Creating layer bn_stage2_block3_branch2a
I0928 21:17:25.776270 10764 net.cpp:91] Creating Layer bn_stage2_block3_branch2a
I0928 21:17:25.776274 10764 net.cpp:425] bn_stage2_block3_branch2a <- conv_stage2_block3_branch2a
I0928 21:17:25.776280 10764 net.cpp:386] bn_stage2_block3_branch2a -> conv_stage2_block3_branch2a (in-place)
I0928 21:17:25.776408 10764 net.cpp:141] Setting up bn_stage2_block3_branch2a
I0928 21:17:25.776412 10764 net.cpp:148] Top shape: 8 256 14 14 (401408)
I0928 21:17:25.776415 10764 net.cpp:156] Memory required for data: 1594392608
I0928 21:17:25.776419 10764 layer_factory.hpp:77] Creating layer scale_stage2_block3_branch2a
I0928 21:17:25.776424 10764 net.cpp:91] Creating Layer scale_stage2_block3_branch2a
I0928 21:17:25.776427 10764 net.cpp:425] scale_stage2_block3_branch2a <- conv_stage2_block3_branch2a
I0928 21:17:25.776430 10764 net.cpp:386] scale_stage2_block3_branch2a -> conv_stage2_block3_branch2a (in-place)
I0928 21:17:25.776459 10764 layer_factory.hpp:77] Creating layer scale_stage2_block3_branch2a
I0928 21:17:25.776528 10764 net.cpp:141] Setting up scale_stage2_block3_branch2a
I0928 21:17:25.776541 10764 net.cpp:148] Top shape: 8 256 14 14 (401408)
I0928 21:17:25.776543 10764 net.cpp:156] Memory required for data: 1595998240
I0928 21:17:25.776547 10764 layer_factory.hpp:77] Creating layer relu_stage2_block3_branch2a
I0928 21:17:25.776552 10764 net.cpp:91] Creating Layer relu_stage2_block3_branch2a
I0928 21:17:25.776556 10764 net.cpp:425] relu_stage2_block3_branch2a <- conv_stage2_block3_branch2a
I0928 21:17:25.776559 10764 net.cpp:386] relu_stage2_block3_branch2a -> conv_stage2_block3_branch2a (in-place)
I0928 21:17:25.776664 10764 net.cpp:141] Setting up relu_stage2_block3_branch2a
I0928 21:17:25.776669 10764 net.cpp:148] Top shape: 8 256 14 14 (401408)
I0928 21:17:25.776672 10764 net.cpp:156] Memory required for data: 1597603872
I0928 21:17:25.776675 10764 layer_factory.hpp:77] Creating layer conv_stage2_block3_branch2b
I0928 21:17:25.776682 10764 net.cpp:91] Creating Layer conv_stage2_block3_branch2b
I0928 21:17:25.776685 10764 net.cpp:425] conv_stage2_block3_branch2b <- conv_stage2_block3_branch2a
I0928 21:17:25.776690 10764 net.cpp:399] conv_stage2_block3_branch2b -> conv_stage2_block3_branch2b
I0928 21:17:25.781522 10764 net.cpp:141] Setting up conv_stage2_block3_branch2b
I0928 21:17:25.781544 10764 net.cpp:148] Top shape: 8 256 14 14 (401408)
I0928 21:17:25.781548 10764 net.cpp:156] Memory required for data: 1599209504
I0928 21:17:25.781553 10764 layer_factory.hpp:77] Creating layer bn_stage2_block3_branch2b
I0928 21:17:25.781558 10764 net.cpp:91] Creating Layer bn_stage2_block3_branch2b
I0928 21:17:25.781561 10764 net.cpp:425] bn_stage2_block3_branch2b <- conv_stage2_block3_branch2b
I0928 21:17:25.781566 10764 net.cpp:386] bn_stage2_block3_branch2b -> conv_stage2_block3_branch2b (in-place)
I0928 21:17:25.781708 10764 net.cpp:141] Setting up bn_stage2_block3_branch2b
I0928 21:17:25.781713 10764 net.cpp:148] Top shape: 8 256 14 14 (401408)
I0928 21:17:25.781728 10764 net.cpp:156] Memory required for data: 1600815136
I0928 21:17:25.781733 10764 layer_factory.hpp:77] Creating layer scale_stage2_block3_branch2b
I0928 21:17:25.781738 10764 net.cpp:91] Creating Layer scale_stage2_block3_branch2b
I0928 21:17:25.781740 10764 net.cpp:425] scale_stage2_block3_branch2b <- conv_stage2_block3_branch2b
I0928 21:17:25.781744 10764 net.cpp:386] scale_stage2_block3_branch2b -> conv_stage2_block3_branch2b (in-place)
I0928 21:17:25.781774 10764 layer_factory.hpp:77] Creating layer scale_stage2_block3_branch2b
I0928 21:17:25.781883 10764 net.cpp:141] Setting up scale_stage2_block3_branch2b
I0928 21:17:25.781888 10764 net.cpp:148] Top shape: 8 256 14 14 (401408)
I0928 21:17:25.781901 10764 net.cpp:156] Memory required for data: 1602420768
I0928 21:17:25.781906 10764 layer_factory.hpp:77] Creating layer relu_stage2_block3_branch2b
I0928 21:17:25.781910 10764 net.cpp:91] Creating Layer relu_stage2_block3_branch2b
I0928 21:17:25.781913 10764 net.cpp:425] relu_stage2_block3_branch2b <- conv_stage2_block3_branch2b
I0928 21:17:25.781918 10764 net.cpp:386] relu_stage2_block3_branch2b -> conv_stage2_block3_branch2b (in-place)
I0928 21:17:25.782027 10764 net.cpp:141] Setting up relu_stage2_block3_branch2b
I0928 21:17:25.782033 10764 net.cpp:148] Top shape: 8 256 14 14 (401408)
I0928 21:17:25.782037 10764 net.cpp:156] Memory required for data: 1604026400
I0928 21:17:25.782038 10764 layer_factory.hpp:77] Creating layer conv_stage2_block3_branch2c
I0928 21:17:25.782045 10764 net.cpp:91] Creating Layer conv_stage2_block3_branch2c
I0928 21:17:25.782048 10764 net.cpp:425] conv_stage2_block3_branch2c <- conv_stage2_block3_branch2b
I0928 21:17:25.782053 10764 net.cpp:399] conv_stage2_block3_branch2c -> conv_stage2_block3_branch2c
I0928 21:17:25.784361 10764 net.cpp:141] Setting up conv_stage2_block3_branch2c
I0928 21:17:25.784371 10764 net.cpp:148] Top shape: 8 1024 14 14 (1605632)
I0928 21:17:25.784374 10764 net.cpp:156] Memory required for data: 1610448928
I0928 21:17:25.784379 10764 layer_factory.hpp:77] Creating layer bn_stage2_block3_branch2c
I0928 21:17:25.784384 10764 net.cpp:91] Creating Layer bn_stage2_block3_branch2c
I0928 21:17:25.784395 10764 net.cpp:425] bn_stage2_block3_branch2c <- conv_stage2_block3_branch2c
I0928 21:17:25.784399 10764 net.cpp:386] bn_stage2_block3_branch2c -> conv_stage2_block3_branch2c (in-place)
I0928 21:17:25.784526 10764 net.cpp:141] Setting up bn_stage2_block3_branch2c
I0928 21:17:25.784531 10764 net.cpp:148] Top shape: 8 1024 14 14 (1605632)
I0928 21:17:25.784534 10764 net.cpp:156] Memory required for data: 1616871456
I0928 21:17:25.784561 10764 layer_factory.hpp:77] Creating layer scale_stage2_block3_branch2c
I0928 21:17:25.784567 10764 net.cpp:91] Creating Layer scale_stage2_block3_branch2c
I0928 21:17:25.784569 10764 net.cpp:425] scale_stage2_block3_branch2c <- conv_stage2_block3_branch2c
I0928 21:17:25.784574 10764 net.cpp:386] scale_stage2_block3_branch2c -> conv_stage2_block3_branch2c (in-place)
I0928 21:17:25.784600 10764 layer_factory.hpp:77] Creating layer scale_stage2_block3_branch2c
I0928 21:17:25.784687 10764 net.cpp:141] Setting up scale_stage2_block3_branch2c
I0928 21:17:25.784692 10764 net.cpp:148] Top shape: 8 1024 14 14 (1605632)
I0928 21:17:25.784705 10764 net.cpp:156] Memory required for data: 1623293984
I0928 21:17:25.784709 10764 layer_factory.hpp:77] Creating layer eltwise_stage2_block3
I0928 21:17:25.784715 10764 net.cpp:91] Creating Layer eltwise_stage2_block3
I0928 21:17:25.784718 10764 net.cpp:425] eltwise_stage2_block3 <- eltwise_stage2_block2_relu_stage2_block2_0_split_1
I0928 21:17:25.784723 10764 net.cpp:425] eltwise_stage2_block3 <- conv_stage2_block3_branch2c
I0928 21:17:25.784726 10764 net.cpp:399] eltwise_stage2_block3 -> eltwise_stage2_block3
I0928 21:17:25.784742 10764 net.cpp:141] Setting up eltwise_stage2_block3
I0928 21:17:25.784746 10764 net.cpp:148] Top shape: 8 1024 14 14 (1605632)
I0928 21:17:25.784749 10764 net.cpp:156] Memory required for data: 1629716512
I0928 21:17:25.784751 10764 layer_factory.hpp:77] Creating layer relu_stage2_block3
I0928 21:17:25.784756 10764 net.cpp:91] Creating Layer relu_stage2_block3
I0928 21:17:25.784759 10764 net.cpp:425] relu_stage2_block3 <- eltwise_stage2_block3
I0928 21:17:25.784764 10764 net.cpp:386] relu_stage2_block3 -> eltwise_stage2_block3 (in-place)
I0928 21:17:25.784871 10764 net.cpp:141] Setting up relu_stage2_block3
I0928 21:17:25.784878 10764 net.cpp:148] Top shape: 8 1024 14 14 (1605632)
I0928 21:17:25.784880 10764 net.cpp:156] Memory required for data: 1636139040
I0928 21:17:25.784883 10764 layer_factory.hpp:77] Creating layer eltwise_stage2_block3_relu_stage2_block3_0_split
I0928 21:17:25.784886 10764 net.cpp:91] Creating Layer eltwise_stage2_block3_relu_stage2_block3_0_split
I0928 21:17:25.784889 10764 net.cpp:425] eltwise_stage2_block3_relu_stage2_block3_0_split <- eltwise_stage2_block3
I0928 21:17:25.784893 10764 net.cpp:399] eltwise_stage2_block3_relu_stage2_block3_0_split -> eltwise_stage2_block3_relu_stage2_block3_0_split_0
I0928 21:17:25.784898 10764 net.cpp:399] eltwise_stage2_block3_relu_stage2_block3_0_split -> eltwise_stage2_block3_relu_stage2_block3_0_split_1
I0928 21:17:25.784925 10764 net.cpp:141] Setting up eltwise_stage2_block3_relu_stage2_block3_0_split
I0928 21:17:25.784929 10764 net.cpp:148] Top shape: 8 1024 14 14 (1605632)
I0928 21:17:25.784932 10764 net.cpp:148] Top shape: 8 1024 14 14 (1605632)
I0928 21:17:25.784935 10764 net.cpp:156] Memory required for data: 1648984096
I0928 21:17:25.784937 10764 layer_factory.hpp:77] Creating layer conv_stage2_block4_branch2a
I0928 21:17:25.784945 10764 net.cpp:91] Creating Layer conv_stage2_block4_branch2a
I0928 21:17:25.784948 10764 net.cpp:425] conv_stage2_block4_branch2a <- eltwise_stage2_block3_relu_stage2_block3_0_split_0
I0928 21:17:25.784952 10764 net.cpp:399] conv_stage2_block4_branch2a -> conv_stage2_block4_branch2a
I0928 21:17:25.787632 10764 net.cpp:141] Setting up conv_stage2_block4_branch2a
I0928 21:17:25.787642 10764 net.cpp:148] Top shape: 8 256 14 14 (401408)
I0928 21:17:25.787644 10764 net.cpp:156] Memory required for data: 1650589728
I0928 21:17:25.787649 10764 layer_factory.hpp:77] Creating layer bn_stage2_block4_branch2a
I0928 21:17:25.787655 10764 net.cpp:91] Creating Layer bn_stage2_block4_branch2a
I0928 21:17:25.787664 10764 net.cpp:425] bn_stage2_block4_branch2a <- conv_stage2_block4_branch2a
I0928 21:17:25.787669 10764 net.cpp:386] bn_stage2_block4_branch2a -> conv_stage2_block4_branch2a (in-place)
I0928 21:17:25.787798 10764 net.cpp:141] Setting up bn_stage2_block4_branch2a
I0928 21:17:25.787803 10764 net.cpp:148] Top shape: 8 256 14 14 (401408)
I0928 21:17:25.787806 10764 net.cpp:156] Memory required for data: 1652195360
I0928 21:17:25.787811 10764 layer_factory.hpp:77] Creating layer scale_stage2_block4_branch2a
I0928 21:17:25.787816 10764 net.cpp:91] Creating Layer scale_stage2_block4_branch2a
I0928 21:17:25.787818 10764 net.cpp:425] scale_stage2_block4_branch2a <- conv_stage2_block4_branch2a
I0928 21:17:25.787822 10764 net.cpp:386] scale_stage2_block4_branch2a -> conv_stage2_block4_branch2a (in-place)
I0928 21:17:25.787850 10764 layer_factory.hpp:77] Creating layer scale_stage2_block4_branch2a
I0928 21:17:25.787922 10764 net.cpp:141] Setting up scale_stage2_block4_branch2a
I0928 21:17:25.787927 10764 net.cpp:148] Top shape: 8 256 14 14 (401408)
I0928 21:17:25.787930 10764 net.cpp:156] Memory required for data: 1653800992
I0928 21:17:25.787933 10764 layer_factory.hpp:77] Creating layer relu_stage2_block4_branch2a
I0928 21:17:25.787938 10764 net.cpp:91] Creating Layer relu_stage2_block4_branch2a
I0928 21:17:25.787941 10764 net.cpp:425] relu_stage2_block4_branch2a <- conv_stage2_block4_branch2a
I0928 21:17:25.787945 10764 net.cpp:386] relu_stage2_block4_branch2a -> conv_stage2_block4_branch2a (in-place)
I0928 21:17:25.788228 10764 net.cpp:141] Setting up relu_stage2_block4_branch2a
I0928 21:17:25.788235 10764 net.cpp:148] Top shape: 8 256 14 14 (401408)
I0928 21:17:25.788239 10764 net.cpp:156] Memory required for data: 1655406624
I0928 21:17:25.788241 10764 layer_factory.hpp:77] Creating layer conv_stage2_block4_branch2b
I0928 21:17:25.788249 10764 net.cpp:91] Creating Layer conv_stage2_block4_branch2b
I0928 21:17:25.788252 10764 net.cpp:425] conv_stage2_block4_branch2b <- conv_stage2_block4_branch2a
I0928 21:17:25.788256 10764 net.cpp:399] conv_stage2_block4_branch2b -> conv_stage2_block4_branch2b
I0928 21:17:25.792942 10764 net.cpp:141] Setting up conv_stage2_block4_branch2b
I0928 21:17:25.792951 10764 net.cpp:148] Top shape: 8 256 14 14 (401408)
I0928 21:17:25.792954 10764 net.cpp:156] Memory required for data: 1657012256
I0928 21:17:25.792959 10764 layer_factory.hpp:77] Creating layer bn_stage2_block4_branch2b
I0928 21:17:25.792964 10764 net.cpp:91] Creating Layer bn_stage2_block4_branch2b
I0928 21:17:25.792968 10764 net.cpp:425] bn_stage2_block4_branch2b <- conv_stage2_block4_branch2b
I0928 21:17:25.792973 10764 net.cpp:386] bn_stage2_block4_branch2b -> conv_stage2_block4_branch2b (in-place)
I0928 21:17:25.793107 10764 net.cpp:141] Setting up bn_stage2_block4_branch2b
I0928 21:17:25.793112 10764 net.cpp:148] Top shape: 8 256 14 14 (401408)
I0928 21:17:25.793113 10764 net.cpp:156] Memory required for data: 1658617888
I0928 21:17:25.793118 10764 layer_factory.hpp:77] Creating layer scale_stage2_block4_branch2b
I0928 21:17:25.793123 10764 net.cpp:91] Creating Layer scale_stage2_block4_branch2b
I0928 21:17:25.793126 10764 net.cpp:425] scale_stage2_block4_branch2b <- conv_stage2_block4_branch2b
I0928 21:17:25.793129 10764 net.cpp:386] scale_stage2_block4_branch2b -> conv_stage2_block4_branch2b (in-place)
I0928 21:17:25.793159 10764 layer_factory.hpp:77] Creating layer scale_stage2_block4_branch2b
I0928 21:17:25.793234 10764 net.cpp:141] Setting up scale_stage2_block4_branch2b
I0928 21:17:25.793239 10764 net.cpp:148] Top shape: 8 256 14 14 (401408)
I0928 21:17:25.793241 10764 net.cpp:156] Memory required for data: 1660223520
I0928 21:17:25.793246 10764 layer_factory.hpp:77] Creating layer relu_stage2_block4_branch2b
I0928 21:17:25.793251 10764 net.cpp:91] Creating Layer relu_stage2_block4_branch2b
I0928 21:17:25.793252 10764 net.cpp:425] relu_stage2_block4_branch2b <- conv_stage2_block4_branch2b
I0928 21:17:25.793256 10764 net.cpp:386] relu_stage2_block4_branch2b -> conv_stage2_block4_branch2b (in-place)
I0928 21:17:25.793556 10764 net.cpp:141] Setting up relu_stage2_block4_branch2b
I0928 21:17:25.793565 10764 net.cpp:148] Top shape: 8 256 14 14 (401408)
I0928 21:17:25.793567 10764 net.cpp:156] Memory required for data: 1661829152
I0928 21:17:25.793570 10764 layer_factory.hpp:77] Creating layer conv_stage2_block4_branch2c
I0928 21:17:25.793577 10764 net.cpp:91] Creating Layer conv_stage2_block4_branch2c
I0928 21:17:25.793581 10764 net.cpp:425] conv_stage2_block4_branch2c <- conv_stage2_block4_branch2b
I0928 21:17:25.793586 10764 net.cpp:399] conv_stage2_block4_branch2c -> conv_stage2_block4_branch2c
I0928 21:17:25.795970 10764 net.cpp:141] Setting up conv_stage2_block4_branch2c
I0928 21:17:25.795994 10764 net.cpp:148] Top shape: 8 1024 14 14 (1605632)
I0928 21:17:25.795996 10764 net.cpp:156] Memory required for data: 1668251680
I0928 21:17:25.796000 10764 layer_factory.hpp:77] Creating layer bn_stage2_block4_branch2c
I0928 21:17:25.796005 10764 net.cpp:91] Creating Layer bn_stage2_block4_branch2c
I0928 21:17:25.796008 10764 net.cpp:425] bn_stage2_block4_branch2c <- conv_stage2_block4_branch2c
I0928 21:17:25.796013 10764 net.cpp:386] bn_stage2_block4_branch2c -> conv_stage2_block4_branch2c (in-place)
I0928 21:17:25.796159 10764 net.cpp:141] Setting up bn_stage2_block4_branch2c
I0928 21:17:25.796162 10764 net.cpp:148] Top shape: 8 1024 14 14 (1605632)
I0928 21:17:25.796180 10764 net.cpp:156] Memory required for data: 1674674208
I0928 21:17:25.796183 10764 layer_factory.hpp:77] Creating layer scale_stage2_block4_branch2c
I0928 21:17:25.796188 10764 net.cpp:91] Creating Layer scale_stage2_block4_branch2c
I0928 21:17:25.796192 10764 net.cpp:425] scale_stage2_block4_branch2c <- conv_stage2_block4_branch2c
I0928 21:17:25.796195 10764 net.cpp:386] scale_stage2_block4_branch2c -> conv_stage2_block4_branch2c (in-place)
I0928 21:17:25.796222 10764 layer_factory.hpp:77] Creating layer scale_stage2_block4_branch2c
I0928 21:17:25.796301 10764 net.cpp:141] Setting up scale_stage2_block4_branch2c
I0928 21:17:25.796306 10764 net.cpp:148] Top shape: 8 1024 14 14 (1605632)
I0928 21:17:25.796308 10764 net.cpp:156] Memory required for data: 1681096736
I0928 21:17:25.796313 10764 layer_factory.hpp:77] Creating layer eltwise_stage2_block4
I0928 21:17:25.796317 10764 net.cpp:91] Creating Layer eltwise_stage2_block4
I0928 21:17:25.796320 10764 net.cpp:425] eltwise_stage2_block4 <- eltwise_stage2_block3_relu_stage2_block3_0_split_1
I0928 21:17:25.796324 10764 net.cpp:425] eltwise_stage2_block4 <- conv_stage2_block4_branch2c
I0928 21:17:25.796326 10764 net.cpp:399] eltwise_stage2_block4 -> eltwise_stage2_block4
I0928 21:17:25.796344 10764 net.cpp:141] Setting up eltwise_stage2_block4
I0928 21:17:25.796347 10764 net.cpp:148] Top shape: 8 1024 14 14 (1605632)
I0928 21:17:25.796350 10764 net.cpp:156] Memory required for data: 1687519264
I0928 21:17:25.796352 10764 layer_factory.hpp:77] Creating layer relu_stage2_block4
I0928 21:17:25.796355 10764 net.cpp:91] Creating Layer relu_stage2_block4
I0928 21:17:25.796358 10764 net.cpp:425] relu_stage2_block4 <- eltwise_stage2_block4
I0928 21:17:25.796362 10764 net.cpp:386] relu_stage2_block4 -> eltwise_stage2_block4 (in-place)
…
I0928 21:17:26.102740 10764 net.cpp:91] Creating Layer eltwise_stage2_block3_relu_stage2_block3_0_split
I0928 21:17:26.102742 10764 net.cpp:425] eltwise_stage2_block3_relu_stage2_block3_0_split <- eltwise_stage2_block3
I0928 21:17:26.102746 10764 net.cpp:399] eltwise_stage2_block3_relu_stage2_block3_0_split -> eltwise_stage2_block3_relu_stage2_block3_0_split_0
I0928 21:17:26.102751 10764 net.cpp:399] eltwise_stage2_block3_relu_stage2_block3_0_split -> eltwise_stage2_block3_relu_stage2_block3_0_split_1
I0928 21:17:26.102787 10764 net.cpp:141] Setting up eltwise_stage2_block3_relu_stage2_block3_0_split
I0928 21:17:26.102790 10764 net.cpp:148] Top shape: 8 1024 14 14 (1605632)
I0928 21:17:26.102793 10764 net.cpp:148] Top shape: 8 1024 14 14 (1605632)
I0928 21:17:26.102795 10764 net.cpp:156] Memory required for data: 1648984160
I0928 21:17:26.102797 10764 layer_factory.hpp:77] Creating layer conv_stage2_block4_branch2a
I0928 21:17:26.102803 10764 net.cpp:91] Creating Layer conv_stage2_block4_branch2a
I0928 21:17:26.102807 10764 net.cpp:425] conv_stage2_block4_branch2a <- eltwise_stage2_block3_relu_stage2_block3_0_split_0
I0928 21:17:26.102810 10764 net.cpp:399] conv_stage2_block4_branch2a -> conv_stage2_block4_branch2a
I0928 21:17:26.105223 10764 net.cpp:141] Setting up conv_stage2_block4_branch2a
I0928 21:17:26.105232 10764 net.cpp:148] Top shape: 8 256 14 14 (401408)
I0928 21:17:26.105233 10764 net.cpp:156] Memory required for data: 1650589792
I0928 21:17:26.105237 10764 layer_factory.hpp:77] Creating layer bn_stage2_block4_branch2a
I0928 21:17:26.105242 10764 net.cpp:91] Creating Layer bn_stage2_block4_branch2a
I0928 21:17:26.105245 10764 net.cpp:425] bn_stage2_block4_branch2a <- conv_stage2_block4_branch2a
I0928 21:17:26.105249 10764 net.cpp:386] bn_stage2_block4_branch2a -> conv_stage2_block4_branch2a (in-place)
I0928 21:17:26.105418 10764 net.cpp:141] Setting up bn_stage2_block4_branch2a
I0928 21:17:26.105422 10764 net.cpp:148] Top shape: 8 256 14 14 (401408)
I0928 21:17:26.105424 10764 net.cpp:156] Memory required for data: 1652195424
I0928 21:17:26.105428 10764 layer_factory.hpp:77] Creating layer scale_stage2_block4_branch2a
I0928 21:17:26.105432 10764 net.cpp:91] Creating Layer scale_stage2_block4_branch2a
I0928 21:17:26.105434 10764 net.cpp:425] scale_stage2_block4_branch2a <- conv_stage2_block4_branch2a
I0928 21:17:26.105438 10764 net.cpp:386] scale_stage2_block4_branch2a -> conv_stage2_block4_branch2a (in-place)
I0928 21:17:26.105471 10764 layer_factory.hpp:77] Creating layer scale_stage2_block4_branch2a
I0928 21:17:26.105564 10764 net.cpp:141] Setting up scale_stage2_block4_branch2a
I0928 21:17:26.105569 10764 net.cpp:148] Top shape: 8 256 14 14 (401408)
I0928 21:17:26.105571 10764 net.cpp:156] Memory required for data: 1653801056
I0928 21:17:26.105576 10764 layer_factory.hpp:77] Creating layer relu_stage2_block4_branch2a
I0928 21:17:26.105578 10764 net.cpp:91] Creating Layer relu_stage2_block4_branch2a
I0928 21:17:26.105581 10764 net.cpp:425] relu_stage2_block4_branch2a <- conv_stage2_block4_branch2a
I0928 21:17:26.105584 10764 net.cpp:386] relu_stage2_block4_branch2a -> conv_stage2_block4_branch2a (in-place)
I0928 21:17:26.105701 10764 net.cpp:141] Setting up relu_stage2_block4_branch2a
I0928 21:17:26.105706 10764 net.cpp:148] Top shape: 8 256 14 14 (401408)
I0928 21:17:26.105708 10764 net.cpp:156] Memory required for data: 1655406688
I0928 21:17:26.105717 10764 layer_factory.hpp:77] Creating layer conv_stage2_block4_branch2b
I0928 21:17:26.105725 10764 net.cpp:91] Creating Layer conv_stage2_block4_branch2b
I0928 21:17:26.105727 10764 net.cpp:425] conv_stage2_block4_branch2b <- conv_stage2_block4_branch2a
I0928 21:17:26.105731 10764 net.cpp:399] conv_stage2_block4_branch2b -> conv_stage2_block4_branch2b
I0928 21:17:26.110936 10764 net.cpp:141] Setting up conv_stage2_block4_branch2b
I0928 21:17:26.110946 10764 net.cpp:148] Top shape: 8 256 14 14 (401408)
I0928 21:17:26.110949 10764 net.cpp:156] Memory required for data: 1657012320
I0928 21:17:26.110954 10764 layer_factory.hpp:77] Creating layer bn_stage2_block4_branch2b
I0928 21:17:26.110960 10764 net.cpp:91] Creating Layer bn_stage2_block4_branch2b
I0928 21:17:26.110963 10764 net.cpp:425] bn_stage2_block4_branch2b <- conv_stage2_block4_branch2b
I0928 21:17:26.110968 10764 net.cpp:386] bn_stage2_block4_branch2b -> conv_stage2_block4_branch2b (in-place)
I0928 21:17:26.111177 10764 net.cpp:141] Setting up bn_stage2_block4_branch2b
I0928 21:17:26.111182 10764 net.cpp:148] Top shape: 8 256 14 14 (401408)
I0928 21:17:26.111184 10764 net.cpp:156] Memory required for data: 1658617952
I0928 21:17:26.111188 10764 layer_factory.hpp:77] Creating layer scale_stage2_block4_branch2b
I0928 21:17:26.111193 10764 net.cpp:91] Creating Layer scale_stage2_block4_branch2b
I0928 21:17:26.111196 10764 net.cpp:425] scale_stage2_block4_branch2b <- conv_stage2_block4_branch2b
I0928 21:17:26.111199 10764 net.cpp:386] scale_stage2_block4_branch2b -> conv_stage2_block4_branch2b (in-place)
I0928 21:17:26.111234 10764 layer_factory.hpp:77] Creating layer scale_stage2_block4_branch2b
I0928 21:17:26.111330 10764 net.cpp:141] Setting up scale_stage2_block4_branch2b
I0928 21:17:26.111335 10764 net.cpp:148] Top shape: 8 256 14 14 (401408)
I0928 21:17:26.111337 10764 net.cpp:156] Memory required for data: 1660223584
I0928 21:17:26.111341 10764 layer_factory.hpp:77] Creating layer relu_stage2_block4_branch2b
I0928 21:17:26.111344 10764 net.cpp:91] Creating Layer relu_stage2_block4_branch2b
I0928 21:17:26.111347 10764 net.cpp:425] relu_stage2_block4_branch2b <- conv_stage2_block4_branch2b
I0928 21:17:26.111351 10764 net.cpp:386] relu_stage2_block4_branch2b -> conv_stage2_block4_branch2b (in-place)
I0928 21:17:26.111475 10764 net.cpp:141] Setting up relu_stage2_block4_branch2b
I0928 21:17:26.111480 10764 net.cpp:148] Top shape: 8 256 14 14 (401408)
I0928 21:17:26.111482 10764 net.cpp:156] Memory required for data: 1661829216
I0928 21:17:26.111485 10764 layer_factory.hpp:77] Creating layer conv_stage2_block4_branch2c
I0928 21:17:26.111490 10764 net.cpp:91] Creating Layer conv_stage2_block4_branch2c
I0928 21:17:26.111493 10764 net.cpp:425] conv_stage2_block4_branch2c <- conv_stage2_block4_branch2b
I0928 21:17:26.111498 10764 net.cpp:399] conv_stage2_block4_branch2c -> conv_stage2_block4_branch2c
I0928 21:17:26.114284 10764 net.cpp:141] Setting up conv_stage2_block4_branch2c
I0928 21:17:26.114294 10764 net.cpp:148] Top shape: 8 1024 14 14 (1605632)
I0928 21:17:26.114295 10764 net.cpp:156] Memory required for data: 1668251744
I0928 21:17:26.114300 10764 layer_factory.hpp:77] Creating layer bn_stage2_block4_branch2c
I0928 21:17:26.114305 10764 net.cpp:91] Creating Layer bn_stage2_block4_branch2c
I0928 21:17:26.114307 10764 net.cpp:425] bn_stage2_block4_branch2c <- conv_stage2_block4_branch2c
I0928 21:17:26.114312 10764 net.cpp:386] bn_stage2_block4_branch2c -> conv_stage2_block4_branch2c (in-place)
I0928 21:17:26.114487 10764 net.cpp:141] Setting up bn_stage2_block4_branch2c
I0928 21:17:26.114491 10764 net.cpp:148] Top shape: 8 1024 14 14 (1605632)
I0928 21:17:26.114493 10764 net.cpp:156] Memory required for data: 1674674272
I0928 21:17:26.114498 10764 layer_factory.hpp:77] Creating layer scale_stage2_block4_branch2c
I0928 21:17:26.114502 10764 net.cpp:91] Creating Layer scale_stage2_block4_branch2c
I0928 21:17:26.114504 10764 net.cpp:425] scale_stage2_block4_branch2c <- conv_stage2_block4_branch2c
I0928 21:17:26.114518 10764 net.cpp:386] scale_stage2_block4_branch2c -> conv_stage2_block4_branch2c (in-place)
I0928 21:17:26.114554 10764 layer_factory.hpp:77] Creating layer scale_stage2_block4_branch2c
I0928 21:17:26.114655 10764 net.cpp:141] Setting up scale_stage2_block4_branch2c
I0928 21:17:26.114660 10764 net.cpp:148] Top shape: 8 1024 14 14 (1605632)
I0928 21:17:26.114662 10764 net.cpp:156] Memory required for data: 1681096800
I0928 21:17:26.114665 10764 layer_factory.hpp:77] Creating layer eltwise_stage2_block4
I0928 21:17:26.114670 10764 net.cpp:91] Creating Layer eltwise_stage2_block4
I0928 21:17:26.114673 10764 net.cpp:425] eltwise_stage2_block4 <- eltwise_stage2_block3_relu_stage2_block3_0_split_1
I0928 21:17:26.114676 10764 net.cpp:425] eltwise_stage2_block4 <- conv_stage2_block4_branch2c
I0928 21:17:26.114681 10764 net.cpp:399] eltwise_stage2_block4 -> eltwise_stage2_block4
I0928 21:17:26.114701 10764 net.cpp:141] Setting up eltwise_stage2_block4
I0928 21:17:26.114703 10764 net.cpp:148] Top shape: 8 1024 14 14 (1605632)
I0928 21:17:26.114706 10764 net.cpp:156] Memory required for data: 1687519328
I0928 21:17:26.114708 10764 layer_factory.hpp:77] Creating layer relu_stage2_block4
I0928 21:17:26.114711 10764 net.cpp:91] Creating Layer relu_stage2_block4
I0928 21:17:26.114714 10764 net.cpp:425] relu_stage2_block4 <- eltwise_stage2_block4
I0928 21:17:26.114717 10764 net.cpp:386] relu_stage2_block4 -> eltwise_stage2_block4 (in-place)
I0928 21:17:26.114836 10764 net.cpp:141] Setting up relu_stage2_block4
I0928 21:17:26.114841 10764 net.cpp:148] Top shape: 8 1024 14 14 (1605632)
I0928 21:17:26.114843 10764 net.cpp:156] Memory required for data: 1693941856
I0928 21:17:26.114845 10764 layer_factory.hpp:77] Creating layer eltwise_stage2_block4_relu_stage2_block4_0_split
I0928 21:17:26.114850 10764 net.cpp:91] Creating Layer eltwise_stage2_block4_relu_stage2_block4_0_split
I0928 21:17:26.114851 10764 net.cpp:425] eltwise_stage2_block4_relu_stage2_block4_0_split <- eltwise_stage2_block4
I0928 21:17:26.114855 10764 net.cpp:399] eltwise_stage2_block4_relu_stage2_block4_0_split -> eltwise_stage2_block4_relu_stage2_block4_0_split_0
I0928 21:17:26.114859 10764 net.cpp:399] eltwise_stage2_block4_relu_stage2_block4_0_split -> eltwise_stage2_block4_relu_stage2_block4_0_split_1
I0928 21:17:26.114893 10764 net.cpp:141] Setting up eltwise_stage2_block4_relu_stage2_block4_0_split
I0928 21:17:26.114897 10764 net.cpp:148] Top shape: 8 1024 14 14 (1605632)
I0928 21:17:26.114899 10764 net.cpp:148] Top shape: 8 1024 14 14 (1605632)
I0928 21:17:26.114902 10764 net.cpp:156] Memory required for data: 1706786912
I0928 21:17:26.114903 10764 layer_factory.hpp:77] Creating layer conv_stage2_block5_branch2a
I0928 21:17:26.114909 10764 net.cpp:91] Creating Layer conv_stage2_block5_branch2a
I0928 21:17:26.114912 10764 net.cpp:425] conv_stage2_block5_branch2a <- eltwise_stage2_block4_relu_stage2_block4_0_split_0
I0928 21:17:26.114917 10764 net.cpp:399] conv_stage2_block5_branch2a -> conv_stage2_block5_branch2a
I0928 21:17:26.117480 10764 net.cpp:141] Setting up conv_stage2_block5_branch2a
I0928 21:17:26.117487 10764 net.cpp:148] Top shape: 8 256 14 14 (401408)
I0928 21:17:26.117489 10764 net.cpp:156] Memory required for data: 1708392544
I0928 21:17:26.117493 10764 layer_factory.hpp:77] Creating layer bn_stage2_block5_branch2a
I0928 21:17:26.117499 10764 net.cpp:91] Creating Layer bn_stage2_block5_branch2a
I0928 21:17:26.117502 10764 net.cpp:425] bn_stage2_block5_branch2a <- conv_stage2_block5_branch2a
I0928 21:17:26.117506 10764 net.cpp:386] bn_stage2_block5_branch2a -> conv_stage2_block5_branch2a (in-place)
I0928 21:17:26.117679 10764 net.cpp:141] Setting up bn_stage2_block5_branch2a
I0928 21:17:26.117683 10764 net.cpp:148] Top shape: 8 256 14 14 (401408)
I0928 21:17:26.117686 10764 net.cpp:156] Memory required for data: 1709998176
I0928 21:17:26.117689 10764 layer_factory.hpp:77] Creating layer scale_stage2_block5_branch2a
I0928 21:17:26.117693 10764 net.cpp:91] Creating Layer scale_stage2_block5_branch2a
I0928 21:17:26.117696 10764 net.cpp:425] scale_stage2_block5_branch2a <- conv_stage2_block5_branch2a
I0928 21:17:26.117707 10764 net.cpp:386] scale_stage2_block5_branch2a -> conv_stage2_block5_branch2a (in-place)
I0928 21:17:26.117741 10764 layer_factory.hpp:77] Creating layer scale_stage2_block5_branch2a
I0928 21:17:26.117835 10764 net.cpp:141] Setting up scale_stage2_block5_branch2a
I0928 21:17:26.117841 10764 net.cpp:148] Top shape: 8 256 14 14 (401408)
I0928 21:17:26.117843 10764 net.cpp:156] Memory required for data: 1711603808
I0928 21:17:26.117846 10764 layer_factory.hpp:77] Creating layer relu_stage2_block5_branch2a
I0928 21:17:26.117851 10764 net.cpp:91] Creating Layer relu_stage2_block5_branch2a
I0928 21:17:26.117852 10764 net.cpp:425] relu_stage2_block5_branch2a <- conv_stage2_block5_branch2a
I0928 21:17:26.117856 10764 net.cpp:386] relu_stage2_block5_branch2a -> conv_stage2_block5_branch2a (in-place)
I0928 21:17:26.117980 10764 net.cpp:141] Setting up relu_stage2_block5_branch2a
I0928 21:17:26.117985 10764 net.cpp:148] Top shape: 8 256 14 14 (401408)
I0928 21:17:26.129673 10764 net.cpp:156] Memory required for data: 1713209440
I0928 21:17:26.129679 10764 layer_factory.hpp:77] Creating layer conv_stage2_block5_branch2b
I0928 21:17:26.129688 10764 net.cpp:91] Creating Layer conv_stage2_block5_branch2b
I0928 21:17:26.129693 10764 net.cpp:425] conv_stage2_block5_branch2b <- conv_stage2_block5_branch2a
I0928 21:17:26.129698 10764 net.cpp:399] conv_stage2_block5_branch2b -> conv_stage2_block5_branch2b
I0928 21:17:26.134953 10764 net.cpp:141] Setting up conv_stage2_block5_branch2b
I0928 21:17:26.134965 10764 net.cpp:148] Top shape: 8 256 14 14 (401408)
I0928 21:17:26.134968 10764 net.cpp:156] Memory required for data: 1714815072
I0928 21:17:26.134974 10764 layer_factory.hpp:77] Creating layer bn_stage2_block5_branch2b
I0928 21:17:26.134980 10764 net.cpp:91] Creating Layer bn_stage2_block5_branch2b
I0928 21:17:26.134984 10764 net.cpp:425] bn_stage2_block5_branch2b <- conv_stage2_block5_branch2b
I0928 21:17:26.134989 10764 net.cpp:386] bn_stage2_block5_branch2b -> conv_stage2_block5_branch2b (in-place)
I0928 21:17:26.135179 10764 net.cpp:141] Setting up bn_stage2_block5_branch2b
I0928 21:17:26.135184 10764 net.cpp:148] Top shape: 8 256 14 14 (401408)
I0928 21:17:26.135185 10764 net.cpp:156] Memory required for data: 1716420704
I0928 21:17:26.135190 10764 layer_factory.hpp:77] Creating layer scale_stage2_block5_branch2b
I0928 21:17:26.135195 10764 net.cpp:91] Creating Layer scale_stage2_block5_branch2b
I0928 21:17:26.135198 10764 net.cpp:425] scale_stage2_block5_branch2b <- conv_stage2_block5_branch2b
I0928 21:17:26.135202 10764 net.cpp:386] scale_stage2_block5_branch2b -> conv_stage2_block5_branch2b (in-place)
I0928 21:17:26.135239 10764 layer_factory.hpp:77] Creating layer scale_stage2_block5_branch2b
I0928 21:17:26.135340 10764 net.cpp:141] Setting up scale_stage2_block5_branch2b
I0928 21:17:26.135345 10764 net.cpp:148] Top shape: 8 256 14 14 (401408)
I0928 21:17:26.135347 10764 net.cpp:156] Memory required for data: 1718026336
I0928 21:17:26.135351 10764 layer_factory.hpp:77] Creating layer relu_stage2_block5_branch2b
I0928 21:17:26.135355 10764 net.cpp:91] Creating Layer relu_stage2_block5_branch2b
I0928 21:17:26.135357 10764 net.cpp:425] relu_stage2_block5_branch2b <- conv_stage2_block5_branch2b
I0928 21:17:26.135360 10764 net.cpp:386] relu_stage2_block5_branch2b -> conv_stage2_block5_branch2b (in-place)
I0928 21:17:26.135696 10764 net.cpp:141] Setting up relu_stage2_block5_branch2b
I0928 21:17:26.135704 10764 net.cpp:148] Top shape: 8 256 14 14 (401408)
I0928 21:17:26.135706 10764 net.cpp:156] Memory required for data: 1719631968
I0928 21:17:26.135709 10764 layer_factory.hpp:77] Creating layer conv_stage2_block5_branch2c
I0928 21:17:26.135715 10764 net.cpp:91] Creating Layer conv_stage2_block5_branch2c
I0928 21:17:26.135718 10764 net.cpp:425] conv_stage2_block5_branch2c <- conv_stage2_block5_branch2b
I0928 21:17:26.135723 10764 net.cpp:399] conv_stage2_block5_branch2c -> conv_stage2_block5_branch2c
I0928 21:17:26.138348 10764 net.cpp:141] Setting up conv_stage2_block5_branch2c
I0928 21:17:26.138372 10764 net.cpp:148] Top shape: 8 1024 14 14 (1605632)
I0928 21:17:26.138376 10764 net.cpp:156] Memory required for data: 1726054496
I0928 21:17:26.138381 10764 layer_factory.hpp:77] Creating layer bn_stage2_block5_branch2c
I0928 21:17:26.138387 10764 net.cpp:91] Creating Layer bn_stage2_block5_branch2c
I0928 21:17:26.138391 10764 net.cpp:425] bn_stage2_block5_branch2c <- conv_stage2_block5_branch2c
I0928 21:17:26.138397 10764 net.cpp:386] bn_stage2_block5_branch2c -> conv_stage2_block5_branch2c (in-place)
I0928 21:17:26.138998 10764 net.cpp:141] Setting up bn_stage2_block5_branch2c
I0928 21:17:26.139010 10764 net.cpp:148] Top shape: 8 1024 14 14 (1605632)
I0928 21:17:26.139013 10764 net.cpp:156] Memory required for data: 1732477024
I0928 21:17:26.139019 10764 layer_factory.hpp:77] Creating layer scale_stage2_block5_branch2c
I0928 21:17:26.139024 10764 net.cpp:91] Creating Layer scale_stage2_block5_branch2c
I0928 21:17:26.139027 10764 net.cpp:425] scale_stage2_block5_branch2c <- conv_stage2_block5_branch2c
I0928 21:17:26.139031 10764 net.cpp:386] scale_stage2_block5_branch2c -> conv_stage2_block5_branch2c (in-place)
I0928 21:17:26.139066 10764 layer_factory.hpp:77] Creating layer scale_stage2_block5_branch2c
I0928 21:17:26.139140 10764 net.cpp:141] Setting up scale_stage2_block5_branch2c
I0928 21:17:26.139144 10764 net.cpp:148] Top shape: 8 1024 14 14 (1605632)
I0928 21:17:26.139147 10764 net.cpp:156] Memory required for data: 1738899552
I0928 21:17:26.139150 10764 layer_factory.hpp:77] Creating layer eltwise_stage2_block5
I0928 21:17:26.139154 10764 net.cpp:91] Creating Layer eltwise_stage2_block5
I0928 21:17:26.139158 10764 net.cpp:425] eltwise_stage2_block5 <- eltwise_stage2_block4_relu_stage2_block4_0_split_1
I0928 21:17:26.139161 10764 net.cpp:425] eltwise_stage2_block5 <- conv_stage2_block5_branch2c
I0928 21:17:26.139164 10764 net.cpp:399] eltwise_stage2_block5 -> eltwise_stage2_block5
I0928 21:17:26.139179 10764 net.cpp:141] Setting up eltwise_stage2_block5
I0928 21:17:26.139183 10764 net.cpp:148] Top shape: 8 1024 14 14 (1605632)
I0928 21:17:26.139185 10764 net.cpp:156] Memory required for data: 1745322080
I0928 21:17:26.139189 10764 layer_factory.hpp:77] Creating layer relu_stage2_block5
I0928 21:17:26.139191 10764 net.cpp:91] Creating Layer relu_stage2_block5
I0928 21:17:26.139194 10764 net.cpp:425] relu_stage2_block5 <- eltwise_stage2_block5
I0928 21:17:26.139196 10764 net.cpp:386] relu_stage2_block5 -> eltwise_stage2_block5 (in-place)
I0928 21:17:26.139574 10764 net.cpp:141] Setting up relu_stage2_block5
I0928 21:17:26.139581 10764 net.cpp:148] Top shape: 8 1024 14 14 (1605632)
I0928 21:17:26.139583 10764 net.cpp:156] Memory required for data: 1751744608
I0928 21:17:26.139586 10764 layer_factory.hpp:77] Creating layer eltwise_stage2_block5_relu_stage2_block5_0_split
I0928 21:17:26.139590 10764 net.cpp:91] Creating Layer eltwise_stage2_block5_relu_stage2_block5_0_split
I0928 21:17:26.139593 10764 net.cpp:425] eltwise_stage2_block5_relu_stage2_block5_0_split <- eltwise_stage2_block5
I0928 21:17:26.139596 10764 net.cpp:399] eltwise_stage2_block5_relu_stage2_block5_0_split -> eltwise_stage2_block5_relu_stage2_block5_0_split_0
I0928 21:17:26.139602 10764 net.cpp:399] eltwise_stage2_block5_relu_stage2_block5_0_split -> eltwise_stage2_block5_relu_stage2_block5_0_split_1
I0928 21:17:26.139632 10764 net.cpp:141] Setting up eltwise_stage2_block5_relu_stage2_block5_0_split
I0928 21:17:26.139638 10764 net.cpp:148] Top shape: 8 1024 14 14 (1605632)
I0928 21:17:26.139642 10764 net.cpp:148] Top shape: 8 1024 14 14 (1605632)
I0928 21:17:26.139644 10764 net.cpp:156] Memory required for data: 1764589664
I0928 21:17:26.139647 10764 layer_factory.hpp:77] Creating layer conv_stage3_block0_proj_shortcut
I0928 21:17:26.139657 10764 net.cpp:91] Creating Layer conv_stage3_block0_proj_shortcut
I0928 21:17:26.139660 10764 net.cpp:425] conv_stage3_block0_proj_shortcut <- eltwise_stage2_block5_relu_stage2_block5_0_split_0
I0928 21:17:26.139667 10764 net.cpp:399] conv_stage3_block0_proj_shortcut -> conv_stage3_block0_proj_shortcut
I0928 21:17:26.154700 10764 net.cpp:141] Setting up conv_stage3_block0_proj_shortcut
I0928 21:17:26.154717 10764 net.cpp:148] Top shape: 8 2048 7 7 (802816)
I0928 21:17:26.154721 10764 net.cpp:156] Memory required for data: 1767800928
I0928 21:17:26.154726 10764 layer_factory.hpp:77] Creating layer bn_stage3_block0_proj_shortcut
I0928 21:17:26.154736 10764 net.cpp:91] Creating Layer bn_stage3_block0_proj_shortcut
I0928 21:17:26.154739 10764 net.cpp:425] bn_stage3_block0_proj_shortcut <- conv_stage3_block0_proj_shortcut
I0928 21:17:26.154744 10764 net.cpp:386] bn_stage3_block0_proj_shortcut -> conv_stage3_block0_proj_shortcut (in-place)
I0928 21:17:26.154871 10764 net.cpp:141] Setting up bn_stage3_block0_proj_shortcut
I0928 21:17:26.154875 10764 net.cpp:148] Top shape: 8 2048 7 7 (802816)
I0928 21:17:26.154877 10764 net.cpp:156] Memory required for data: 1771012192
I0928 21:17:26.160895 10764 layer_factory.hpp:77] Creating layer scale_stage3_block0_proj_shortcut
I0928 21:17:26.160923 10764 net.cpp:91] Creating Layer scale_stage3_block0_proj_shortcut
I0928 21:17:26.160928 10764 net.cpp:425] scale_stage3_block0_proj_shortcut <- conv_stage3_block0_proj_shortcut
I0928 21:17:26.160933 10764 net.cpp:386] scale_stage3_block0_proj_shortcut -> conv_stage3_block0_proj_shortcut (in-place)
I0928 21:17:26.160987 10764 layer_factory.hpp:77] Creating layer scale_stage3_block0_proj_shortcut
I0928 21:17:26.161070 10764 net.cpp:141] Setting up scale_stage3_block0_proj_shortcut
I0928 21:17:26.161075 10764 net.cpp:148] Top shape: 8 2048 7 7 (802816)
I0928 21:17:26.161077 10764 net.cpp:156] Memory required for data: 1774223456
I0928 21:17:26.161082 10764 layer_factory.hpp:77] Creating layer conv_stage3_block0_branch2a
I0928 21:17:26.161089 10764 net.cpp:91] Creating Layer conv_stage3_block0_branch2a
I0928 21:17:26.161092 10764 net.cpp:425] conv_stage3_block0_branch2a <- eltwise_stage2_block5_relu_stage2_block5_0_split_1
I0928 21:17:26.161098 10764 net.cpp:399] conv_stage3_block0_branch2a -> conv_stage3_block0_branch2a
I0928 21:17:26.165508 10764 net.cpp:141] Setting up conv_stage3_block0_branch2a
I0928 21:17:26.165518 10764 net.cpp:148] Top shape: 8 512 7 7 (200704)
I0928 21:17:26.165520 10764 net.cpp:156] Memory required for data: 1775026272
I0928 21:17:26.165525 10764 layer_factory.hpp:77] Creating layer bn_stage3_block0_branch2a
I0928 21:17:26.165531 10764 net.cpp:91] Creating Layer bn_stage3_block0_branch2a
I0928 21:17:26.165535 10764 net.cpp:425] bn_stage3_block0_branch2a <- conv_stage3_block0_branch2a
I0928 21:17:26.165540 10764 net.cpp:386] bn_stage3_block0_branch2a -> conv_stage3_block0_branch2a (in-place)
I0928 21:17:26.165668 10764 net.cpp:141] Setting up bn_stage3_block0_branch2a
I0928 21:17:26.165673 10764 net.cpp:148] Top shape: 8 512 7 7 (200704)
I0928 21:17:26.165675 10764 net.cpp:156] Memory required for data: 1775829088
I0928 21:17:26.165679 10764 layer_factory.hpp:77] Creating layer scale_stage3_block0_branch2a
I0928 21:17:26.165684 10764 net.cpp:91] Creating Layer scale_stage3_block0_branch2a
I0928 21:17:26.165688 10764 net.cpp:425] scale_stage3_block0_branch2a <- conv_stage3_block0_branch2a
I0928 21:17:26.165690 10764 net.cpp:386] scale_stage3_block0_branch2a -> conv_stage3_block0_branch2a (in-place)
I0928 21:17:26.165721 10764 layer_factory.hpp:77] Creating layer scale_stage3_block0_branch2a
I0928 21:17:26.165793 10764 net.cpp:141] Setting up scale_stage3_block0_branch2a
I0928 21:17:26.165797 10764 net.cpp:148] Top shape: 8 512 7 7 (200704)
I0928 21:17:26.165799 10764 net.cpp:156] Memory required for data: 1776631904
I0928 21:17:26.165803 10764 layer_factory.hpp:77] Creating layer relu_stage3_block0_branch2a
I0928 21:17:26.165807 10764 net.cpp:91] Creating Layer relu_stage3_block0_branch2a
I0928 21:17:26.165810 10764 net.cpp:425] relu_stage3_block0_branch2a <- conv_stage3_block0_branch2a
I0928 21:17:26.165813 10764 net.cpp:386] relu_stage3_block0_branch2a -> conv_stage3_block0_branch2a (in-place)
I0928 21:17:26.165936 10764 net.cpp:141] Setting up relu_stage3_block0_branch2a
I0928 21:17:26.165951 10764 net.cpp:148] Top shape: 8 512 7 7 (200704)
I0928 21:17:26.165953 10764 net.cpp:156] Memory required for data: 1777434720
I0928 21:17:26.165956 10764 layer_factory.hpp:77] Creating layer conv_stage3_block0_branch2b
I0928 21:17:26.165962 10764 net.cpp:91] Creating Layer conv_stage3_block0_branch2b
I0928 21:17:26.165964 10764 net.cpp:425] conv_stage3_block0_branch2b <- conv_stage3_block0_branch2a
I0928 21:17:26.165969 10764 net.cpp:399] conv_stage3_block0_branch2b -> conv_stage3_block0_branch2b
I0928 21:17:26.185233 10764 net.cpp:141] Setting up conv_stage3_block0_branch2b
I0928 21:17:26.185250 10764 net.cpp:148] Top shape: 8 512 7 7 (200704)
I0928 21:17:26.185252 10764 net.cpp:156] Memory required for data: 1778237536
I0928 21:17:26.185258 10764 layer_factory.hpp:77] Creating layer bn_stage3_block0_branch2b
I0928 21:17:26.185267 10764 net.cpp:91] Creating Layer bn_stage3_block0_branch2b
I0928 21:17:26.185272 10764 net.cpp:425] bn_stage3_block0_branch2b <- conv_stage3_block0_branch2b
I0928 21:17:26.185277 10764 net.cpp:386] bn_stage3_block0_branch2b -> conv_stage3_block0_branch2b (in-place)
I0928 21:17:26.185427 10764 net.cpp:141] Setting up bn_stage3_block0_branch2b
I0928 21:17:26.185432 10764 net.cpp:148] Top shape: 8 512 7 7 (200704)
I0928 21:17:26.185434 10764 net.cpp:156] Memory required for data: 1779040352
I0928 21:17:26.185438 10764 layer_factory.hpp:77] Creating layer scale_stage3_block0_branch2b
I0928 21:17:26.185446 10764 net.cpp:91] Creating Layer scale_stage3_block0_branch2b
I0928 21:17:26.185448 10764 net.cpp:425] scale_stage3_block0_branch2b <- conv_stage3_block0_branch2b
I0928 21:17:26.185451 10764 net.cpp:386] scale_stage3_block0_branch2b -> conv_stage3_block0_branch2b (in-place)
I0928 21:17:26.185484 10764 layer_factory.hpp:77] Creating layer scale_stage3_block0_branch2b
I0928 21:17:26.185571 10764 net.cpp:141] Setting up scale_stage3_block0_branch2b
I0928 21:17:26.185575 10764 net.cpp:148] Top shape: 8 512 7 7 (200704)
I0928 21:17:26.185577 10764 net.cpp:156] Memory required for data: 1779843168
I0928 21:17:26.185581 10764 layer_factory.hpp:77] Creating layer relu_stage3_block0_branch2b
I0928 21:17:26.185586 10764 net.cpp:91] Creating Layer relu_stage3_block0_branch2b
I0928 21:17:26.185590 10764 net.cpp:425] relu_stage3_block0_branch2b <- conv_stage3_block0_branch2b
I0928 21:17:26.185592 10764 net.cpp:386] relu_stage3_block0_branch2b -> conv_stage3_block0_branch2b (in-place)
I0928 21:17:26.185715 10764 net.cpp:141] Setting up relu_stage3_block0_branch2b
I0928 21:17:26.185720 10764 net.cpp:148] Top shape: 8 512 7 7 (200704)
I0928 21:17:26.185722 10764 net.cpp:156] Memory required for data: 1780645984
I0928 21:17:26.185724 10764 layer_factory.hpp:77] Creating layer conv_stage3_block0_branch2c
I0928 21:17:26.185731 10764 net.cpp:91] Creating Layer conv_stage3_block0_branch2c
I0928 21:17:26.185734 10764 net.cpp:425] conv_stage3_block0_branch2c <- conv_stage3_block0_branch2b
I0928 21:17:26.185739 10764 net.cpp:399] conv_stage3_block0_branch2c -> conv_stage3_block0_branch2c
I0928 21:17:26.196107 10764 net.cpp:141] Setting up conv_stage3_block0_branch2c
I0928 21:17:26.196125 10764 net.cpp:148] Top shape: 8 2048 7 7 (802816)
I0928 21:17:26.196127 10764 net.cpp:156] Memory required for data: 1783857248
I0928 21:17:26.196133 10764 layer_factory.hpp:77] Creating layer bn_stage3_block0_branch2c
I0928 21:17:26.196141 10764 net.cpp:91] Creating Layer bn_stage3_block0_branch2c
I0928 21:17:26.196146 10764 net.cpp:425] bn_stage3_block0_branch2c <- conv_stage3_block0_branch2c
I0928 21:17:26.196153 10764 net.cpp:386] bn_stage3_block0_branch2c -> conv_stage3_block0_branch2c (in-place)
I0928 21:17:26.196292 10764 net.cpp:141] Setting up bn_stage3_block0_branch2c
I0928 21:17:26.196296 10764 net.cpp:148] Top shape: 8 2048 7 7 (802816)
I0928 21:17:26.196298 10764 net.cpp:156] Memory required for data: 1787068512
I0928 21:17:26.196303 10764 layer_factory.hpp:77] Creating layer scale_stage3_block0_branch2c
I0928 21:17:26.196310 10764 net.cpp:91] Creating Layer scale_stage3_block0_branch2c
I0928 21:17:26.196311 10764 net.cpp:425] scale_stage3_block0_branch2c <- conv_stage3_block0_branch2c
I0928 21:17:26.196323 10764 net.cpp:386] scale_stage3_block0_branch2c -> conv_stage3_block0_branch2c (in-place)
I0928 21:17:26.196358 10764 layer_factory.hpp:77] Creating layer scale_stage3_block0_branch2c
I0928 21:17:26.196435 10764 net.cpp:141] Setting up scale_stage3_block0_branch2c
I0928 21:17:26.196439 10764 net.cpp:148] Top shape: 8 2048 7 7 (802816)
I0928 21:17:26.196441 10764 net.cpp:156] Memory required for data: 1790279776
I0928 21:17:26.196445 10764 layer_factory.hpp:77] Creating layer eltwise_stage3_block0
I0928 21:17:26.196450 10764 net.cpp:91] Creating Layer eltwise_stage3_block0
I0928 21:17:26.196452 10764 net.cpp:425] eltwise_stage3_block0 <- conv_stage3_block0_proj_shortcut
I0928 21:17:26.196455 10764 net.cpp:425] eltwise_stage3_block0 <- conv_stage3_block0_branch2c
I0928 21:17:26.196460 10764 net.cpp:399] eltwise_stage3_block0 -> eltwise_stage3_block0
I0928 21:17:26.196475 10764 net.cpp:141] Setting up eltwise_stage3_block0
I0928 21:17:26.196478 10764 net.cpp:148] Top shape: 8 2048 7 7 (802816)
I0928 21:17:26.196481 10764 net.cpp:156] Memory required for data: 1793491040
I0928 21:17:26.196483 10764 layer_factory.hpp:77] Creating layer relu_stage3_block0
I0928 21:17:26.196487 10764 net.cpp:91] Creating Layer relu_stage3_block0
I0928 21:17:26.196490 10764 net.cpp:425] relu_stage3_block0 <- eltwise_stage3_block0
I0928 21:17:26.196492 10764 net.cpp:386] relu_stage3_block0 -> eltwise_stage3_block0 (in-place)
I0928 21:17:26.196616 10764 net.cpp:141] Setting up relu_stage3_block0
I0928 21:17:26.196621 10764 net.cpp:148] Top shape: 8 2048 7 7 (802816)
I0928 21:17:26.196624 10764 net.cpp:156] Memory required for data: 1796702304
I0928 21:17:26.196625 10764 layer_factory.hpp:77] Creating layer eltwise_stage3_block0_relu_stage3_block0_0_split
I0928 21:17:26.196630 10764 net.cpp:91] Creating Layer eltwise_stage3_block0_relu_stage3_block0_0_split
I0928 21:17:26.196632 10764 net.cpp:425] eltwise_stage3_block0_relu_stage3_block0_0_split <- eltwise_stage3_block0
I0928 21:17:26.196636 10764 net.cpp:399] eltwise_stage3_block0_relu_stage3_block0_0_split -> eltwise_stage3_block0_relu_stage3_block0_0_split_0
I0928 21:17:26.196640 10764 net.cpp:399] eltwise_stage3_block0_relu_stage3_block0_0_split -> eltwise_stage3_block0_relu_stage3_block0_0_split_1
I0928 21:17:26.196665 10764 net.cpp:141] Setting up eltwise_stage3_block0_relu_stage3_block0_0_split
I0928 21:17:26.196667 10764 net.cpp:148] Top shape: 8 2048 7 7 (802816)
I0928 21:17:26.196671 10764 net.cpp:148] Top shape: 8 2048 7 7 (802816)
I0928 21:17:26.196672 10764 net.cpp:156] Memory required for data: 1803124832
I0928 21:17:26.196674 10764 layer_factory.hpp:77] Creating layer conv_stage3_block1_branch2a
I0928 21:17:26.196681 10764 net.cpp:91] Creating Layer conv_stage3_block1_branch2a
I0928 21:17:26.196684 10764 net.cpp:425] conv_stage3_block1_branch2a <- eltwise_stage3_block0_relu_stage3_block0_0_split_0
I0928 21:17:26.196688 10764 net.cpp:399] conv_stage3_block1_branch2a -> conv_stage3_block1_branch2a
I0928 21:17:26.204933 10764 net.cpp:141] Setting up conv_stage3_block1_branch2a
I0928 21:17:26.204949 10764 net.cpp:148] Top shape: 8 512 7 7 (200704)
I0928 21:17:26.204952 10764 net.cpp:156] Memory required for data: 1803927648
I0928 21:17:26.204957 10764 layer_factory.hpp:77] Creating layer bn_stage3_block1_branch2a
I0928 21:17:26.204964 10764 net.cpp:91] Creating Layer bn_stage3_block1_branch2a
I0928 21:17:26.204968 10764 net.cpp:425] bn_stage3_block1_branch2a <- conv_stage3_block1_branch2a
I0928 21:17:26.204974 10764 net.cpp:386] bn_stage3_block1_branch2a -> conv_stage3_block1_branch2a (in-place)
I0928 21:17:26.205112 10764 net.cpp:141] Setting up bn_stage3_block1_branch2a
I0928 21:17:26.205117 10764 net.cpp:148] Top shape: 8 512 7 7 (200704)
I0928 21:17:26.205119 10764 net.cpp:156] Memory required for data: 1804730464
I0928 21:17:26.205124 10764 layer_factory.hpp:77] Creating layer scale_stage3_block1_branch2a
I0928 21:17:26.205129 10764 net.cpp:91] Creating Layer scale_stage3_block1_branch2a
I0928 21:17:26.205143 10764 net.cpp:425] scale_stage3_block1_branch2a <- conv_stage3_block1_branch2a
I0928 21:17:26.205147 10764 net.cpp:386] scale_stage3_block1_branch2a -> conv_stage3_block1_branch2a (in-place)
I0928 21:17:26.205181 10764 layer_factory.hpp:77] Creating layer scale_stage3_block1_branch2a
I0928 21:17:26.205256 10764 net.cpp:141] Setting up scale_stage3_block1_branch2a
I0928 21:17:26.205260 10764 net.cpp:148] Top shape: 8 512 7 7 (200704)
I0928 21:17:26.205262 10764 net.cpp:156] Memory required for data: 1805533280
I0928 21:17:26.205266 10764 layer_factory.hpp:77] Creating layer relu_stage3_block1_branch2a
I0928 21:17:26.205270 10764 net.cpp:91] Creating Layer relu_stage3_block1_branch2a
I0928 21:17:26.205272 10764 net.cpp:425] relu_stage3_block1_branch2a <- conv_stage3_block1_branch2a
I0928 21:17:26.205276 10764 net.cpp:386] relu_stage3_block1_branch2a -> conv_stage3_block1_branch2a (in-place)
I0928 21:17:26.205399 10764 net.cpp:141] Setting up relu_stage3_block1_branch2a
I0928 21:17:26.205404 10764 net.cpp:148] Top shape: 8 512 7 7 (200704)
I0928 21:17:26.205406 10764 net.cpp:156] Memory required for data: 1806336096
I0928 21:17:26.205409 10764 layer_factory.hpp:77] Creating layer conv_stage3_block1_branch2b
I0928 21:17:26.205416 10764 net.cpp:91] Creating Layer conv_stage3_block1_branch2b
I0928 21:17:26.205418 10764 net.cpp:425] conv_stage3_block1_branch2b <- conv_stage3_block1_branch2a
I0928 21:17:26.205422 10764 net.cpp:399] conv_stage3_block1_branch2b -> conv_stage3_block1_branch2b
I0928 21:17:26.222213 10764 net.cpp:141] Setting up conv_stage3_block1_branch2b
I0928 21:17:26.222229 10764 net.cpp:148] Top shape: 8 512 7 7 (200704)
I0928 21:17:26.222232 10764 net.cpp:156] Memory required for data: 1807138912
I0928 21:17:26.222239 10764 layer_factory.hpp:77] Creating layer bn_stage3_block1_branch2b
I0928 21:17:26.222246 10764 net.cpp:91] Creating Layer bn_stage3_block1_branch2b
I0928 21:17:26.222251 10764 net.cpp:425] bn_stage3_block1_branch2b <- conv_stage3_block1_branch2b
I0928 21:17:26.222257 10764 net.cpp:386] bn_stage3_block1_branch2b -> conv_stage3_block1_branch2b (in-place)
I0928 21:17:26.222393 10764 net.cpp:141] Setting up bn_stage3_block1_branch2b
I0928 21:17:26.222398 10764 net.cpp:148] Top shape: 8 512 7 7 (200704)
I0928 21:17:26.222399 10764 net.cpp:156] Memory required for data: 1807941728
I0928 21:17:26.222404 10764 layer_factory.hpp:77] Creating layer scale_stage3_block1_branch2b
I0928 21:17:26.222409 10764 net.cpp:91] Creating Layer scale_stage3_block1_branch2b
I0928 21:17:26.222412 10764 net.cpp:425] scale_stage3_block1_branch2b <- conv_stage3_block1_branch2b
I0928 21:17:26.222416 10764 net.cpp:386] scale_stage3_block1_branch2b -> conv_stage3_block1_branch2b (in-place)
I0928 21:17:26.222450 10764 layer_factory.hpp:77] Creating layer scale_stage3_block1_branch2b
I0928 21:17:26.222523 10764 net.cpp:141] Setting up scale_stage3_block1_branch2b
I0928 21:17:26.222527 10764 net.cpp:148] Top shape: 8 512 7 7 (200704)
I0928 21:17:26.222529 10764 net.cpp:156] Memory required for data: 1808744544
I0928 21:17:26.222533 10764 layer_factory.hpp:77] Creating layer relu_stage3_block1_branch2b
I0928 21:17:26.222537 10764 net.cpp:91] Creating Layer relu_stage3_block1_branch2b
I0928 21:17:26.222540 10764 net.cpp:425] relu_stage3_block1_branch2b <- conv_stage3_block1_branch2b
I0928 21:17:26.222543 10764 net.cpp:386] relu_stage3_block1_branch2b -> conv_stage3_block1_branch2b (in-place)
I0928 21:17:26.222707 10764 net.cpp:141] Setting up relu_stage3_block1_branch2b
I0928 21:17:26.222714 10764 net.cpp:148] Top shape: 8 512 7 7 (200704)
I0928 21:17:26.222718 10764 net.cpp:156] Memory required for data: 1809547360
I0928 21:17:26.222721 10764 layer_factory.hpp:77] Creating layer conv_stage3_block1_branch2c
I0928 21:17:26.222731 10764 net.cpp:91] Creating Layer conv_stage3_block1_branch2c
I0928 21:17:26.222735 10764 net.cpp:425] conv_stage3_block1_branch2c <- conv_stage3_block1_branch2b
I0928 21:17:26.222743 10764 net.cpp:399] conv_stage3_block1_branch2c -> conv_stage3_block1_branch2c
I0928 21:17:26.230736 10764 net.cpp:141] Setting up conv_stage3_block1_branch2c
I0928 21:17:26.230763 10764 net.cpp:148] Top shape: 8 2048 7 7 (802816)
I0928 21:17:26.230767 10764 net.cpp:156] Memory required for data: 1812758624
I0928 21:17:26.230772 10764 layer_factory.hpp:77] Creating layer bn_stage3_block1_branch2c
I0928 21:17:26.230779 10764 net.cpp:91] Creating Layer bn_stage3_block1_branch2c
I0928 21:17:26.230783 10764 net.cpp:425] bn_stage3_block1_branch2c <- conv_stage3_block1_branch2c
I0928 21:17:26.230788 10764 net.cpp:386] bn_stage3_block1_branch2c -> conv_stage3_block1_branch2c (in-place)
I0928 21:17:26.230926 10764 net.cpp:141] Setting up bn_stage3_block1_branch2c
I0928 21:17:26.230929 10764 net.cpp:148] Top shape: 8 2048 7 7 (802816)
I0928 21:17:26.230931 10764 net.cpp:156] Memory required for data: 1815969888
I0928 21:17:26.230937 10764 layer_factory.hpp:77] Creating layer scale_stage3_block1_branch2c
I0928 21:17:26.230942 10764 net.cpp:91] Creating Layer scale_stage3_block1_branch2c
I0928 21:17:26.230944 10764 net.cpp:425] scale_stage3_block1_branch2c <- conv_stage3_block1_branch2c
I0928 21:17:26.230947 10764 net.cpp:386] scale_stage3_block1_branch2c -> conv_stage3_block1_branch2c (in-place)
I0928 21:17:26.230981 10764 layer_factory.hpp:77] Creating layer scale_stage3_block1_branch2c
I0928 21:17:26.231096 10764 net.cpp:141] Setting up scale_stage3_block1_branch2c
I0928 21:17:26.231101 10764 net.cpp:148] Top shape: 8 2048 7 7 (802816)
I0928 21:17:26.231102 10764 net.cpp:156] Memory required for data: 1819181152
I0928 21:17:26.231106 10764 layer_factory.hpp:77] Creating layer eltwise_stage3_block1
I0928 21:17:26.231111 10764 net.cpp:91] Creating Layer eltwise_stage3_block1
I0928 21:17:26.231113 10764 net.cpp:425] eltwise_stage3_block1 <- eltwise_stage3_block0_relu_stage3_block0_0_split_1
I0928 21:17:26.231117 10764 net.cpp:425] eltwise_stage3_block1 <- conv_stage3_block1_branch2c
I0928 21:17:26.231120 10764 net.cpp:399] eltwise_stage3_block1 -> eltwise_stage3_block1
I0928 21:17:26.231135 10764 net.cpp:141] Setting up eltwise_stage3_block1
I0928 21:17:26.231139 10764 net.cpp:148] Top shape: 8 2048 7 7 (802816)
I0928 21:17:26.231142 10764 net.cpp:156] Memory required for data: 1822392416
I0928 21:17:26.231143 10764 layer_factory.hpp:77] Creating layer relu_stage3_block1
I0928 21:17:26.231148 10764 net.cpp:91] Creating Layer relu_stage3_block1
I0928 21:17:26.231150 10764 net.cpp:425] relu_stage3_block1 <- eltwise_stage3_block1
I0928 21:17:26.231153 10764 net.cpp:386] relu_stage3_block1 -> eltwise_stage3_block1 (in-place)
I0928 21:17:26.231503 10764 net.cpp:141] Setting up relu_stage3_block1
I0928 21:17:26.231509 10764 net.cpp:148] Top shape: 8 2048 7 7 (802816)
I0928 21:17:26.231513 10764 net.cpp:156] Memory required for data: 1825603680
I0928 21:17:26.231514 10764 layer_factory.hpp:77] Creating layer eltwise_stage3_block1_relu_stage3_block1_0_split
I0928 21:17:26.231518 10764 net.cpp:91] Creating Layer eltwise_stage3_block1_relu_stage3_block1_0_split
I0928 21:17:26.231520 10764 net.cpp:425] eltwise_stage3_block1_relu_stage3_block1_0_split <- eltwise_stage3_block1
I0928 21:17:26.231525 10764 net.cpp:399] eltwise_stage3_block1_relu_stage3_block1_0_split -> eltwise_stage3_block1_relu_stage3_block1_0_split_0
I0928 21:17:26.231530 10764 net.cpp:399] eltwise_stage3_block1_relu_stage3_block1_0_split -> eltwise_stage3_block1_relu_stage3_block1_0_split_1
I0928 21:17:26.231555 10764 net.cpp:141] Setting up eltwise_stage3_block1_relu_stage3_block1_0_split
I0928 21:17:26.231560 10764 net.cpp:148] Top shape: 8 2048 7 7 (802816)
I0928 21:17:26.231564 10764 net.cpp:148] Top shape: 8 2048 7 7 (802816)
I0928 21:17:26.231564 10764 net.cpp:156] Memory required for data: 1832026208
I0928 21:17:26.231566 10764 layer_factory.hpp:77] Creating layer conv_stage3_block2_branch2a
I0928 21:17:26.231573 10764 net.cpp:91] Creating Layer conv_stage3_block2_branch2a
I0928 21:17:26.231576 10764 net.cpp:425] conv_stage3_block2_branch2a <- eltwise_stage3_block1_relu_stage3_block1_0_split_0
I0928 21:17:26.231580 10764 net.cpp:399] conv_stage3_block2_branch2a -> conv_stage3_block2_branch2a
I0928 21:17:26.239991 10764 net.cpp:141] Setting up conv_stage3_block2_branch2a
I0928 21:17:26.240007 10764 net.cpp:148] Top shape: 8 512 7 7 (200704)
I0928 21:17:26.240010 10764 net.cpp:156] Memory required for data: 1832829024
I0928 21:17:26.240015 10764 layer_factory.hpp:77] Creating layer bn_stage3_block2_branch2a
I0928 21:17:26.240023 10764 net.cpp:91] Creating Layer bn_stage3_block2_branch2a
I0928 21:17:26.240027 10764 net.cpp:425] bn_stage3_block2_branch2a <- conv_stage3_block2_branch2a
I0928 21:17:26.240032 10764 net.cpp:386] bn_stage3_block2_branch2a -> conv_stage3_block2_branch2a (in-place)
I0928 21:17:26.240173 10764 net.cpp:141] Setting up bn_stage3_block2_branch2a
I0928 21:17:26.240178 10764 net.cpp:148] Top shape: 8 512 7 7 (200704)
I0928 21:17:26.240180 10764 net.cpp:156] Memory required for data: 1833631840
I0928 21:17:26.240185 10764 layer_factory.hpp:77] Creating layer scale_stage3_block2_branch2a
I0928 21:17:26.240190 10764 net.cpp:91] Creating Layer scale_stage3_block2_branch2a
I0928 21:17:26.240192 10764 net.cpp:425] scale_stage3_block2_branch2a <- conv_stage3_block2_branch2a
I0928 21:17:26.240196 10764 net.cpp:386] scale_stage3_block2_branch2a -> conv_stage3_block2_branch2a (in-place)
I0928 21:17:26.240229 10764 layer_factory.hpp:77] Creating layer scale_stage3_block2_branch2a
I0928 21:17:26.240305 10764 net.cpp:141] Setting up scale_stage3_block2_branch2a
I0928 21:17:26.240309 10764 net.cpp:148] Top shape: 8 512 7 7 (200704)
I0928 21:17:26.240311 10764 net.cpp:156] Memory required for data: 1834434656
I0928 21:17:26.240315 10764 layer_factory.hpp:77] Creating layer relu_stage3_block2_branch2a
I0928 21:17:26.240320 10764 net.cpp:91] Creating Layer relu_stage3_block2_branch2a
I0928 21:17:26.240324 10764 net.cpp:425] relu_stage3_block2_branch2a <- conv_stage3_block2_branch2a
I0928 21:17:26.240326 10764 net.cpp:386] relu_stage3_block2_branch2a -> conv_stage3_block2_branch2a (in-place)
I0928 21:17:26.240450 10764 net.cpp:141] Setting up relu_stage3_block2_branch2a
I0928 21:17:26.240455 10764 net.cpp:148] Top shape: 8 512 7 7 (200704)
I0928 21:17:26.240458 10764 net.cpp:156] Memory required for data: 1835237472
I0928 21:17:26.240459 10764 layer_factory.hpp:77] Creating layer conv_stage3_block2_branch2b
I0928 21:17:26.240468 10764 net.cpp:91] Creating Layer conv_stage3_block2_branch2b
I0928 21:17:26.240471 10764 net.cpp:425] conv_stage3_block2_branch2b <- conv_stage3_block2_branch2a
I0928 21:17:26.240475 10764 net.cpp:399] conv_stage3_block2_branch2b -> conv_stage3_block2_branch2b
I0928 21:17:26.257509 10764 net.cpp:141] Setting up conv_stage3_block2_branch2b
I0928 21:17:26.257527 10764 net.cpp:148] Top shape: 8 512 7 7 (200704)
I0928 21:17:26.257529 10764 net.cpp:156] Memory required for data: 1836040288
I0928 21:17:26.257536 10764 layer_factory.hpp:77] Creating layer bn_stage3_block2_branch2b
I0928 21:17:26.257544 10764 net.cpp:91] Creating Layer bn_stage3_block2_branch2b
I0928 21:17:26.257550 10764 net.cpp:425] bn_stage3_block2_branch2b <- conv_stage3_block2_branch2b
I0928 21:17:26.257556 10764 net.cpp:386] bn_stage3_block2_branch2b -> conv_stage3_block2_branch2b (in-place)
I0928 21:17:26.257694 10764 net.cpp:141] Setting up bn_stage3_block2_branch2b
I0928 21:17:26.257699 10764 net.cpp:148] Top shape: 8 512 7 7 (200704)
I0928 21:17:26.257700 10764 net.cpp:156] Memory required for data: 1836843104
I0928 21:17:26.257704 10764 layer_factory.hpp:77] Creating layer scale_stage3_block2_branch2b
I0928 21:17:26.257711 10764 net.cpp:91] Creating Layer scale_stage3_block2_branch2b
I0928 21:17:26.257714 10764 net.cpp:425] scale_stage3_block2_branch2b <- conv_stage3_block2_branch2b
I0928 21:17:26.257716 10764 net.cpp:386] scale_stage3_block2_branch2b -> conv_stage3_block2_branch2b (in-place)
I0928 21:17:26.257750 10764 layer_factory.hpp:77] Creating layer scale_stage3_block2_branch2b
I0928 21:17:26.257825 10764 net.cpp:141] Setting up scale_stage3_block2_branch2b
I0928 21:17:26.257829 10764 net.cpp:148] Top shape: 8 512 7 7 (200704)
I0928 21:17:26.257832 10764 net.cpp:156] Memory required for data: 1837645920
I0928 21:17:26.257844 10764 layer_factory.hpp:77] Creating layer relu_stage3_block2_branch2b
I0928 21:17:26.257848 10764 net.cpp:91] Creating Layer relu_stage3_block2_branch2b
I0928 21:17:26.257851 10764 net.cpp:425] relu_stage3_block2_branch2b <- conv_stage3_block2_branch2b
I0928 21:17:26.257854 10764 net.cpp:386] relu_stage3_block2_branch2b -> conv_stage3_block2_branch2b (in-place)
I0928 21:17:26.257979 10764 net.cpp:141] Setting up relu_stage3_block2_branch2b
I0928 21:17:26.257984 10764 net.cpp:148] Top shape: 8 512 7 7 (200704)
I0928 21:17:26.257987 10764 net.cpp:156] Memory required for data: 1838448736
I0928 21:17:26.257989 10764 layer_factory.hpp:77] Creating layer conv_stage3_block2_branch2c
I0928 21:17:26.257997 10764 net.cpp:91] Creating Layer conv_stage3_block2_branch2c
I0928 21:17:26.257999 10764 net.cpp:425] conv_stage3_block2_branch2c <- conv_stage3_block2_branch2b
I0928 21:17:26.258004 10764 net.cpp:399] conv_stage3_block2_branch2c -> conv_stage3_block2_branch2c
I0928 21:17:26.266010 10764 net.cpp:141] Setting up conv_stage3_block2_branch2c
I0928 21:17:26.266024 10764 net.cpp:148] Top shape: 8 2048 7 7 (802816)
I0928 21:17:26.266027 10764 net.cpp:156] Memory required for data: 1841660000
I0928 21:17:26.266032 10764 layer_factory.hpp:77] Creating layer bn_stage3_block2_branch2c
I0928 21:17:26.266039 10764 net.cpp:91] Creating Layer bn_stage3_block2_branch2c
I0928 21:17:26.266044 10764 net.cpp:425] bn_stage3_block2_branch2c <- conv_stage3_block2_branch2c
I0928 21:17:26.266048 10764 net.cpp:386] bn_stage3_block2_branch2c -> conv_stage3_block2_branch2c (in-place)
I0928 21:17:26.266182 10764 net.cpp:141] Setting up bn_stage3_block2_branch2c
I0928 21:17:26.266187 10764 net.cpp:148] Top shape: 8 2048 7 7 (802816)
I0928 21:17:26.266190 10764 net.cpp:156] Memory required for data: 1844871264
I0928 21:17:26.266193 10764 layer_factory.hpp:77] Creating layer scale_stage3_block2_branch2c
I0928 21:17:26.266198 10764 net.cpp:91] Creating Layer scale_stage3_block2_branch2c
I0928 21:17:26.266201 10764 net.cpp:425] scale_stage3_block2_branch2c <- conv_stage3_block2_branch2c
I0928 21:17:26.266204 10764 net.cpp:386] scale_stage3_block2_branch2c -> conv_stage3_block2_branch2c (in-place)
I0928 21:17:26.266237 10764 layer_factory.hpp:77] Creating layer scale_stage3_block2_branch2c
I0928 21:17:26.266312 10764 net.cpp:141] Setting up scale_stage3_block2_branch2c
I0928 21:17:26.266317 10764 net.cpp:148] Top shape: 8 2048 7 7 (802816)
I0928 21:17:26.266319 10764 net.cpp:156] Memory required for data: 1848082528
I0928 21:17:26.266322 10764 layer_factory.hpp:77] Creating layer eltwise_stage3_block2
I0928 21:17:26.266327 10764 net.cpp:91] Creating Layer eltwise_stage3_block2
I0928 21:17:26.266330 10764 net.cpp:425] eltwise_stage3_block2 <- eltwise_stage3_block1_relu_stage3_block1_0_split_1
I0928 21:17:26.266333 10764 net.cpp:425] eltwise_stage3_block2 <- conv_stage3_block2_branch2c
I0928 21:17:26.266336 10764 net.cpp:399] eltwise_stage3_block2 -> eltwise_stage3_block2
I0928 21:17:26.266352 10764 net.cpp:141] Setting up eltwise_stage3_block2
I0928 21:17:26.266355 10764 net.cpp:148] Top shape: 8 2048 7 7 (802816)
I0928 21:17:26.266357 10764 net.cpp:156] Memory required for data: 1851293792
I0928 21:17:26.266360 10764 layer_factory.hpp:77] Creating layer relu_stage3_block2
I0928 21:17:26.266363 10764 net.cpp:91] Creating Layer relu_stage3_block2
I0928 21:17:26.266366 10764 net.cpp:425] relu_stage3_block2 <- eltwise_stage3_block2
I0928 21:17:26.266369 10764 net.cpp:386] relu_stage3_block2 -> eltwise_stage3_block2 (in-place)
I0928 21:17:26.266487 10764 net.cpp:141] Setting up relu_stage3_block2
I0928 21:17:26.266492 10764 net.cpp:148] Top shape: 8 2048 7 7 (802816)
I0928 21:17:26.266494 10764 net.cpp:156] Memory required for data: 1854505056
I0928 21:17:26.266496 10764 layer_factory.hpp:77] Creating layer pool
I0928 21:17:26.266501 10764 net.cpp:91] Creating Layer pool
I0928 21:17:26.266504 10764 net.cpp:425] pool <- eltwise_stage3_block2
I0928 21:17:26.266507 10764 net.cpp:399] pool -> pool
I0928 21:17:26.266633 10764 net.cpp:141] Setting up pool
I0928 21:17:26.266646 10764 net.cpp:148] Top shape: 8 2048 1 1 (16384)
I0928 21:17:26.266649 10764 net.cpp:156] Memory required for data: 1854570592
I0928 21:17:26.266651 10764 layer_factory.hpp:77] Creating layer fc12
I0928 21:17:26.266656 10764 net.cpp:91] Creating Layer fc12
I0928 21:17:26.266659 10764 net.cpp:425] fc12 <- pool
I0928 21:17:26.266664 10764 net.cpp:399] fc12 -> fc12
I0928 21:17:26.267267 10764 net.cpp:141] Setting up fc12
I0928 21:17:26.267274 10764 net.cpp:148] Top shape: 8 12 (96)
I0928 21:17:26.267277 10764 net.cpp:156] Memory required for data: 1854570976
I0928 21:17:26.267280 10764 layer_factory.hpp:77] Creating layer fc12_fc12_0_split
I0928 21:17:26.267284 10764 net.cpp:91] Creating Layer fc12_fc12_0_split
I0928 21:17:26.267287 10764 net.cpp:425] fc12_fc12_0_split <- fc12
I0928 21:17:26.267289 10764 net.cpp:399] fc12_fc12_0_split -> fc12_fc12_0_split_0
I0928 21:17:26.267293 10764 net.cpp:399] fc12_fc12_0_split -> fc12_fc12_0_split_1
I0928 21:17:26.267315 10764 net.cpp:141] Setting up fc12_fc12_0_split
I0928 21:17:26.267319 10764 net.cpp:148] Top shape: 8 12 (96)
I0928 21:17:26.267321 10764 net.cpp:148] Top shape: 8 12 (96)
I0928 21:17:26.267323 10764 net.cpp:156] Memory required for data: 1854571744
I0928 21:17:26.267325 10764 layer_factory.hpp:77] Creating layer loss
I0928 21:17:26.267328 10764 net.cpp:91] Creating Layer loss
I0928 21:17:26.267330 10764 net.cpp:425] loss <- fc12_fc12_0_split_0
I0928 21:17:26.267333 10764 net.cpp:425] loss <- label_data_1_split_0
I0928 21:17:26.267338 10764 net.cpp:399] loss -> loss
…
