…
I0928 21:27:06.432021 14300 net.cpp:313] The NetState phase (0) differed from the phase (1) specified by a rule in layer loss3/top-5
I0928 21:27:06.432848 14300 net.cpp:49] Initializing net from parameters: 
name: "GoogleNet"
state {
  phase: TRAIN
}
layer {
  name: "data"
  type: "Data"
  top: "data"
  top: "label"
  include {
    phase: TRAIN
  }
  transform_param {
    mirror: true
    crop_size: 224
    mean_file: "/media/red/BRIDGE/data/BOT/mean.binaryproto"
  }
  data_param {
    source: "/media/red/DATA/data/BOT/ccrvc_train_lmdb"
    batch_size: 8
    backend: LMDB
  }
}
layer {
  name: "conv1/7x7_s2"
  type: "Convolution"
  bottom: "data"
  top: "conv1/7x7_s2"
  param {
    lr_mult: 1
    decay_mult: 1
  }
  param {
    lr_mult: 2
    decay_mult: 0
  }
  convolution_param {
    num_output: 64
    pad: 3
    kernel_size: 7
    stride: 2
    weight_filler {
      type: "xavier"
    }
    bias_filler {
      type: "constant"
      value: 0.2
    }
  }
}
layer {
  name: "conv1/relu_7x7"
  type: "ReLU"
  bottom: "conv1/7x7_s2"
  top: "conv1/7x7_s2"
}
layer {
  name: "pool1/3x3_s2"
  type: "Pooling"
  bottom: "conv1/7x7_s2"
  top: "pool1/3x3_s2"
  pooling_param {
    pool: MAX
    kernel_size: 3
    stride: 2
  }
}
layer {
  name: "pool1/norm1"
  type: "LRN"
  bottom: "pool1/3x3_s2"
  top: "pool1/norm1"
  lrn_param {
    local_size: 5
    alpha: 0.0001
    beta: 0.75
  }
}
layer {
  name: "conv2/3x3_reduce"
  type: "Convolution"
  bottom: "pool1/norm1"
  top: "conv2/3x3_reduce"
  param {
    lr_mult: 1
    decay_mult: 1
  }
  param {
    lr_mult: 2
    decay_mult: 0
  }
  convolution_param {
    num_output: 64
    kernel_size: 1
    weight_filler {
      type: "xavier"
    }
    bias_filler {
      type: "constant"
      value: 0.2
    }
  }
}
layer {
  name: "conv2/relu_3x3_reduce"
  type: "ReLU"
  bottom: "conv2/3x3_reduce"
  top: "conv2/3x3_reduce"
}
layer {
  name: "conv2/3x3"
  type: "Convolution"
  bottom: "conv2/3x3_reduce"
  top: "conv2/3x3"
  param {
    lr_mult: 1
    decay_mult: 1
  }
  param {
    lr_mult: 2
    decay_mult: 0
  }
  convolution_param {
    num_output: 192
    pad: 1
    kernel_size: 3
    weight_filler {
      type: "xavier"
    }
    bias_filler {
      type: "constant"
      value: 0.2
    }
  }
}
layer {
  name: "conv2/relu_3x3"
  type: "ReLU"
  bottom: "conv2/3x3"
  top: "conv2/3x3"
}
layer {
  name: "conv2/norm2"
  type: "LRN"
  bottom: "conv2/3x3"
  top: "conv2/norm2"
  lrn_param {
    local_size: 5
    alpha: 0.0001
    beta: 0.75
  }
}
layer {
  name: "pool2/3x3_s2"
  type: "Pooling"
  bottom: "conv2/norm2"
  top: "pool2/3x3_s2"
  pooling_param {
    pool: MAX
    kernel_size: 3
    stride: 2
  }
}
layer {
  name: "inception_3a/1x1"
  type: "Convolution"
  bottom: "pool2/3x3_s2"
  top: "inception_3a/1x1"
  param {
    lr_mult: 1
    decay_mult: 1
  }
  param {
    lr_mult: 2
    decay_mult: 0
  }
  convolution_param {
    num_output: 64
    kernel_size: 1
    weight_filler {
      type: "xavier"
    }
    bias_filler {
      type: "constant"
      value: 0.2
    }
  }
}
layer {
  name: "inception_3a/relu_1x1"
  type: "ReLU"
  bottom: "inception_3a/1x1"
  top: "inception_3a/1x1"
}
layer {
  name: "inception_3a/3x3_reduce"
  type: "Convolution"
  bottom: "pool2/3x3_s2"
  top: "inception_3a/3x3_reduce"
  param {
    lr_mult: 1
    decay_mult: 1
  }
  param {
    lr_mult: 2
    decay_mult: 0
  }
  convolution_param {
    num_output: 96
    kernel_size: 1
    weight_filler {
      type: "xavier"
    }
    bias_filler {
      type: "constant"
      value: 0.2
    }
  }
}
layer {
  name: "inception_3a/relu_3x3_reduce"
  type: "ReLU"
  bottom: "inception_3a/3x3_reduce"
  top: "inception_3a/3x3_reduce"
}
layer {
  name: "inception_3a/3x3"
  type: "Convolution"
  bottom: "inception_3a/3x3_reduce"
  top: "inception_3a/3x3"
  param {
    lr_mult: 1
    decay_mult: 1
  }
  param {
    lr_mult: 2
    decay_mult: 0
  }
  convolution_param {
    num_output: 128
    pad: 1
    kernel_size: 3
    weight_filler {
      type: "xavier"
    }
    bias_filler {
      type: "constant"
      value: 0.2
    }
  }
}
layer {
  name: "inception_3a/relu_3x3"
  type: "ReLU"
  bottom: "inception_3a/3x3"
  top: "inception_3a/3x3"
}
layer {
  name: "inception_3a/5x5_reduce"
  type: "Convolution"
  bottom: "pool2/3x3_s2"
  top: "inception_3a/5x5_reduce"
  param {
    lr_mult: 1
    decay_mult: 1
  }
  param {
    lr_mult: 2
    decay_mult: 0
  }
  convolution_param {
    num_output: 16
    kernel_size: 1
    weight_filler {
      type: "xavier"
    }
    bias_filler {
      type: "constant"
      value: 0.2
    }
  }
}
layer {
  name: "inception_3a/relu_5x5_reduce"
  type: "ReLU"
  bottom: "inception_3a/5x5_reduce"
  top: "inception_3a/5x5_reduce"
}
layer {
  name: "inception_3a/5x5"
  type: "Convolution"
  bottom: "inception_3a/5x5_reduce"
  top: "inception_3a/5x5"
  param {
    lr_mult: 1
    decay_mult: 1
  }
  param {
    lr_mult: 2
    decay_mult: 0
  }
  convolution_param {
    num_output: 32
    pad: 2
    kernel_size: 5
    weight_filler {
      type: "xavier"
    }
    bias_filler {
      type: "constant"
      value: 0.2
    }
  }
}
layer {
  name: "inception_3a/relu_5x5"
  type: "ReLU"
  bottom: "inception_3a/5x5"
  top: "inception_3a/5x5"
}
layer {
  name: "inception_3a/pool"
  type: "Pooling"
  bottom: "pool2/3x3_s2"
  top: "inception_3a/pool"
  pooling_param {
    pool: MAX
    kernel_size: 3
    stride: 1
    pad: 1
  }
}
layer {
  name: "inception_3a/pool_proj"
  type: "Convolution"
  bottom: "inception_3a/pool"
  top: "inception_3a/pool_proj"
  param {
    lr_mult: 1
    decay_mult: 1
  }
  param {
    lr_mult: 2
    decay_mult: 0
  }
  convolution_param {
    num_output: 32
    kernel_size: 1
    weight_filler {
      type: "xavier"
    }
    bias_filler {
      type: "constant"
      value: 0.2
    }
  }
}
layer {
  name: "inception_3a/relu_pool_proj"
  type: "ReLU"
  bottom: "inception_3a/pool_proj"
  top: "inception_3a/pool_proj"
}
layer {
  name: "inception_3a/output"
  type: "Concat"
  bottom: "inception_3a/1x1"
  bottom: "inception_3a/3x3"
  bottom: "inception_3a/5x5"
  bottom: "inception_3a/pool_proj"
  top: "inception_3a/output"
}
layer {
  name: "inception_3b/1x1"
  type: "Convolution"
  bottom: "inception_3a/output"
  top: "inception_3b/1x1"
  param {
    lr_mult: 1
    decay_mult: 1
  }
  param {
    lr_mult: 2
    decay_mult: 0
  }
  convolution_param {
    num_output: 128
    kernel_size: 1
    weight_filler {
      type: "xavier"
    }
    bias_filler {
      type: "constant"
      value: 0.2
    }
  }
}
layer {
  name: "inception_3b/relu_1x1"
  type: "ReLU"
  bottom: "inception_3b/1x1"
  top: "inception_3b/1x1"
}
layer {
  name: "inception_3b/3x3_reduce"
  type: "Convolution"
  bottom: "inception_3a/output"
  top: "inception_3b/3x3_reduce"
  param {
    lr_mult: 1
    decay_mult: 1
  }
  param {
    lr_mult: 2
    decay_mult: 0
  }
  convolution_param {
    num_output: 128
    kernel_size: 1
    weight_filler {
      type: "xavier"
    }
    bias_filler {
      type: "constant"
      value: 0.2
    }
  }
}
layer {
  name: "inception_3b/relu_3x3_reduce"
  type: "ReLU"
  bottom: "inception_3b/3x3_reduce"
  top: "inception_3b/3x3_reduce"
}
layer {
  name: "inception_3b/3x3"
  type: "Convolution"
  bottom: "inception_3b/3x3_reduce"
  top: "inception_3b/3x3"
  param {
    lr_mult: 1
    decay_mult: 1
  }
  param {
    lr_mult: 2
    decay_mult: 0
  }
  convolution_param {
    num_output: 192
    pad: 1
    kernel_size: 3
    weight_filler {
      type: "xavier"
    }
    bias_filler {
      type: "constant"
      value: 0.2
    }
  }
}
layer {
  name: "inception_3b/relu_3x3"
  type: "ReLU"
  bottom: "inception_3b/3x3"
  top: "inception_3b/3x3"
}
layer {
  name: "inception_3b/5x5_reduce"
  type: "Convolution"
  bottom: "inception_3a/output"
  top: "inception_3b/5x5_reduce"
  param {
    lr_mult: 1
    decay_mult: 1
  }
  param {
    lr_mult: 2
    decay_mult: 0
  }
  convolution_param {
    num_output: 32
    kernel_size: 1
    weight_filler {
      type: "xavier"
    }
    bias_filler {
      type: "constant"
      value: 0.2
    }
  }
}
layer {
  name: "inception_3b/relu_5x5_reduce"
  type: "ReLU"
  bottom: "inception_3b/5x5_reduce"
  top: "inception_3b/5x5_reduce"
}
layer {
  name: "inception_3b/5x5"
  type: "Convolution"
  bottom: "inception_3b/5x5_reduce"
  top: "inception_3b/5x5"
  param {
    lr_mult: 1
    decay_mult: 1
  }
  param {
    lr_mult: 2
    decay_mult: 0
  }
  convolution_param {
    num_output: 96
    pad: 2
    kernel_size: 5
    weight_filler {
      type: "xavier"
    }
    bias_filler {
      type: "constant"
      value: 0.2
    }
  }
}
layer {
  name: "inception_3b/relu_5x5"
  type: "ReLU"
  bottom: "inception_3b/5x5"
  top: "inception_3b/5x5"
}
layer {
  name: "inception_3b/pool"
  type: "Pooling"
  bottom: "inception_3a/output"
  top: "inception_3b/pool"
  pooling_param {
    pool: MAX
    kernel_size: 3
    stride: 1
    pad: 1
  }
}
layer {
  name: "inception_3b/pool_proj"
  type: "Convolution"
  bottom: "inception_3b/pool"
  top: "inception_3b/pool_proj"
  param {
    lr_mult: 1
    decay_mult: 1
  }
  param {
    lr_mult: 2
    decay_mult: 0
  }
  convolution_param {
    num_output: 64
    kernel_size: 1
    weight_filler {
      type: "xavier"
    }
    bias_filler {
      type: "constant"
      value: 0.2
    }
  }
}
layer {
  name: "inception_3b/relu_pool_proj"
  type: "ReLU"
  bottom: "inception_3b/pool_proj"
  top: "inception_3b/pool_proj"
}
layer {
  name: "inception_3b/output"
  type: "Concat"
  bottom: "inception_3b/1x1"
  bottom: "inception_3b/3x3"
  bottom: "inception_3b/5x5"
  bottom: "inception_3b/pool_proj"
  top: "inception_3b/output"
}
layer {
  name: "pool3/3x3_s2"
  type: "Pooling"
  bottom: "inception_3b/output"
  top: "pool3/3x3_s2"
  pooling_param {
    pool: MAX
    kernel_size: 3
    stride: 2
  }
}
layer {
  name: "inception_4a/1x1"
  type: "Convolution"
  bottom: "pool3/3x3_s2"
  top: "inception_4a/1x1"
  param {
    lr_mult: 1
    decay_mult: 1
  }
  param {
    lr_mult: 2
    decay_mult: 0
  }
  convolution_param {
    num_output: 192
    kernel_size: 1
    weight_filler {
      type: "xavier"
    }
    bias_filler {
      type: "constant"
      value: 0.2
    }
  }
}
layer {
  name: "inception_4a/relu_1x1"
  type: "ReLU"
  bottom: "inception_4a/1x1"
  top: "inception_4a/1x1"
}
layer {
  name: "inception_4a/3x3_reduce"
  type: "Convolution"
  bottom: "pool3/3x3_s2"
  top: "inception_4a/3x3_reduce"
  param {
    lr_mult: 1
    decay_mult: 1
  }
  param {
    lr_mult: 2
    decay_mult: 0
  }
  convolution_param {
    num_output: 96
    kernel_size: 1
    weight_filler {
      type: "xavier"
    }
    bias_filler {
      type: "constant"
      value: 0.2
    }
  }
}
layer {
  name: "inception_4a/relu_3x3_reduce"
  type: "ReLU"
  bottom: "inception_4a/3x3_reduce"
  top: "inception_4a/3x3_reduce"
}
layer {
  name: "inception_4a/3x3"
  type: "Convolution"
  bottom: "inception_4a/3x3_reduce"
  top: "inception_4a/3x3"
  param {
    lr_mult: 1
    decay_mult: 1
  }
  param {
    lr_mult: 2
    decay_mult: 0
  }
  convolution_param {
    num_output: 208
    pad: 1
    kernel_size: 3
    weight_filler {
      type: "xavier"
    }
    bias_filler {
      type: "constant"
      value: 0.2
    }
  }
}
layer {
  name: "inception_4a/relu_3x3"
  type: "ReLU"
  bottom: "inception_4a/3x3"
  top: "inception_4a/3x3"
}
layer {
  name: "inception_4a/5x5_reduce"
  type: "Convolution"
  bottom: "pool3/3x3_s2"
  top: "inception_4a/5x5_reduce"
  param {
    lr_mult: 1
    decay_mult: 1
  }
  param {
    lr_mult: 2
    decay_mult: 0
  }
  convolution_param {
    num_output: 16
    kernel_size: 1
    weight_filler {
      type: "xavier"
    }
    bias_filler {
      type: "constant"
      value: 0.2
    }
  }
}
layer {
  name: "inception_4a/relu_5x5_reduce"
  type: "ReLU"
  bottom: "inception_4a/5x5_reduce"
  top: "inception_4a/5x5_reduce"
}
layer {
  name: "inception_4a/5x5"
  type: "Convolution"
  bottom: "inception_4a/5x5_reduce"
  top: "inception_4a/5x5"
  param {
    lr_mult: 1
    decay_mult: 1
  }
  param {
    lr_mult: 2
    decay_mult: 0
  }
  convolution_param {
    num_output: 48
    pad: 2
    kernel_size: 5
    weight_filler {
      type: "xavier"
    }
    bias_filler {
      type: "constant"
      value: 0.2
    }
  }
}
layer {
  name: "inception_4a/relu_5x5"
  type: "ReLU"
  bottom: "inception_4a/5x5"
  top: "inception_4a/5x5"
}
layer {
  name: "inception_4a/pool"
  type: "Pooling"
  bottom: "pool3/3x3_s2"
  top: "inception_4a/pool"
  pooling_param {
    pool: MAX
    kernel_size: 3
    stride: 1
    pad: 1
  }
}
layer {
  name: "inception_4a/pool_proj"
  type: "Convolution"
  bottom: "inception_4a/pool"
  top: "inception_4a/pool_proj"
  param {
    lr_mult: 1
    decay_mult: 1
  }
  param {
    lr_mult: 2
    decay_mult: 0
  }
  convolution_param {
    num_output: 64
    kernel_size: 1
    weight_filler {
      type: "xavier"
    }
    bias_filler {
      type: "constant"
      value: 0.2
    }
  }
}
layer {
  name: "inception_4a/relu_pool_proj"
  type: "ReLU"
  bottom: "inception_4a/pool_proj"
  top: "inception_4a/pool_proj"
}
layer {
  name: "inception_4a/output"
  type: "Concat"
  bottom: "inception_4a/1x1"
  bottom: "inception_4a/3x3"
  bottom: "inception_4a/5x5"
  bottom: "inception_4a/pool_proj"
  top: "inception_4a/output"
}
layer {
  name: "loss1/ave_pool"
  type: "Pooling"
  bottom: "inception_4a/output"
  top: "loss1/ave_pool"
  pooling_param {
    pool: AVE
    kernel_size: 5
    stride: 3
  }
}
layer {
  name: "loss1/conv"
  type: "Convolution"
  bottom: "loss1/ave_pool"
  top: "loss1/conv"
  param {
    lr_mult: 1
    decay_mult: 1
  }
  param {
    lr_mult: 2
    decay_mult: 0
  }
  convolution_param {
    num_output: 128
    kernel_size: 1
    weight_filler {
      type: "xavier"
    }
    bias_filler {
      type: "constant"
      value: 0.2
    }
  }
}
layer {
  name: "loss1/relu_conv"
  type: "ReLU"
  bottom: "loss1/conv"
  top: "loss1/conv"
}
layer {
  name: "loss1/fc"
  type: "InnerProduct"
  bottom: "loss1/conv"
  top: "loss1/fc"
  param {
    lr_mult: 1
    decay_mult: 1
  }
  param {
    lr_mult: 2
    decay_mult: 0
  }
  inner_product_param {
    num_output: 1024
    weight_filler {
      type: "xavier"
    }
    bias_filler {
      type: "constant"
      value: 0.2
    }
  }
}
layer {
  name: "loss1/relu_fc"
  type: "ReLU"
  bottom: "loss1/fc"
  top: "loss1/fc"
}
layer {
  name: "loss1/drop_fc"
  type: "Dropout"
  bottom: "loss1/fc"
  top: "loss1/fc"
  dropout_param {
    dropout_ratio: 0.7
  }
}
layer {
  name: "loss1/classifier"
  type: "InnerProduct"
  bottom: "loss1/fc"
  top: "loss1/classifier"
  param {
    lr_mult: 1
    decay_mult: 1
  }
  param {
    lr_mult: 2
    decay_mult: 0
  }
  inner_product_param {
    num_output: 1000
    weight_filler {
      type: "xavier"
    }
    bias_filler {
      type: "constant"
      value: 0
    }
  }
}
layer {
  name: "loss1/loss"
  type: "SoftmaxWithLoss"
  bottom: "loss1/classifier"
  bottom: "label"
  top: "loss1/loss1"
  loss_weight: 0.3
}
layer {
  name: "inception_4b/1x1"
  type: "Convolution"
  bottom: "inception_4a/output"
  top: "inception_4b/1x1"
  param {
    lr_mult: 1
    decay_mult: 1
  }
  param {
    lr_mult: 2
    decay_mult: 0
  }
  convolution_param {
    num_output: 160
    kernel_size: 1
    weight_filler {
      type: "xavier"
    }
    bias_filler {
      type: "constant"
      value: 0.2
    }
  }
}
layer {
  name: "inception_4b/relu_1x1"
  type: "ReLU"
  bottom: "inception_4b/1x1"
  top: "inception_4b/1x1"
}
layer {
  name: "inception_4b/3x3_reduce"
  type: "Convolution"
  bottom: "inception_4a/output"
  top: "inception_4b/3x3_reduce"
  param {
    lr_mult: 1
    decay_mult: 1
  }
  param {
    lr_mult: 2
    decay_mult: 0
  }
  convolution_param {
    num_output: 112
    kernel_size: 1
    weight_filler {
      type: "xavier"
    }
    bias_filler {
      type: "constant"
      value: 0.2
    }
  }
}
layer {
  name: "inception_4b/relu_3x3_reduce"
  type: "ReLU"
  bottom: "inception_4b/3x3_reduce"
  top: "inception_4b/3x3_reduce"
}
layer {
  name: "inception_4b/3x3"
  type: "Convolution"
  bottom: "inception_4b/3x3_reduce"
  top: "inception_4b/3x3"
  param {
    lr_mult: 1
    decay_mult: 1
  }
  param {
    lr_mult: 2
    decay_mult: 0
  }
  convolution_param {
    num_output: 224
    pad: 1
    kernel_size: 3
    weight_filler {
      type: "xavier"
    }
    bias_filler {
      type: "constant"
      value: 0.2
    }
  }
}
layer {
  name: "inception_4b/relu_3x3"
  type: "ReLU"
  bottom: "inception_4b/3x3"
  top: "inception_4b/3x3"
}
layer {
  name: "inception_4b/5x5_reduce"
  type: "Convolution"
  bottom: "inception_4a/output"
  top: "inception_4b/5x5_reduce"
  param {
    lr_mult: 1
    decay_mult: 1
  }
  param {
    lr_mult: 2
    decay_mult: 0
  }
  convolution_param {
    num_output: 24
    kernel_size: 1
    weight_filler {
      type: "xavier"
    }
    bias_filler {
      type: "constant"
      value: 0.2
    }
  }
}
layer {
  name: "inception_4b/relu_5x5_reduce"
  type: "ReLU"
  bottom: "inception_4b/5x5_reduce"
  top: "inception_4b/5x5_reduce"
}
layer {
  name: "inception_4b/5x5"
  type: "Convolution"
  bottom: "inception_4b/5x5_reduce"
  top: "inception_4b/5x5"
  param {
    lr_mult: 1
    decay_mult: 1
  }
  param {
    lr_mult: 2
    decay_mult: 0
  }
  convolution_param {
    num_output: 64
    pad: 2
    kernel_size: 5
    weight_filler {
      type: "xavier"
    }
    bias_filler {
      type: "constant"
      value: 0.2
    }
  }
}
layer {
  name: "inception_4b/relu_5x5"
  type: "ReLU"
  bottom: "inception_4b/5x5"
  top: "inception_4b/5x5"
}
layer {
  name: "inception_4b/pool"
  type: "Pooling"
  bottom: "inception_4a/output"
  top: "inception_4b/pool"
  pooling_param {
    pool: MAX
    kernel_size: 3
    stride: 1
    pad: 1
  }
}
layer {
  name: "inception_4b/pool_proj"
  type: "Convolution"
  bottom: "inception_4b/pool"
  top: "inception_4b/pool_proj"
  param {
    lr_mult: 1
    decay_mult: 1
  }
  param {
    lr_mult: 2
    decay_mult: 0
  }
  convolution_param {
    num_output: 64
    kernel_size: 1
    weight_filler {
      type: "xavier"
    }
    bias_filler {
      type: "constant"
      value: 0.2
    }
  }
}
layer {
  name: "inception_4b/relu_pool_proj"
  type: "ReLU"
  bottom: "inception_4b/pool_proj"
  top: "inception_4b/pool_proj"
}
layer {
  name: "inception_4b/output"
  type: "Concat"
  bottom: "inception_4b/1x1"
  bottom: "inception_4b/3x3"
  bottom: "inception_4b/5x5"
  bottom: "inception_4b/pool_proj"
  top: "inception_4b/output"
}
layer {
  name: "inception_4c/1x1"
  type: "Convolution"
  bottom: "inception_4b/output"
  top: "inception_4c/1x1"
  param {
    lr_mult: 1
    decay_mult: 1
  }
  param {
    lr_mult: 2
    decay_mult: 0
  }
  convolution_param {
    num_output: 128
    kernel_size: 1
    weight_filler {
      type: "xavier"
    }
    bias_filler {
      type: "constant"
      value: 0.2
    }
  }
}
layer {
  name: "inception_4c/relu_1x1"
  type: "ReLU"
  bottom: "inception_4c/1x1"
  top: "inception_4c/1x1"
}
layer {
  name: "inception_4c/3x3_reduce"
  type: "Convolution"
  bottom: "inception_4b/output"
  top: "inception_4c/3x3_reduce"
  param {
    lr_mult: 1
    decay_mult: 1
  }
  param {
    lr_mult: 2
    decay_mult: 0
  }
  convolution_param {
    num_output: 128
    kernel_size: 1
    weight_filler {
      type: "xavier"
    }
    bias_filler {
      type: "constant"
      value: 0.2
    }
  }
}
layer {
  name: "inception_4c/relu_3x3_reduce"
  type: "ReLU"
  bottom: "inception_4c/3x3_reduce"
  top: "inception_4c/3x3_reduce"
}
layer {
  name: "inception_4c/3x3"
  type: "Convolution"
  bottom: "inception_4c/3x3_reduce"
  top: "inception_4c/3x3"
  param {
    lr_mult: 1
    decay_mult: 1
  }
  param {
    lr_mult: 2
    decay_mult: 0
  }
  convolution_param {
    num_output: 256
    pad: 1
    kernel_size: 3
    weight_filler {
      type: "xavier"
    }
    bias_filler {
      type: "constant"
      value: 0.2
    }
  }
}
layer {
  name: "inception_4c/relu_3x3"
  type: "ReLU"
  bottom: "inception_4c/3x3"
  top: "inception_4c/3x3"
}
layer {
  name: "inception_4c/5x5_reduce"
  type: "Convolution"
  bottom: "inception_4b/output"
  top: "inception_4c/5x5_reduce"
  param {
    lr_mult: 1
    decay_mult: 1
  }
  param {
    lr_mult: 2
    decay_mult: 0
  }
  convolution_param {
    num_output: 24
    kernel_size: 1
    weight_filler {
      type: "xavier"
    }
    bias_filler {
      type: "constant"
      value: 0.2
    }
  }
}
layer {
  name: "inception_4c/relu_5x5_reduce"
  type: "ReLU"
  bottom: "inception_4c/5x5_reduce"
  top: "inception_4c/5x5_reduce"
}
layer {
  name: "inception_4c/5x5"
  type: "Convolution"
  bottom: "inception_4c/5x5_reduce"
  top: "inception_4c/5x5"
  param {
    lr_mult: 1
    decay_mult: 1
  }
  param {
    lr_mult: 2
    decay_mult: 0
  }
  convolution_param {
    num_output: 64
    pad: 2
    kernel_size: 5
    weight_filler {
      type: "xavier"
    }
    bias_filler {
      type: "constant"
      value: 0.2
    }
  }
}
layer {
  name: "inception_4c/relu_5x5"
  type: "ReLU"
  bottom: "inception_4c/5x5"
  top: "inception_4c/5x5"
}
layer {
  name: "inception_4c/pool"
  type: "Pooling"
  bottom: "inception_4b/output"
  top: "inception_4c/pool"
  pooling_param {
    pool: MAX
    kernel_size: 3
    stride: 1
    pad: 1
  }
}
layer {
  name: "inception_4c/pool_proj"
  type: "Convolution"
  bottom: "inception_4c/pool"
  top: "inception_4c/pool_proj"
  param {
    lr_mult: 1
    decay_mult: 1
  }
  param {
    lr_mult: 2
    decay_mult: 0
  }
  convolution_param {
    num_output: 64
    kernel_size: 1
    weight_filler {
      type: "xavier"
    }
    bias_filler {
      type: "constant"
      value: 0.2
    }
  }
}
layer {
  name: "inception_4c/relu_pool_proj"
  type: "ReLU"
  bottom: "inception_4c/pool_proj"
  top: "inception_4c/pool_proj"
}
layer {
  name: "inception_4c/output"
  type: "Concat"
  bottom: "inception_4c/1x1"
  bottom: "inception_4c/3x3"
  bottom: "inception_4c/5x5"
  bottom: "inception_4c/pool_proj"
  top: "inception_4c/output"
}
layer {
  name: "inception_4d/1x1"
  type: "Convolution"
  bottom: "inception_4c/output"
  top: "inception_4d/1x1"
  param {
    lr_mult: 1
    decay_mult: 1
  }
  param {
    lr_mult: 2
    decay_mult: 0
  }
  convolution_param {
    num_output: 112
    kernel_size: 1
    weight_filler {
      type: "xavier"
    }
    bias_filler {
      type: "constant"
      value: 0.2
    }
  }
}
layer {
  name: "inception_4d/relu_1x1"
  type: "ReLU"
  bottom: "inception_4d/1x1"
  top: "inception_4d/1x1"
}
layer {
  name: "inception_4d/3x3_reduce"
  type: "Convolution"
  bottom: "inception_4c/output"
  top: "inception_4d/3x3_reduce"
  param {
    lr_mult: 1
    decay_mult: 1
  }
  param {
    lr_mult: 2
    decay_mult: 0
  }
  convolution_param {
    num_output: 144
    kernel_size: 1
    weight_filler {
      type: "xavier"
    }
    bias_filler {
      type: "constant"
      value: 0.2
    }
  }
}
layer {
  name: "inception_4d/relu_3x3_reduce"
  type: "ReLU"
  bottom: "inception_4d/3x3_reduce"
  top: "inception_4d/3x3_reduce"
}
layer {
  name: "inception_4d/3x3"
  type: "Convolution"
  bottom: "inception_4d/3x3_reduce"
  top: "inception_4d/3x3"
  param {
    lr_mult: 1
    decay_mult: 1
  }
  param {
    lr_mult: 2
    decay_mult: 0
  }
  convolution_param {
    num_output: 288
    pad: 1
    kernel_size: 3
    weight_filler {
      type: "xavier"
    }
    bias_filler {
      type: "constant"
      value: 0.2
    }
  }
}
layer {
  name: "inception_4d/relu_3x3"
  type: "ReLU"
  bottom: "inception_4d/3x3"
  top: "inception_4d/3x3"
}
layer {
  name: "inception_4d/5x5_reduce"
  type: "Convolution"
  bottom: "inception_4c/output"
  top: "inception_4d/5x5_reduce"
  param {
    lr_mult: 1
    decay_mult: 1
  }
  param {
    lr_mult: 2
    decay_mult: 0
  }
  convolution_param {
    num_output: 32
    kernel_size: 1
    weight_filler {
      type: "xavier"
    }
    bias_filler {
      type: "constant"
      value: 0.2
    }
  }
}
layer {
  name: "inception_4d/relu_5x5_reduce"
  type: "ReLU"
  bottom: "inception_4d/5x5_reduce"
  top: "inception_4d/5x5_reduce"
}
layer {
  name: "inception_4d/5x5"
  type: "Convolution"
  bottom: "inception_4d/5x5_reduce"
  top: "inception_4d/5x5"
  param {
    lr_mult: 1
    decay_mult: 1
  }
  param {
    lr_mult: 2
    decay_mult: 0
  }
  convolution_param {
    num_output: 64
    pad: 2
    kernel_size: 5
    weight_filler {
      type: "xavier"
    }
    bias_filler {
      type: "constant"
      value: 0.2
    }
  }
}
layer {
  name: "inception_4d/relu_5x5"
  type: "ReLU"
  bottom: "inception_4d/5x5"
  top: "inception_4d/5x5"
}
layer {
  name: "inception_4d/pool"
  type: "Pooling"
  bottom: "inception_4c/output"
  top: "inception_4d/pool"
  pooling_param {
    pool: MAX
    kernel_size: 3
    stride: 1
    pad: 1
  }
}
layer {
  name: "inception_4d/pool_proj"
  type: "Convolution"
  bottom: "inception_4d/pool"
  top: "inception_4d/pool_proj"
  param {
    lr_mult: 1
    decay_mult: 1
  }
  param {
    lr_mult: 2
    decay_mult: 0
  }
  convolution_param {
    num_output: 64
    kernel_size: 1
    weight_filler {
      type: "xavier"
    }
    bias_filler {
      type: "constant"
      value: 0.2
    }
  }
}
layer {
  name: "inception_4d/relu_pool_proj"
  type: "ReLU"
  bottom: "inception_4d/pool_proj"
  top: "inception_4d/pool_proj"
}
layer {
  name: "inception_4d/output"
  type: "Concat"
  bottom: "inception_4d/1x1"
  bottom: "inception_4d/3x3"
  bottom: "inception_4d/5x5"
  bottom: "inception_4d/pool_proj"
  top: "inception_4d/output"
}
layer {
  name: "loss2/ave_pool"
  type: "Pooling"
  bottom: "inception_4d/output"
  top: "loss2/ave_pool"
  pooling_param {
    pool: AVE
    kernel_size: 5
    stride: 3
  }
}
layer {
  name: "loss2/conv"
  type: "Convolution"
  bottom: "loss2/ave_pool"
  top: "loss2/conv"
  param {
    lr_mult: 1
    decay_mult: 1
  }
  param {
    lr_mult: 2
    decay_mult: 0
  }
  convolution_param {
    num_output: 128
    kernel_size: 1
    weight_filler {
      type: "xavier"
    }
    bias_filler {
      type: "constant"
      value: 0.2
    }
  }
}
layer {
  name: "loss2/relu_conv"
  type: "ReLU"
  bottom: "loss2/conv"
  top: "loss2/conv"
}
layer {
  name: "loss2/fc"
  type: "InnerProduct"
  bottom: "loss2/conv"
  top: "loss2/fc"
  param {
    lr_mult: 1
    decay_mult: 1
  }
  param {
    lr_mult: 2
    decay_mult: 0
  }
  inner_product_param {
    num_output: 1024
    weight_filler {
      type: "xavier"
    }
    bias_filler {
      type: "constant"
      value: 0.2
    }
  }
}
layer {
  name: "loss2/relu_fc"
  type: "ReLU"
  bottom: "loss2/fc"
  top: "loss2/fc"
}
layer {
  name: "loss2/drop_fc"
  type: "Dropout"
  bottom: "loss2/fc"
  top: "loss2/fc"
  dropout_param {
    dropout_ratio: 0.7
  }
}
layer {
  name: "loss2/classifier"
  type: "InnerProduct"
  bottom: "loss2/fc"
  top: "loss2/classifier"
  param {
    lr_mult: 1
    decay_mult: 1
  }
  param {
    lr_mult: 2
    decay_mult: 0
  }
  inner_product_param {
    num_output: 1000
    weight_filler {
      type: "xavier"
    }
    bias_filler {
      type: "constant"
      value: 0
    }
  }
}
layer {
  name: "loss2/loss"
  type: "SoftmaxWithLoss"
  bottom: "loss2/classifier"
  bottom: "label"
  top: "loss2/loss1"
  loss_weight: 0.3
}
layer {
  name: "inception_4e/1x1"
  type: "Convolution"
  bottom: "inception_4d/output"
  top: "inception_4e/1x1"
  param {
    lr_mult: 1
    decay_mult: 1
  }
  param {
    lr_mult: 2
    decay_mult: 0
  }
  convolution_param {
    num_output: 256
    kernel_size: 1
    weight_filler {
      type: "xavier"
    }
    bias_filler {
      type: "constant"
      value: 0.2
    }
  }
}
layer {
  name: "inception_4e/relu_1x1"
  type: "ReLU"
  bottom: "inception_4e/1x1"
  top: "inception_4e/1x1"
}
layer {
  name: "inception_4e/3x3_reduce"
  type: "Convolution"
  bottom: "inception_4d/output"
  top: "inception_4e/3x3_reduce"
  param {
    lr_mult: 1
    decay_mult: 1
  }
  param {
    lr_mult: 2
    decay_mult: 0
  }
  convolution_param {
    num_output: 160
    kernel_size: 1
    weight_filler {
      type: "xavier"
    }
    bias_filler {
      type: "constant"
      value: 0.2
    }
  }
}
layer {
  name: "inception_4e/relu_3x3_reduce"
  type: "ReLU"
  bottom: "inception_4e/3x3_reduce"
  top: "inception_4e/3x3_reduce"
}
layer {
  name: "inception_4e/3x3"
  type: "Convolution"
  bottom: "inception_4e/3x3_reduce"
  top: "inception_4e/3x3"
  param {
    lr_mult: 1
    decay_mult: 1
  }
  param {
    lr_mult: 2
    decay_mult: 0
  }
  convolution_param {
    num_output: 320
    pad: 1
    kernel_size: 3
    weight_filler {
      type: "xavier"
    }
    bias_filler {
      type: "constant"
      value: 0.2
    }
  }
}
layer {
  name: "inception_4e/relu_3x3"
  type: "ReLU"
  bottom: "inception_4e/3x3"
  top: "inception_4e/3x3"
}
layer {
  name: "inception_4e/5x5_reduce"
  type: "Convolution"
  bottom: "inception_4d/output"
  top: "inception_4e/5x5_reduce"
  param {
    lr_mult: 1
    decay_mult: 1
  }
  param {
    lr_mult: 2
    decay_mult: 0
  }
  convolution_param {
    num_output: 32
    kernel_size: 1
    weight_filler {
      type: "xavier"
    }
    bias_filler {
      type: "constant"
      value: 0.2
    }
  }
}
layer {
  name: "inception_4e/relu_5x5_reduce"
  type: "ReLU"
  bottom: "inception_4e/5x5_reduce"
  top: "inception_4e/5x5_reduce"
}
layer {
  name: "inception_4e/5x5"
  type: "Convolution"
  bottom: "inception_4e/5x5_reduce"
  top: "inception_4e/5x5"
  param {
    lr_mult: 1
    decay_mult: 1
  }
  param {
    lr_mult: 2
    decay_mult: 0
  }
  convolution_param {
    num_output: 128
    pad: 2
    kernel_size: 5
    weight_filler {
      type: "xavier"
    }
    bias_filler {
      type: "constant"
      value: 0.2
    }
  }
}
layer {
  name: "inception_4e/relu_5x5"
  type: "ReLU"
  bottom: "inception_4e/5x5"
  top: "inception_4e/5x5"
}
layer {
  name: "inception_4e/pool"
  type: "Pooling"
  bottom: "inception_4d/output"
  top: "inception_4e/pool"
  pooling_param {
    pool: MAX
    kernel_size: 3
    stride
I0928 21:27:06.433497 14300 layer_factory.hpp:77] Creating layer data
I0928 21:27:06.433948 14300 net.cpp:91] Creating Layer data
I0928 21:27:06.433959 14300 net.cpp:399] data -> data
I0928 21:27:06.433995 14300 net.cpp:399] data -> label
I0928 21:27:06.434008 14300 data_transformer.cpp:25] Loading mean file from: /media/red/BRIDGE/data/BOT/mean.binaryproto
I0928 21:27:06.434756 14307 db_lmdb.cpp:35] Opened lmdb /media/red/DATA/data/BOT/ccrvc_train_lmdb
I0928 21:27:06.446349 14300 data_layer.cpp:41] output data size: 8,3,224,224
I0928 21:27:06.453691 14300 net.cpp:141] Setting up data
I0928 21:27:06.453755 14300 net.cpp:148] Top shape: 8 3 224 224 (1204224)
I0928 21:27:06.453761 14300 net.cpp:148] Top shape: 8 (8)
I0928 21:27:06.453764 14300 net.cpp:156] Memory required for data: 4816928
I0928 21:27:06.453778 14300 layer_factory.hpp:77] Creating layer label_data_1_split
I0928 21:27:06.453794 14300 net.cpp:91] Creating Layer label_data_1_split
I0928 21:27:06.453801 14300 net.cpp:425] label_data_1_split <- label
I0928 21:27:06.453826 14300 net.cpp:399] label_data_1_split -> label_data_1_split_0
I0928 21:27:06.453850 14300 net.cpp:399] label_data_1_split -> label_data_1_split_1
I0928 21:27:06.453856 14300 net.cpp:399] label_data_1_split -> label_data_1_split_2
I0928 21:27:06.453909 14300 net.cpp:141] Setting up label_data_1_split
I0928 21:27:06.453917 14300 net.cpp:148] Top shape: 8 (8)
I0928 21:27:06.453920 14300 net.cpp:148] Top shape: 8 (8)
I0928 21:27:06.453925 14300 net.cpp:148] Top shape: 8 (8)
I0928 21:27:06.453929 14300 net.cpp:156] Memory required for data: 4817024
I0928 21:27:06.453933 14300 layer_factory.hpp:77] Creating layer conv1/7x7_s2
I0928 21:27:06.453950 14300 net.cpp:91] Creating Layer conv1/7x7_s2
I0928 21:27:06.453954 14300 net.cpp:425] conv1/7x7_s2 <- data
I0928 21:27:06.453961 14300 net.cpp:399] conv1/7x7_s2 -> conv1/7x7_s2
I0928 21:27:06.946362 14300 net.cpp:141] Setting up conv1/7x7_s2
I0928 21:27:06.946403 14300 net.cpp:148] Top shape: 8 64 112 112 (6422528)
I0928 21:27:06.946406 14300 net.cpp:156] Memory required for data: 30507136
I0928 21:27:06.946425 14300 layer_factory.hpp:77] Creating layer conv1/relu_7x7
I0928 21:27:06.946439 14300 net.cpp:91] Creating Layer conv1/relu_7x7
I0928 21:27:06.946444 14300 net.cpp:425] conv1/relu_7x7 <- conv1/7x7_s2
I0928 21:27:06.946449 14300 net.cpp:386] conv1/relu_7x7 -> conv1/7x7_s2 (in-place)
I0928 21:27:06.946564 14300 net.cpp:141] Setting up conv1/relu_7x7
I0928 21:27:06.946570 14300 net.cpp:148] Top shape: 8 64 112 112 (6422528)
I0928 21:27:06.946573 14300 net.cpp:156] Memory required for data: 56197248
I0928 21:27:06.946575 14300 layer_factory.hpp:77] Creating layer pool1/3x3_s2
I0928 21:27:06.946581 14300 net.cpp:91] Creating Layer pool1/3x3_s2
I0928 21:27:06.946584 14300 net.cpp:425] pool1/3x3_s2 <- conv1/7x7_s2
I0928 21:27:06.946588 14300 net.cpp:399] pool1/3x3_s2 -> pool1/3x3_s2
I0928 21:27:06.946619 14300 net.cpp:141] Setting up pool1/3x3_s2
I0928 21:27:06.946624 14300 net.cpp:148] Top shape: 8 64 56 56 (1605632)
I0928 21:27:06.946626 14300 net.cpp:156] Memory required for data: 62619776
I0928 21:27:06.946629 14300 layer_factory.hpp:77] Creating layer pool1/norm1
I0928 21:27:06.946635 14300 net.cpp:91] Creating Layer pool1/norm1
I0928 21:27:06.946638 14300 net.cpp:425] pool1/norm1 <- pool1/3x3_s2
I0928 21:27:06.946641 14300 net.cpp:399] pool1/norm1 -> pool1/norm1
I0928 21:27:06.946851 14300 net.cpp:141] Setting up pool1/norm1
I0928 21:27:06.946858 14300 net.cpp:148] Top shape: 8 64 56 56 (1605632)
I0928 21:27:06.946861 14300 net.cpp:156] Memory required for data: 69042304
I0928 21:27:06.946863 14300 layer_factory.hpp:77] Creating layer conv2/3x3_reduce
I0928 21:27:06.946872 14300 net.cpp:91] Creating Layer conv2/3x3_reduce
I0928 21:27:06.946876 14300 net.cpp:425] conv2/3x3_reduce <- pool1/norm1
I0928 21:27:06.946880 14300 net.cpp:399] conv2/3x3_reduce -> conv2/3x3_reduce
I0928 21:27:06.947831 14300 net.cpp:141] Setting up conv2/3x3_reduce
I0928 21:27:06.947841 14300 net.cpp:148] Top shape: 8 64 56 56 (1605632)
I0928 21:27:06.947844 14300 net.cpp:156] Memory required for data: 75464832
I0928 21:27:06.947850 14300 layer_factory.hpp:77] Creating layer conv2/relu_3x3_reduce
I0928 21:27:06.947855 14300 net.cpp:91] Creating Layer conv2/relu_3x3_reduce
I0928 21:27:06.947859 14300 net.cpp:425] conv2/relu_3x3_reduce <- conv2/3x3_reduce
I0928 21:27:06.947862 14300 net.cpp:386] conv2/relu_3x3_reduce -> conv2/3x3_reduce (in-place)
I0928 21:27:06.947959 14300 net.cpp:141] Setting up conv2/relu_3x3_reduce
I0928 21:27:06.947964 14300 net.cpp:148] Top shape: 8 64 56 56 (1605632)
I0928 21:27:06.947968 14300 net.cpp:156] Memory required for data: 81887360
I0928 21:27:06.947970 14300 layer_factory.hpp:77] Creating layer conv2/3x3
I0928 21:27:06.947978 14300 net.cpp:91] Creating Layer conv2/3x3
I0928 21:27:06.947980 14300 net.cpp:425] conv2/3x3 <- conv2/3x3_reduce
I0928 21:27:06.947984 14300 net.cpp:399] conv2/3x3 -> conv2/3x3
I0928 21:27:06.949611 14300 net.cpp:141] Setting up conv2/3x3
I0928 21:27:06.949620 14300 net.cpp:148] Top shape: 8 192 56 56 (4816896)
I0928 21:27:06.949625 14300 net.cpp:156] Memory required for data: 101154944
I0928 21:27:06.949630 14300 layer_factory.hpp:77] Creating layer conv2/relu_3x3
I0928 21:27:06.949635 14300 net.cpp:91] Creating Layer conv2/relu_3x3
I0928 21:27:06.949651 14300 net.cpp:425] conv2/relu_3x3 <- conv2/3x3
I0928 21:27:06.949656 14300 net.cpp:386] conv2/relu_3x3 -> conv2/3x3 (in-place)
I0928 21:27:06.949759 14300 net.cpp:141] Setting up conv2/relu_3x3
I0928 21:27:06.949765 14300 net.cpp:148] Top shape: 8 192 56 56 (4816896)
I0928 21:27:06.949769 14300 net.cpp:156] Memory required for data: 120422528
I0928 21:27:06.949770 14300 layer_factory.hpp:77] Creating layer conv2/norm2
I0928 21:27:06.949775 14300 net.cpp:91] Creating Layer conv2/norm2
I0928 21:27:06.949779 14300 net.cpp:425] conv2/norm2 <- conv2/3x3
I0928 21:27:06.949781 14300 net.cpp:399] conv2/norm2 -> conv2/norm2
I0928 21:27:06.949995 14300 net.cpp:141] Setting up conv2/norm2
I0928 21:27:06.950003 14300 net.cpp:148] Top shape: 8 192 56 56 (4816896)
I0928 21:27:06.950006 14300 net.cpp:156] Memory required for data: 139690112
I0928 21:27:06.950008 14300 layer_factory.hpp:77] Creating layer pool2/3x3_s2
I0928 21:27:06.950014 14300 net.cpp:91] Creating Layer pool2/3x3_s2
I0928 21:27:06.950017 14300 net.cpp:425] pool2/3x3_s2 <- conv2/norm2
I0928 21:27:06.950021 14300 net.cpp:399] pool2/3x3_s2 -> pool2/3x3_s2
I0928 21:27:06.950043 14300 net.cpp:141] Setting up pool2/3x3_s2
I0928 21:27:06.950048 14300 net.cpp:148] Top shape: 8 192 28 28 (1204224)
I0928 21:27:06.950050 14300 net.cpp:156] Memory required for data: 144507008
I0928 21:27:06.950052 14300 layer_factory.hpp:77] Creating layer pool2/3x3_s2_pool2/3x3_s2_0_split
I0928 21:27:06.950057 14300 net.cpp:91] Creating Layer pool2/3x3_s2_pool2/3x3_s2_0_split
I0928 21:27:06.950059 14300 net.cpp:425] pool2/3x3_s2_pool2/3x3_s2_0_split <- pool2/3x3_s2
I0928 21:27:06.950063 14300 net.cpp:399] pool2/3x3_s2_pool2/3x3_s2_0_split -> pool2/3x3_s2_pool2/3x3_s2_0_split_0
I0928 21:27:06.950067 14300 net.cpp:399] pool2/3x3_s2_pool2/3x3_s2_0_split -> pool2/3x3_s2_pool2/3x3_s2_0_split_1
I0928 21:27:06.950072 14300 net.cpp:399] pool2/3x3_s2_pool2/3x3_s2_0_split -> pool2/3x3_s2_pool2/3x3_s2_0_split_2
I0928 21:27:06.950075 14300 net.cpp:399] pool2/3x3_s2_pool2/3x3_s2_0_split -> pool2/3x3_s2_pool2/3x3_s2_0_split_3
I0928 21:27:06.950109 14300 net.cpp:141] Setting up pool2/3x3_s2_pool2/3x3_s2_0_split
I0928 21:27:06.950114 14300 net.cpp:148] Top shape: 8 192 28 28 (1204224)
I0928 21:27:06.950117 14300 net.cpp:148] Top shape: 8 192 28 28 (1204224)
I0928 21:27:06.950120 14300 net.cpp:148] Top shape: 8 192 28 28 (1204224)
I0928 21:27:06.950122 14300 net.cpp:148] Top shape: 8 192 28 28 (1204224)
I0928 21:27:06.950125 14300 net.cpp:156] Memory required for data: 163774592
I0928 21:27:06.950127 14300 layer_factory.hpp:77] Creating layer inception_3a/1x1
I0928 21:27:06.950134 14300 net.cpp:91] Creating Layer inception_3a/1x1
I0928 21:27:06.950136 14300 net.cpp:425] inception_3a/1x1 <- pool2/3x3_s2_pool2/3x3_s2_0_split_0
I0928 21:27:06.950140 14300 net.cpp:399] inception_3a/1x1 -> inception_3a/1x1
I0928 21:27:06.951140 14300 net.cpp:141] Setting up inception_3a/1x1
I0928 21:27:06.951149 14300 net.cpp:148] Top shape: 8 64 28 28 (401408)
I0928 21:27:06.951153 14300 net.cpp:156] Memory required for data: 165380224
I0928 21:27:06.951156 14300 layer_factory.hpp:77] Creating layer inception_3a/relu_1x1
I0928 21:27:06.951160 14300 net.cpp:91] Creating Layer inception_3a/relu_1x1
I0928 21:27:06.951164 14300 net.cpp:425] inception_3a/relu_1x1 <- inception_3a/1x1
I0928 21:27:06.951167 14300 net.cpp:386] inception_3a/relu_1x1 -> inception_3a/1x1 (in-place)
I0928 21:27:06.951274 14300 net.cpp:141] Setting up inception_3a/relu_1x1
I0928 21:27:06.951280 14300 net.cpp:148] Top shape: 8 64 28 28 (401408)
I0928 21:27:06.951282 14300 net.cpp:156] Memory required for data: 166985856
I0928 21:27:06.951284 14300 layer_factory.hpp:77] Creating layer inception_3a/3x3_reduce
I0928 21:27:06.951294 14300 net.cpp:91] Creating Layer inception_3a/3x3_reduce
I0928 21:27:06.951297 14300 net.cpp:425] inception_3a/3x3_reduce <- pool2/3x3_s2_pool2/3x3_s2_0_split_1
I0928 21:27:06.951303 14300 net.cpp:399] inception_3a/3x3_reduce -> inception_3a/3x3_reduce
I0928 21:27:06.952332 14300 net.cpp:141] Setting up inception_3a/3x3_reduce
I0928 21:27:06.952347 14300 net.cpp:148] Top shape: 8 96 28 28 (602112)
I0928 21:27:06.952349 14300 net.cpp:156] Memory required for data: 169394304
I0928 21:27:06.952355 14300 layer_factory.hpp:77] Creating layer inception_3a/relu_3x3_reduce
I0928 21:27:06.952363 14300 net.cpp:91] Creating Layer inception_3a/relu_3x3_reduce
I0928 21:27:06.952365 14300 net.cpp:425] inception_3a/relu_3x3_reduce <- inception_3a/3x3_reduce
I0928 21:27:06.952369 14300 net.cpp:386] inception_3a/relu_3x3_reduce -> inception_3a/3x3_reduce (in-place)
I0928 21:27:06.952569 14300 net.cpp:141] Setting up inception_3a/relu_3x3_reduce
I0928 21:27:06.952575 14300 net.cpp:148] Top shape: 8 96 28 28 (602112)
I0928 21:27:06.952579 14300 net.cpp:156] Memory required for data: 171802752
I0928 21:27:06.952580 14300 layer_factory.hpp:77] Creating layer inception_3a/3x3
I0928 21:27:06.952586 14300 net.cpp:91] Creating Layer inception_3a/3x3
I0928 21:27:06.952589 14300 net.cpp:425] inception_3a/3x3 <- inception_3a/3x3_reduce
I0928 21:27:06.952594 14300 net.cpp:399] inception_3a/3x3 -> inception_3a/3x3
I0928 21:27:06.953902 14300 net.cpp:141] Setting up inception_3a/3x3
I0928 21:27:06.953910 14300 net.cpp:148] Top shape: 8 128 28 28 (802816)
I0928 21:27:06.953913 14300 net.cpp:156] Memory required for data: 175014016
I0928 21:27:06.953917 14300 layer_factory.hpp:77] Creating layer inception_3a/relu_3x3
I0928 21:27:06.953922 14300 net.cpp:91] Creating Layer inception_3a/relu_3x3
I0928 21:27:06.953925 14300 net.cpp:425] inception_3a/relu_3x3 <- inception_3a/3x3
I0928 21:27:06.953928 14300 net.cpp:386] inception_3a/relu_3x3 -> inception_3a/3x3 (in-place)
I0928 21:27:06.954208 14300 net.cpp:141] Setting up inception_3a/relu_3x3
I0928 21:27:06.954216 14300 net.cpp:148] Top shape: 8 128 28 28 (802816)
I0928 21:27:06.954218 14300 net.cpp:156] Memory required for data: 178225280
I0928 21:27:06.954221 14300 layer_factory.hpp:77] Creating layer inception_3a/5x5_reduce
I0928 21:27:06.954227 14300 net.cpp:91] Creating Layer inception_3a/5x5_reduce
I0928 21:27:06.954231 14300 net.cpp:425] inception_3a/5x5_reduce <- pool2/3x3_s2_pool2/3x3_s2_0_split_2
I0928 21:27:06.954236 14300 net.cpp:399] inception_3a/5x5_reduce -> inception_3a/5x5_reduce
I0928 21:27:06.954928 14300 net.cpp:141] Setting up inception_3a/5x5_reduce
I0928 21:27:06.954936 14300 net.cpp:148] Top shape: 8 16 28 28 (100352)
I0928 21:27:06.954939 14300 net.cpp:156] Memory required for data: 178626688
I0928 21:27:06.954943 14300 layer_factory.hpp:77] Creating layer inception_3a/relu_5x5_reduce
I0928 21:27:06.954947 14300 net.cpp:91] Creating Layer inception_3a/relu_5x5_reduce
I0928 21:27:06.954951 14300 net.cpp:425] inception_3a/relu_5x5_reduce <- inception_3a/5x5_reduce
I0928 21:27:06.954955 14300 net.cpp:386] inception_3a/relu_5x5_reduce -> inception_3a/5x5_reduce (in-place)
I0928 21:27:06.955068 14300 net.cpp:141] Setting up inception_3a/relu_5x5_reduce
I0928 21:27:06.955075 14300 net.cpp:148] Top shape: 8 16 28 28 (100352)
I0928 21:27:06.955076 14300 net.cpp:156] Memory required for data: 179028096
I0928 21:27:06.955078 14300 layer_factory.hpp:77] Creating layer inception_3a/5x5
I0928 21:27:06.955085 14300 net.cpp:91] Creating Layer inception_3a/5x5
I0928 21:27:06.955087 14300 net.cpp:425] inception_3a/5x5 <- inception_3a/5x5_reduce
I0928 21:27:06.955092 14300 net.cpp:399] inception_3a/5x5 -> inception_3a/5x5
I0928 21:27:06.955920 14300 net.cpp:141] Setting up inception_3a/5x5
I0928 21:27:06.955929 14300 net.cpp:148] Top shape: 8 32 28 28 (200704)
I0928 21:27:06.955931 14300 net.cpp:156] Memory required for data: 179830912
I0928 21:27:06.955935 14300 layer_factory.hpp:77] Creating layer inception_3a/relu_5x5
I0928 21:27:06.955940 14300 net.cpp:91] Creating Layer inception_3a/relu_5x5
I0928 21:27:06.955943 14300 net.cpp:425] inception_3a/relu_5x5 <- inception_3a/5x5
I0928 21:27:06.955947 14300 net.cpp:386] inception_3a/relu_5x5 -> inception_3a/5x5 (in-place)
I0928 21:27:06.956146 14300 net.cpp:141] Setting up inception_3a/relu_5x5
I0928 21:27:06.956153 14300 net.cpp:148] Top shape: 8 32 28 28 (200704)
I0928 21:27:06.956163 14300 net.cpp:156] Memory required for data: 180633728
I0928 21:27:06.956166 14300 layer_factory.hpp:77] Creating layer inception_3a/pool
I0928 21:27:06.956171 14300 net.cpp:91] Creating Layer inception_3a/pool
I0928 21:27:06.956174 14300 net.cpp:425] inception_3a/pool <- pool2/3x3_s2_pool2/3x3_s2_0_split_3
I0928 21:27:06.956177 14300 net.cpp:399] inception_3a/pool -> inception_3a/pool
I0928 21:27:06.956207 14300 net.cpp:141] Setting up inception_3a/pool
I0928 21:27:06.956210 14300 net.cpp:148] Top shape: 8 192 28 28 (1204224)
I0928 21:27:06.956213 14300 net.cpp:156] Memory required for data: 185450624
I0928 21:27:06.956215 14300 layer_factory.hpp:77] Creating layer inception_3a/pool_proj
I0928 21:27:06.956220 14300 net.cpp:91] Creating Layer inception_3a/pool_proj
I0928 21:27:06.956223 14300 net.cpp:425] inception_3a/pool_proj <- inception_3a/pool
I0928 21:27:06.956228 14300 net.cpp:399] inception_3a/pool_proj -> inception_3a/pool_proj
I0928 21:27:06.956820 14300 net.cpp:141] Setting up inception_3a/pool_proj
I0928 21:27:06.956828 14300 net.cpp:148] Top shape: 8 32 28 28 (200704)
I0928 21:27:06.956831 14300 net.cpp:156] Memory required for data: 186253440
I0928 21:27:06.956838 14300 layer_factory.hpp:77] Creating layer inception_3a/relu_pool_proj
I0928 21:27:06.956843 14300 net.cpp:91] Creating Layer inception_3a/relu_pool_proj
I0928 21:27:06.956846 14300 net.cpp:425] inception_3a/relu_pool_proj <- inception_3a/pool_proj
I0928 21:27:06.956850 14300 net.cpp:386] inception_3a/relu_pool_proj -> inception_3a/pool_proj (in-place)
I0928 21:27:06.957046 14300 net.cpp:141] Setting up inception_3a/relu_pool_proj
I0928 21:27:06.957052 14300 net.cpp:148] Top shape: 8 32 28 28 (200704)
I0928 21:27:06.957056 14300 net.cpp:156] Memory required for data: 187056256
I0928 21:27:06.957057 14300 layer_factory.hpp:77] Creating layer inception_3a/output
I0928 21:27:06.957065 14300 net.cpp:91] Creating Layer inception_3a/output
I0928 21:27:06.957068 14300 net.cpp:425] inception_3a/output <- inception_3a/1x1
I0928 21:27:06.957072 14300 net.cpp:425] inception_3a/output <- inception_3a/3x3
I0928 21:27:06.957074 14300 net.cpp:425] inception_3a/output <- inception_3a/5x5
I0928 21:27:06.957077 14300 net.cpp:425] inception_3a/output <- inception_3a/pool_proj
I0928 21:27:06.957080 14300 net.cpp:399] inception_3a/output -> inception_3a/output
I0928 21:27:06.957098 14300 net.cpp:141] Setting up inception_3a/output
I0928 21:27:06.957103 14300 net.cpp:148] Top shape: 8 256 28 28 (1605632)
I0928 21:27:06.957105 14300 net.cpp:156] Memory required for data: 193478784
I0928 21:27:06.957108 14300 layer_factory.hpp:77] Creating layer inception_3a/output_inception_3a/output_0_split
I0928 21:27:06.957111 14300 net.cpp:91] Creating Layer inception_3a/output_inception_3a/output_0_split
I0928 21:27:06.957113 14300 net.cpp:425] inception_3a/output_inception_3a/output_0_split <- inception_3a/output
I0928 21:27:06.957118 14300 net.cpp:399] inception_3a/output_inception_3a/output_0_split -> inception_3a/output_inception_3a/output_0_split_0
I0928 21:27:06.957121 14300 net.cpp:399] inception_3a/output_inception_3a/output_0_split -> inception_3a/output_inception_3a/output_0_split_1
I0928 21:27:06.957125 14300 net.cpp:399] inception_3a/output_inception_3a/output_0_split -> inception_3a/output_inception_3a/output_0_split_2
I0928 21:27:06.957130 14300 net.cpp:399] inception_3a/output_inception_3a/output_0_split -> inception_3a/output_inception_3a/output_0_split_3
I0928 21:27:06.957170 14300 net.cpp:141] Setting up inception_3a/output_inception_3a/output_0_split
I0928 21:27:06.957173 14300 net.cpp:148] Top shape: 8 256 28 28 (1605632)
I0928 21:27:06.957176 14300 net.cpp:148] Top shape: 8 256 28 28 (1605632)
I0928 21:27:06.957178 14300 net.cpp:148] Top shape: 8 256 28 28 (1605632)
I0928 21:27:06.957181 14300 net.cpp:148] Top shape: 8 256 28 28 (1605632)
I0928 21:27:06.957183 14300 net.cpp:156] Memory required for data: 219168896
I0928 21:27:06.957185 14300 layer_factory.hpp:77] Creating layer inception_3b/1x1
I0928 21:27:06.957190 14300 net.cpp:91] Creating Layer inception_3b/1x1
I0928 21:27:06.957200 14300 net.cpp:425] inception_3b/1x1 <- inception_3a/output_inception_3a/output_0_split_0
I0928 21:27:06.957204 14300 net.cpp:399] inception_3b/1x1 -> inception_3b/1x1
I0928 21:27:06.958047 14300 net.cpp:141] Setting up inception_3b/1x1
I0928 21:27:06.958055 14300 net.cpp:148] Top shape: 8 128 28 28 (802816)
I0928 21:27:06.958057 14300 net.cpp:156] Memory required for data: 222380160
I0928 21:27:06.958062 14300 layer_factory.hpp:77] Creating layer inception_3b/relu_1x1
I0928 21:27:06.958070 14300 net.cpp:91] Creating Layer inception_3b/relu_1x1
I0928 21:27:06.958076 14300 net.cpp:425] inception_3b/relu_1x1 <- inception_3b/1x1
I0928 21:27:06.958081 14300 net.cpp:386] inception_3b/relu_1x1 -> inception_3b/1x1 (in-place)
I0928 21:27:06.958230 14300 net.cpp:141] Setting up inception_3b/relu_1x1
I0928 21:27:06.958238 14300 net.cpp:148] Top shape: 8 128 28 28 (802816)
I0928 21:27:06.958242 14300 net.cpp:156] Memory required for data: 225591424
I0928 21:27:06.958245 14300 layer_factory.hpp:77] Creating layer inception_3b/3x3_reduce
I0928 21:27:06.958252 14300 net.cpp:91] Creating Layer inception_3b/3x3_reduce
I0928 21:27:06.958256 14300 net.cpp:425] inception_3b/3x3_reduce <- inception_3a/output_inception_3a/output_0_split_1
I0928 21:27:06.958261 14300 net.cpp:399] inception_3b/3x3_reduce -> inception_3b/3x3_reduce
I0928 21:27:06.959125 14300 net.cpp:141] Setting up inception_3b/3x3_reduce
I0928 21:27:06.959132 14300 net.cpp:148] Top shape: 8 128 28 28 (802816)
I0928 21:27:06.959134 14300 net.cpp:156] Memory required for data: 228802688
I0928 21:27:06.959138 14300 layer_factory.hpp:77] Creating layer inception_3b/relu_3x3_reduce
I0928 21:27:06.959142 14300 net.cpp:91] Creating Layer inception_3b/relu_3x3_reduce
I0928 21:27:06.959146 14300 net.cpp:425] inception_3b/relu_3x3_reduce <- inception_3b/3x3_reduce
I0928 21:27:06.959149 14300 net.cpp:386] inception_3b/relu_3x3_reduce -> inception_3b/3x3_reduce (in-place)
I0928 21:27:06.959350 14300 net.cpp:141] Setting up inception_3b/relu_3x3_reduce
I0928 21:27:06.959357 14300 net.cpp:148] Top shape: 8 128 28 28 (802816)
I0928 21:27:06.959359 14300 net.cpp:156] Memory required for data: 232013952
I0928 21:27:06.959362 14300 layer_factory.hpp:77] Creating layer inception_3b/3x3
I0928 21:27:06.959370 14300 net.cpp:91] Creating Layer inception_3b/3x3
I0928 21:27:06.959374 14300 net.cpp:425] inception_3b/3x3 <- inception_3b/3x3_reduce
I0928 21:27:06.959379 14300 net.cpp:399] inception_3b/3x3 -> inception_3b/3x3
I0928 21:27:06.961673 14300 net.cpp:141] Setting up inception_3b/3x3
I0928 21:27:06.961683 14300 net.cpp:148] Top shape: 8 192 28 28 (1204224)
I0928 21:27:06.961684 14300 net.cpp:156] Memory required for data: 236830848
I0928 21:27:06.961689 14300 layer_factory.hpp:77] Creating layer inception_3b/relu_3x3
I0928 21:27:06.961694 14300 net.cpp:91] Creating Layer inception_3b/relu_3x3
I0928 21:27:06.961696 14300 net.cpp:425] inception_3b/relu_3x3 <- inception_3b/3x3
I0928 21:27:06.961701 14300 net.cpp:386] inception_3b/relu_3x3 -> inception_3b/3x3 (in-place)
I0928 21:27:06.961902 14300 net.cpp:141] Setting up inception_3b/relu_3x3
I0928 21:27:06.961910 14300 net.cpp:148] Top shape: 8 192 28 28 (1204224)
I0928 21:27:06.961911 14300 net.cpp:156] Memory required for data: 241647744
I0928 21:27:06.961913 14300 layer_factory.hpp:77] Creating layer inception_3b/5x5_reduce
I0928 21:27:06.961921 14300 net.cpp:91] Creating Layer inception_3b/5x5_reduce
I0928 21:27:06.961925 14300 net.cpp:425] inception_3b/5x5_reduce <- inception_3a/output_inception_3a/output_0_split_2
I0928 21:27:06.961928 14300 net.cpp:399] inception_3b/5x5_reduce -> inception_3b/5x5_reduce
I0928 21:27:06.962641 14300 net.cpp:141] Setting up inception_3b/5x5_reduce
I0928 21:27:06.962648 14300 net.cpp:148] Top shape: 8 32 28 28 (200704)
I0928 21:27:06.962651 14300 net.cpp:156] Memory required for data: 242450560
I0928 21:27:06.962656 14300 layer_factory.hpp:77] Creating layer inception_3b/relu_5x5_reduce
I0928 21:27:06.962661 14300 net.cpp:91] Creating Layer inception_3b/relu_5x5_reduce
I0928 21:27:06.962672 14300 net.cpp:425] inception_3b/relu_5x5_reduce <- inception_3b/5x5_reduce
I0928 21:27:06.962677 14300 net.cpp:386] inception_3b/relu_5x5_reduce -> inception_3b/5x5_reduce (in-place)
I0928 21:27:06.962875 14300 net.cpp:141] Setting up inception_3b/relu_5x5_reduce
I0928 21:27:06.962882 14300 net.cpp:148] Top shape: 8 32 28 28 (200704)
I0928 21:27:06.962884 14300 net.cpp:156] Memory required for data: 243253376
I0928 21:27:06.962888 14300 layer_factory.hpp:77] Creating layer inception_3b/5x5
I0928 21:27:06.962893 14300 net.cpp:91] Creating Layer inception_3b/5x5
I0928 21:27:06.962896 14300 net.cpp:425] inception_3b/5x5 <- inception_3b/5x5_reduce
I0928 21:27:06.962901 14300 net.cpp:399] inception_3b/5x5 -> inception_3b/5x5
I0928 21:27:06.964087 14300 net.cpp:141] Setting up inception_3b/5x5
I0928 21:27:06.964094 14300 net.cpp:148] Top shape: 8 96 28 28 (602112)
I0928 21:27:06.964097 14300 net.cpp:156] Memory required for data: 245661824
I0928 21:27:06.964102 14300 layer_factory.hpp:77] Creating layer inception_3b/relu_5x5
I0928 21:27:06.964105 14300 net.cpp:91] Creating Layer inception_3b/relu_5x5
I0928 21:27:06.964108 14300 net.cpp:425] inception_3b/relu_5x5 <- inception_3b/5x5
I0928 21:27:06.964112 14300 net.cpp:386] inception_3b/relu_5x5 -> inception_3b/5x5 (in-place)
I0928 21:27:06.964325 14300 net.cpp:141] Setting up inception_3b/relu_5x5
I0928 21:27:06.964334 14300 net.cpp:148] Top shape: 8 96 28 28 (602112)
I0928 21:27:06.964336 14300 net.cpp:156] Memory required for data: 248070272
I0928 21:27:06.964339 14300 layer_factory.hpp:77] Creating layer inception_3b/pool
I0928 21:27:06.964342 14300 net.cpp:91] Creating Layer inception_3b/pool
I0928 21:27:06.964345 14300 net.cpp:425] inception_3b/pool <- inception_3a/output_inception_3a/output_0_split_3
I0928 21:27:06.964349 14300 net.cpp:399] inception_3b/pool -> inception_3b/pool
I0928 21:27:06.964377 14300 net.cpp:141] Setting up inception_3b/pool
I0928 21:27:06.964382 14300 net.cpp:148] Top shape: 8 256 28 28 (1605632)
I0928 21:27:06.964385 14300 net.cpp:156] Memory required for data: 254492800
I0928 21:27:06.964386 14300 layer_factory.hpp:77] Creating layer inception_3b/pool_proj
I0928 21:27:06.964392 14300 net.cpp:91] Creating Layer inception_3b/pool_proj
I0928 21:27:06.964395 14300 net.cpp:425] inception_3b/pool_proj <- inception_3b/pool
I0928 21:27:06.964399 14300 net.cpp:399] inception_3b/pool_proj -> inception_3b/pool_proj
I0928 21:27:06.965077 14300 net.cpp:141] Setting up inception_3b/pool_proj
I0928 21:27:06.965087 14300 net.cpp:148] Top shape: 8 64 28 28 (401408)
I0928 21:27:06.965090 14300 net.cpp:156] Memory required for data: 256098432
I0928 21:27:06.965095 14300 layer_factory.hpp:77] Creating layer inception_3b/relu_pool_proj
I0928 21:27:06.965098 14300 net.cpp:91] Creating Layer inception_3b/relu_pool_proj
I0928 21:27:06.965102 14300 net.cpp:425] inception_3b/relu_pool_proj <- inception_3b/pool_proj
I0928 21:27:06.965106 14300 net.cpp:386] inception_3b/relu_pool_proj -> inception_3b/pool_proj (in-place)
I0928 21:27:06.965307 14300 net.cpp:141] Setting up inception_3b/relu_pool_proj
I0928 21:27:06.965314 14300 net.cpp:148] Top shape: 8 64 28 28 (401408)
I0928 21:27:06.965317 14300 net.cpp:156] Memory required for data: 257704064
I0928 21:27:06.965319 14300 layer_factory.hpp:77] Creating layer inception_3b/output
I0928 21:27:06.965324 14300 net.cpp:91] Creating Layer inception_3b/output
I0928 21:27:06.965327 14300 net.cpp:425] inception_3b/output <- inception_3b/1x1
I0928 21:27:06.965330 14300 net.cpp:425] inception_3b/output <- inception_3b/3x3
I0928 21:27:06.965333 14300 net.cpp:425] inception_3b/output <- inception_3b/5x5
I0928 21:27:06.965337 14300 net.cpp:425] inception_3b/output <- inception_3b/pool_proj
I0928 21:27:06.965339 14300 net.cpp:399] inception_3b/output -> inception_3b/output
I0928 21:27:06.965358 14300 net.cpp:141] Setting up inception_3b/output
I0928 21:27:06.965363 14300 net.cpp:148] Top shape: 8 480 28 28 (3010560)
I0928 21:27:06.965364 14300 net.cpp:156] Memory required for data: 269746304
I0928 21:27:06.965366 14300 layer_factory.hpp:77] Creating layer pool3/3x3_s2
I0928 21:27:06.965378 14300 net.cpp:91] Creating Layer pool3/3x3_s2
I0928 21:27:06.965380 14300 net.cpp:425] pool3/3x3_s2 <- inception_3b/output
I0928 21:27:06.965384 14300 net.cpp:399] pool3/3x3_s2 -> pool3/3x3_s2
I0928 21:27:06.965409 14300 net.cpp:141] Setting up pool3/3x3_s2
I0928 21:27:06.965415 14300 net.cpp:148] Top shape: 8 480 14 14 (752640)
I0928 21:27:06.965417 14300 net.cpp:156] Memory required for data: 272756864
I0928 21:27:06.965420 14300 layer_factory.hpp:77] Creating layer pool3/3x3_s2_pool3/3x3_s2_0_split
I0928 21:27:06.965422 14300 net.cpp:91] Creating Layer pool3/3x3_s2_pool3/3x3_s2_0_split
I0928 21:27:06.965425 14300 net.cpp:425] pool3/3x3_s2_pool3/3x3_s2_0_split <- pool3/3x3_s2
I0928 21:27:06.965428 14300 net.cpp:399] pool3/3x3_s2_pool3/3x3_s2_0_split -> pool3/3x3_s2_pool3/3x3_s2_0_split_0
I0928 21:27:06.965432 14300 net.cpp:399] pool3/3x3_s2_pool3/3x3_s2_0_split -> pool3/3x3_s2_pool3/3x3_s2_0_split_1
I0928 21:27:06.965437 14300 net.cpp:399] pool3/3x3_s2_pool3/3x3_s2_0_split -> pool3/3x3_s2_pool3/3x3_s2_0_split_2
I0928 21:27:06.965441 14300 net.cpp:399] pool3/3x3_s2_pool3/3x3_s2_0_split -> pool3/3x3_s2_pool3/3x3_s2_0_split_3
I0928 21:27:06.965479 14300 net.cpp:141] Setting up pool3/3x3_s2_pool3/3x3_s2_0_split
I0928 21:27:06.965483 14300 net.cpp:148] Top shape: 8 480 14 14 (752640)
I0928 21:27:06.965487 14300 net.cpp:148] Top shape: 8 480 14 14 (752640)
I0928 21:27:06.965489 14300 net.cpp:148] Top shape: 8 480 14 14 (752640)
I0928 21:27:06.965492 14300 net.cpp:148] Top shape: 8 480 14 14 (752640)
I0928 21:27:06.965494 14300 net.cpp:156] Memory required for data: 284799104
I0928 21:27:06.965497 14300 layer_factory.hpp:77] Creating layer inception_4a/1x1
I0928 21:27:06.965502 14300 net.cpp:91] Creating Layer inception_4a/1x1
I0928 21:27:06.965504 14300 net.cpp:425] inception_4a/1x1 <- pool3/3x3_s2_pool3/3x3_s2_0_split_0
I0928 21:27:06.965508 14300 net.cpp:399] inception_4a/1x1 -> inception_4a/1x1
I0928 21:27:06.967073 14300 net.cpp:141] Setting up inception_4a/1x1
I0928 21:27:06.967082 14300 net.cpp:148] Top shape: 8 192 14 14 (301056)
I0928 21:27:06.967085 14300 net.cpp:156] Memory required for data: 286003328
I0928 21:27:06.967090 14300 layer_factory.hpp:77] Creating layer inception_4a/relu_1x1
I0928 21:27:06.967095 14300 net.cpp:91] Creating Layer inception_4a/relu_1x1
I0928 21:27:06.967098 14300 net.cpp:425] inception_4a/relu_1x1 <- inception_4a/1x1
I0928 21:27:06.967103 14300 net.cpp:386] inception_4a/relu_1x1 -> inception_4a/1x1 (in-place)
I0928 21:27:06.967217 14300 net.cpp:141] Setting up inception_4a/relu_1x1
I0928 21:27:06.967222 14300 net.cpp:148] Top shape: 8 192 14 14 (301056)
I0928 21:27:06.967226 14300 net.cpp:156] Memory required for data: 287207552
I0928 21:27:06.967227 14300 layer_factory.hpp:77] Creating layer inception_4a/3x3_reduce
I0928 21:27:06.967233 14300 net.cpp:91] Creating Layer inception_4a/3x3_reduce
I0928 21:27:06.967236 14300 net.cpp:425] inception_4a/3x3_reduce <- pool3/3x3_s2_pool3/3x3_s2_0_split_1
I0928 21:27:06.967242 14300 net.cpp:399] inception_4a/3x3_reduce -> inception_4a/3x3_reduce
I0928 21:27:06.968220 14300 net.cpp:141] Setting up inception_4a/3x3_reduce
I0928 21:27:06.968228 14300 net.cpp:148] Top shape: 8 96 14 14 (150528)
I0928 21:27:06.968231 14300 net.cpp:156] Memory required for data: 287809664
I0928 21:27:06.968240 14300 layer_factory.hpp:77] Creating layer inception_4a/relu_3x3_reduce
I0928 21:27:06.968245 14300 net.cpp:91] Creating Layer inception_4a/relu_3x3_reduce
I0928 21:27:06.968248 14300 net.cpp:425] inception_4a/relu_3x3_reduce <- inception_4a/3x3_reduce
I0928 21:27:06.968251 14300 net.cpp:386] inception_4a/relu_3x3_reduce -> inception_4a/3x3_reduce (in-place)
I0928 21:27:06.968451 14300 net.cpp:141] Setting up inception_4a/relu_3x3_reduce
I0928 21:27:06.968459 14300 net.cpp:148] Top shape: 8 96 14 14 (150528)
I0928 21:27:06.968462 14300 net.cpp:156] Memory required for data: 288411776
I0928 21:27:06.968464 14300 layer_factory.hpp:77] Creating layer inception_4a/3x3
I0928 21:27:06.968471 14300 net.cpp:91] Creating Layer inception_4a/3x3
I0928 21:27:06.968479 14300 net.cpp:425] inception_4a/3x3 <- inception_4a/3x3_reduce
I0928 21:27:06.968484 14300 net.cpp:399] inception_4a/3x3 -> inception_4a/3x3
I0928 21:27:06.970496 14300 net.cpp:141] Setting up inception_4a/3x3
I0928 21:27:06.970504 14300 net.cpp:148] Top shape: 8 208 14 14 (326144)
I0928 21:27:06.970507 14300 net.cpp:156] Memory required for data: 289716352
I0928 21:27:06.970513 14300 layer_factory.hpp:77] Creating layer inception_4a/relu_3x3
I0928 21:27:06.970517 14300 net.cpp:91] Creating Layer inception_4a/relu_3x3
I0928 21:27:06.970520 14300 net.cpp:425] inception_4a/relu_3x3 <- inception_4a/3x3
I0928 21:27:06.970525 14300 net.cpp:386] inception_4a/relu_3x3 -> inception_4a/3x3 (in-place)
I0928 21:27:06.970727 14300 net.cpp:141] Setting up inception_4a/relu_3x3
I0928 21:27:06.970736 14300 net.cpp:148] Top shape: 8 208 14 14 (326144)
I0928 21:27:06.970737 14300 net.cpp:156] Memory required for data: 291020928
I0928 21:27:06.970741 14300 layer_factory.hpp:77] Creating layer inception_4a/5x5_reduce
I0928 21:27:06.970746 14300 net.cpp:91] Creating Layer inception_4a/5x5_reduce
I0928 21:27:06.970749 14300 net.cpp:425] inception_4a/5x5_reduce <- pool3/3x3_s2_pool3/3x3_s2_0_split_2
I0928 21:27:06.970753 14300 net.cpp:399] inception_4a/5x5_reduce -> inception_4a/5x5_reduce
I0928 21:27:06.971496 14300 net.cpp:141] Setting up inception_4a/5x5_reduce
I0928 21:27:06.971505 14300 net.cpp:148] Top shape: 8 16 14 14 (25088)
I0928 21:27:06.971508 14300 net.cpp:156] Memory required for data: 291121280
I0928 21:27:06.971513 14300 layer_factory.hpp:77] Creating layer inception_4a/relu_5x5_reduce
I0928 21:27:06.971518 14300 net.cpp:91] Creating Layer inception_4a/relu_5x5_reduce
I0928 21:27:06.971521 14300 net.cpp:425] inception_4a/relu_5x5_reduce <- inception_4a/5x5_reduce
I0928 21:27:06.971524 14300 net.cpp:386] inception_4a/relu_5x5_reduce -> inception_4a/5x5_reduce (in-place)
I0928 21:27:06.971632 14300 net.cpp:141] Setting up inception_4a/relu_5x5_reduce
I0928 21:27:06.971637 14300 net.cpp:148] Top shape: 8 16 14 14 (25088)
I0928 21:27:06.971640 14300 net.cpp:156] Memory required for data: 291221632
I0928 21:27:06.971642 14300 layer_factory.hpp:77] Creating layer inception_4a/5x5
I0928 21:27:06.971648 14300 net.cpp:91] Creating Layer inception_4a/5x5
I0928 21:27:06.971652 14300 net.cpp:425] inception_4a/5x5 <- inception_4a/5x5_reduce
I0928 21:27:06.971655 14300 net.cpp:399] inception_4a/5x5 -> inception_4a/5x5
I0928 21:27:06.972465 14300 net.cpp:141] Setting up inception_4a/5x5
I0928 21:27:06.972472 14300 net.cpp:148] Top shape: 8 48 14 14 (75264)
I0928 21:27:06.972476 14300 net.cpp:156] Memory required for data: 291522688
I0928 21:27:06.972479 14300 layer_factory.hpp:77] Creating layer inception_4a/relu_5x5
I0928 21:27:06.972483 14300 net.cpp:91] Creating Layer inception_4a/relu_5x5
I0928 21:27:06.972486 14300 net.cpp:425] inception_4a/relu_5x5 <- inception_4a/5x5
I0928 21:27:06.972491 14300 net.cpp:386] inception_4a/relu_5x5 -> inception_4a/5x5 (in-place)
I0928 21:27:06.972692 14300 net.cpp:141] Setting up inception_4a/relu_5x5
I0928 21:27:06.972699 14300 net.cpp:148] Top shape: 8 48 14 14 (75264)
I0928 21:27:06.972702 14300 net.cpp:156] Memory required for data: 291823744
I0928 21:27:06.972703 14300 layer_factory.hpp:77] Creating layer inception_4a/pool
I0928 21:27:06.972708 14300 net.cpp:91] Creating Layer inception_4a/pool
I0928 21:27:06.972712 14300 net.cpp:425] inception_4a/pool <- pool3/3x3_s2_pool3/3x3_s2_0_split_3
I0928 21:27:06.972717 14300 net.cpp:399] inception_4a/pool -> inception_4a/pool
I0928 21:27:06.972746 14300 net.cpp:141] Setting up inception_4a/pool
I0928 21:27:06.972750 14300 net.cpp:148] Top shape: 8 480 14 14 (752640)
I0928 21:27:06.972753 14300 net.cpp:156] Memory required for data: 294834304
I0928 21:27:06.972754 14300 layer_factory.hpp:77] Creating layer inception_4a/pool_proj
I0928 21:27:06.972760 14300 net.cpp:91] Creating Layer inception_4a/pool_proj
I0928 21:27:06.972764 14300 net.cpp:425] inception_4a/pool_proj <- inception_4a/pool
I0928 21:27:06.972775 14300 net.cpp:399] inception_4a/pool_proj -> inception_4a/pool_proj
I0928 21:27:06.973677 14300 net.cpp:141] Setting up inception_4a/pool_proj
I0928 21:27:06.973688 14300 net.cpp:148] Top shape: 8 64 14 14 (100352)
I0928 21:27:06.973691 14300 net.cpp:156] Memory required for data: 295235712
I0928 21:27:06.973698 14300 layer_factory.hpp:77] Creating layer inception_4a/relu_pool_proj
I0928 21:27:06.973706 14300 net.cpp:91] Creating Layer inception_4a/relu_pool_proj
I0928 21:27:06.973709 14300 net.cpp:425] inception_4a/relu_pool_proj <- inception_4a/pool_proj
I0928 21:27:06.973747 14300 net.cpp:386] inception_4a/relu_pool_proj -> inception_4a/pool_proj (in-place)
I0928 21:27:06.973975 14300 net.cpp:141] Setting up inception_4a/relu_pool_proj
I0928 21:27:06.973984 14300 net.cpp:148] Top shape: 8 64 14 14 (100352)
I0928 21:27:06.973989 14300 net.cpp:156] Memory required for data: 295637120
I0928 21:27:06.973991 14300 layer_factory.hpp:77] Creating layer inception_4a/output
I0928 21:27:06.973999 14300 net.cpp:91] Creating Layer inception_4a/output
I0928 21:27:06.974004 14300 net.cpp:425] inception_4a/output <- inception_4a/1x1
I0928 21:27:06.974009 14300 net.cpp:425] inception_4a/output <- inception_4a/3x3
I0928 21:27:06.974014 14300 net.cpp:425] inception_4a/output <- inception_4a/5x5
I0928 21:27:06.974017 14300 net.cpp:425] inception_4a/output <- inception_4a/pool_proj
I0928 21:27:06.974023 14300 net.cpp:399] inception_4a/output -> inception_4a/output
I0928 21:27:06.974048 14300 net.cpp:141] Setting up inception_4a/output
I0928 21:27:06.974055 14300 net.cpp:148] Top shape: 8 512 14 14 (802816)
I0928 21:27:06.974058 14300 net.cpp:156] Memory required for data: 298848384
I0928 21:27:06.974063 14300 layer_factory.hpp:77] Creating layer inception_4a/output_inception_4a/output_0_split
I0928 21:27:06.974069 14300 net.cpp:91] Creating Layer inception_4a/output_inception_4a/output_0_split
I0928 21:27:06.974073 14300 net.cpp:425] inception_4a/output_inception_4a/output_0_split <- inception_4a/output
I0928 21:27:06.974078 14300 net.cpp:399] inception_4a/output_inception_4a/output_0_split -> inception_4a/output_inception_4a/output_0_split_0
I0928 21:27:06.974086 14300 net.cpp:399] inception_4a/output_inception_4a/output_0_split -> inception_4a/output_inception_4a/output_0_split_1
I0928 21:27:06.974092 14300 net.cpp:399] inception_4a/output_inception_4a/output_0_split -> inception_4a/output_inception_4a/output_0_split_2
I0928 21:27:06.974099 14300 net.cpp:399] inception_4a/output_inception_4a/output_0_split -> inception_4a/output_inception_4a/output_0_split_3
I0928 21:27:06.974107 14300 net.cpp:399] inception_4a/output_inception_4a/output_0_split -> inception_4a/output_inception_4a/output_0_split_4
I0928 21:27:06.974161 14300 net.cpp:141] Setting up inception_4a/output_inception_4a/output_0_split
I0928 21:27:06.974166 14300 net.cpp:148] Top shape: 8 512 14 14 (802816)
I0928 21:27:06.974171 14300 net.cpp:148] Top shape: 8 512 14 14 (802816)
I0928 21:27:06.974176 14300 net.cpp:148] Top shape: 8 512 14 14 (802816)
I0928 21:27:06.974180 14300 net.cpp:148] Top shape: 8 512 14 14 (802816)
I0928 21:27:06.974185 14300 net.cpp:148] Top shape: 8 512 14 14 (802816)
I0928 21:27:06.974189 14300 net.cpp:156] Memory required for data: 314904704
I0928 21:27:06.974194 14300 layer_factory.hpp:77] Creating layer loss1/ave_pool
I0928 21:27:06.974202 14300 net.cpp:91] Creating Layer loss1/ave_pool
I0928 21:27:06.974206 14300 net.cpp:425] loss1/ave_pool <- inception_4a/output_inception_4a/output_0_split_0
I0928 21:27:06.974211 14300 net.cpp:399] loss1/ave_pool -> loss1/ave_pool
I0928 21:27:06.975097 14300 net.cpp:141] Setting up loss1/ave_pool
I0928 21:27:06.975106 14300 net.cpp:148] Top shape: 8 512 4 4 (65536)
I0928 21:27:06.975109 14300 net.cpp:156] Memory required for data: 315166848
I0928 21:27:06.975112 14300 layer_factory.hpp:77] Creating layer loss1/conv
I0928 21:27:06.975122 14300 net.cpp:91] Creating Layer loss1/conv
I0928 21:27:06.975126 14300 net.cpp:425] loss1/conv <- loss1/ave_pool
I0928 21:27:06.975132 14300 net.cpp:399] loss1/conv -> loss1/conv
I0928 21:27:06.976260 14300 net.cpp:141] Setting up loss1/conv
I0928 21:27:06.976270 14300 net.cpp:148] Top shape: 8 128 4 4 (16384)
I0928 21:27:06.976274 14300 net.cpp:156] Memory required for data: 315232384
I0928 21:27:06.976282 14300 layer_factory.hpp:77] Creating layer loss1/relu_conv
I0928 21:27:06.976289 14300 net.cpp:91] Creating Layer loss1/relu_conv
I0928 21:27:06.976294 14300 net.cpp:425] loss1/relu_conv <- loss1/conv
I0928 21:27:06.976300 14300 net.cpp:386] loss1/relu_conv -> loss1/conv (in-place)
I0928 21:27:06.976511 14300 net.cpp:141] Setting up loss1/relu_conv
I0928 21:27:06.976519 14300 net.cpp:148] Top shape: 8 128 4 4 (16384)
I0928 21:27:06.976523 14300 net.cpp:156] Memory required for data: 315297920
I0928 21:27:06.976527 14300 layer_factory.hpp:77] Creating layer loss1/fc
I0928 21:27:06.976541 14300 net.cpp:91] Creating Layer loss1/fc
I0928 21:27:06.976546 14300 net.cpp:425] loss1/fc <- loss1/conv
I0928 21:27:06.976552 14300 net.cpp:399] loss1/fc -> loss1/fc
I0928 21:27:06.991488 14300 net.cpp:141] Setting up loss1/fc
I0928 21:27:06.991515 14300 net.cpp:148] Top shape: 8 1024 (8192)
I0928 21:27:06.991519 14300 net.cpp:156] Memory required for data: 315330688
I0928 21:27:06.991544 14300 layer_factory.hpp:77] Creating layer loss1/relu_fc
I0928 21:27:06.991554 14300 net.cpp:91] Creating Layer loss1/relu_fc
I0928 21:27:06.991559 14300 net.cpp:425] loss1/relu_fc <- loss1/fc
I0928 21:27:06.991580 14300 net.cpp:386] loss1/relu_fc -> loss1/fc (in-place)
I0928 21:27:06.991762 14300 net.cpp:141] Setting up loss1/relu_fc
I0928 21:27:06.991770 14300 net.cpp:148] Top shape: 8 1024 (8192)
I0928 21:27:06.991773 14300 net.cpp:156] Memory required for data: 315363456
I0928 21:27:06.991792 14300 layer_factory.hpp:77] Creating layer loss1/drop_fc
I0928 21:27:06.991807 14300 net.cpp:91] Creating Layer loss1/drop_fc
I0928 21:27:06.991811 14300 net.cpp:425] loss1/drop_fc <- loss1/fc
I0928 21:27:06.991830 14300 net.cpp:386] loss1/drop_fc -> loss1/fc (in-place)
I0928 21:27:06.991884 14300 net.cpp:141] Setting up loss1/drop_fc
I0928 21:27:06.991889 14300 net.cpp:148] Top shape: 8 1024 (8192)
I0928 21:27:06.991894 14300 net.cpp:156] Memory required for data: 315396224
I0928 21:27:06.991911 14300 layer_factory.hpp:77] Creating layer loss1/classifier
I0928 21:27:06.991920 14300 net.cpp:91] Creating Layer loss1/classifier
I0928 21:27:06.991925 14300 net.cpp:425] loss1/classifier <- loss1/fc
I0928 21:27:06.991930 14300 net.cpp:399] loss1/classifier -> loss1/classifier
I0928 21:27:06.999061 14300 net.cpp:141] Setting up loss1/classifier
I0928 21:27:06.999076 14300 net.cpp:148] Top shape: 8 1000 (8000)
I0928 21:27:06.999079 14300 net.cpp:156] Memory required for data: 315428224
I0928 21:27:06.999088 14300 layer_factory.hpp:77] Creating layer loss1/loss
I0928 21:27:06.999097 14300 net.cpp:91] Creating Layer loss1/loss
I0928 21:27:06.999102 14300 net.cpp:425] loss1/loss <- loss1/classifier
I0928 21:27:06.999109 14300 net.cpp:425] loss1/loss <- label_data_1_split_0
I0928 21:27:06.999116 14300 net.cpp:399] loss1/loss -> loss1/loss1
I0928 21:27:06.999127 14300 layer_factory.hpp:77] Creating layer loss1/loss
I0928 21:27:06.999482 14300 net.cpp:141] Setting up loss1/loss
I0928 21:27:06.999491 14300 net.cpp:148] Top shape: (1)
I0928 21:27:06.999495 14300 net.cpp:151]     with loss weight 0.3
I0928 21:27:06.999511 14300 net.cpp:156] Memory required for data: 315428228
I0928 21:27:06.999514 14300 layer_factory.hpp:77] Creating layer inception_4b/1x1
I0928 21:27:06.999526 14300 net.cpp:91] Creating Layer inception_4b/1x1
I0928 21:27:06.999531 14300 net.cpp:425] inception_4b/1x1 <- inception_4a/output_inception_4a/output_0_split_1
I0928 21:27:06.999538 14300 net.cpp:399] inception_4b/1x1 -> inception_4b/1x1
I0928 21:27:07.000799 14300 net.cpp:141] Setting up inception_4b/1x1
I0928 21:27:07.000808 14300 net.cpp:148] Top shape: 8 160 14 14 (250880)
I0928 21:27:07.000813 14300 net.cpp:156] Memory required for data: 316431748
I0928 21:27:07.000819 14300 layer_factory.hpp:77] Creating layer inception_4b/relu_1x1
I0928 21:27:07.000839 14300 net.cpp:91] Creating Layer inception_4b/relu_1x1
I0928 21:27:07.000844 14300 net.cpp:425] inception_4b/relu_1x1 <- inception_4b/1x1
I0928 21:27:07.000851 14300 net.cpp:386] inception_4b/relu_1x1 -> inception_4b/1x1 (in-place)
I0928 21:27:07.000968 14300 net.cpp:141] Setting up inception_4b/relu_1x1
I0928 21:27:07.000974 14300 net.cpp:148] Top shape: 8 160 14 14 (250880)
I0928 21:27:07.000978 14300 net.cpp:156] Memory required for data: 317435268
I0928 21:27:07.000982 14300 layer_factory.hpp:77] Creating layer inception_4b/3x3_reduce
I0928 21:27:07.000993 14300 net.cpp:91] Creating Layer inception_4b/3x3_reduce
I0928 21:27:07.000998 14300 net.cpp:425] inception_4b/3x3_reduce <- inception_4a/output_inception_4a/output_0_split_2
I0928 21:27:07.001004 14300 net.cpp:399] inception_4b/3x3_reduce -> inception_4b/3x3_reduce
I0928 21:27:07.002379 14300 net.cpp:141] Setting up inception_4b/3x3_reduce
I0928 21:27:07.002389 14300 net.cpp:148] Top shape: 8 112 14 14 (175616)
I0928 21:27:07.002393 14300 net.cpp:156] Memory required for data: 318137732
I0928 21:27:07.002399 14300 layer_factory.hpp:77] Creating layer inception_4b/relu_3x3_reduce
I0928 21:27:07.002409 14300 net.cpp:91] Creating Layer inception_4b/relu_3x3_reduce
I0928 21:27:07.002414 14300 net.cpp:425] inception_4b/relu_3x3_reduce <- inception_4b/3x3_reduce
I0928 21:27:07.002420 14300 net.cpp:386] inception_4b/relu_3x3_reduce -> inception_4b/3x3_reduce (in-place)
I0928 21:27:07.002634 14300 net.cpp:141] Setting up inception_4b/relu_3x3_reduce
I0928 21:27:07.002641 14300 net.cpp:148] Top shape: 8 112 14 14 (175616)
I0928 21:27:07.002645 14300 net.cpp:156] Memory required for data: 318840196
I0928 21:27:07.002648 14300 layer_factory.hpp:77] Creating layer inception_4b/3x3
I0928 21:27:07.002660 14300 net.cpp:91] Creating Layer inception_4b/3x3
I0928 21:27:07.002665 14300 net.cpp:425] inception_4b/3x3 <- inception_4b/3x3_reduce
I0928 21:27:07.002671 14300 net.cpp:399] inception_4b/3x3 -> inception_4b/3x3
I0928 21:27:07.005054 14300 net.cpp:141] Setting up inception_4b/3x3
I0928 21:27:07.005064 14300 net.cpp:148] Top shape: 8 224 14 14 (351232)
I0928 21:27:07.005069 14300 net.cpp:156] Memory required for data: 320245124
I0928 21:27:07.005075 14300 layer_factory.hpp:77] Creating layer inception_4b/relu_3x3
I0928 21:27:07.005081 14300 net.cpp:91] Creating Layer inception_4b/relu_3x3
I0928 21:27:07.005085 14300 net.cpp:425] inception_4b/relu_3x3 <- inception_4b/3x3
I0928 21:27:07.005094 14300 net.cpp:386] inception_4b/relu_3x3 -> inception_4b/3x3 (in-place)
I0928 21:27:07.005313 14300 net.cpp:141] Setting up inception_4b/relu_3x3
I0928 21:27:07.005321 14300 net.cpp:148] Top shape: 8 224 14 14 (351232)
I0928 21:27:07.005326 14300 net.cpp:156] Memory required for data: 321650052
I0928 21:27:07.005328 14300 layer_factory.hpp:77] Creating layer inception_4b/5x5_reduce
I0928 21:27:07.005338 14300 net.cpp:91] Creating Layer inception_4b/5x5_reduce
I0928 21:27:07.005342 14300 net.cpp:425] inception_4b/5x5_reduce <- inception_4a/output_inception_4a/output_0_split_3
I0928 21:27:07.005350 14300 net.cpp:399] inception_4b/5x5_reduce -> inception_4b/5x5_reduce
I0928 21:27:07.006161 14300 net.cpp:141] Setting up inception_4b/5x5_reduce
I0928 21:27:07.006170 14300 net.cpp:148] Top shape: 8 24 14 14 (37632)
I0928 21:27:07.006175 14300 net.cpp:156] Memory required for data: 321800580
I0928 21:27:07.006181 14300 layer_factory.hpp:77] Creating layer inception_4b/relu_5x5_reduce
I0928 21:27:07.006188 14300 net.cpp:91] Creating Layer inception_4b/relu_5x5_reduce
I0928 21:27:07.006193 14300 net.cpp:425] inception_4b/relu_5x5_reduce <- inception_4b/5x5_reduce
I0928 21:27:07.006201 14300 net.cpp:386] inception_4b/relu_5x5_reduce -> inception_4b/5x5_reduce (in-place)
I0928 21:27:07.006322 14300 net.cpp:141] Setting up inception_4b/relu_5x5_reduce
I0928 21:27:07.006330 14300 net.cpp:148] Top shape: 8 24 14 14 (37632)
I0928 21:27:07.006332 14300 net.cpp:156] Memory required for data: 321951108
I0928 21:27:07.006336 14300 layer_factory.hpp:77] Creating layer inception_4b/5x5
I0928 21:27:07.006359 14300 net.cpp:91] Creating Layer inception_4b/5x5
I0928 21:27:07.006364 14300 net.cpp:425] inception_4b/5x5 <- inception_4b/5x5_reduce
I0928 21:27:07.006371 14300 net.cpp:399] inception_4b/5x5 -> inception_4b/5x5
I0928 21:27:07.008411 14300 net.cpp:141] Setting up inception_4b/5x5
I0928 21:27:07.008421 14300 net.cpp:148] Top shape: 8 64 14 14 (100352)
I0928 21:27:07.008425 14300 net.cpp:156] Memory required for data: 322352516
I0928 21:27:07.008432 14300 layer_factory.hpp:77] Creating layer inception_4b/relu_5x5
I0928 21:27:07.008451 14300 net.cpp:91] Creating Layer inception_4b/relu_5x5
I0928 21:27:07.008456 14300 net.cpp:425] inception_4b/relu_5x5 <- inception_4b/5x5
I0928 21:27:07.008476 14300 net.cpp:386] inception_4b/relu_5x5 -> inception_4b/5x5 (in-place)
I0928 21:27:07.008699 14300 net.cpp:141] Setting up inception_4b/relu_5x5
I0928 21:27:07.008708 14300 net.cpp:148] Top shape: 8 64 14 14 (100352)
I0928 21:27:07.008724 14300 net.cpp:156] Memory required for data: 322753924
I0928 21:27:07.008729 14300 layer_factory.hpp:77] Creating layer inception_4b/pool
I0928 21:27:07.008736 14300 net.cpp:91] Creating Layer inception_4b/pool
I0928 21:27:07.008752 14300 net.cpp:425] inception_4b/pool <- inception_4a/output_inception_4a/output_0_split_4
I0928 21:27:07.008759 14300 net.cpp:399] inception_4b/pool -> inception_4b/pool
I0928 21:27:07.008826 14300 net.cpp:141] Setting up inception_4b/pool
I0928 21:27:07.008832 14300 net.cpp:148] Top shape: 8 512 14 14 (802816)
I0928 21:27:07.008849 14300 net.cpp:156] Memory required for data: 325965188
I0928 21:27:07.008852 14300 layer_factory.hpp:77] Creating layer inception_4b/pool_proj
I0928 21:27:07.008862 14300 net.cpp:91] Creating Layer inception_4b/pool_proj
I0928 21:27:07.008867 14300 net.cpp:425] inception_4b/pool_proj <- inception_4b/pool
I0928 21:27:07.008873 14300 net.cpp:399] inception_4b/pool_proj -> inception_4b/pool_proj
I0928 21:27:07.009825 14300 net.cpp:141] Setting up inception_4b/pool_proj
I0928 21:27:07.009835 14300 net.cpp:148] Top shape: 8 64 14 14 (100352)
I0928 21:27:07.009840 14300 net.cpp:156] Memory required for data: 326366596
I0928 21:27:07.009846 14300 layer_factory.hpp:77] Creating layer inception_4b/relu_pool_proj
I0928 21:27:07.009855 14300 net.cpp:91] Creating Layer inception_4b/relu_pool_proj
I0928 21:27:07.009860 14300 net.cpp:425] inception_4b/relu_pool_proj <- inception_4b/pool_proj
I0928 21:27:07.009866 14300 net.cpp:386] inception_4b/relu_pool_proj -> inception_4b/pool_proj (in-place)
I0928 21:27:07.010116 14300 net.cpp:141] Setting up inception_4b/relu_pool_proj
I0928 21:27:07.010125 14300 net.cpp:148] Top shape: 8 64 14 14 (100352)
I0928 21:27:07.010143 14300 net.cpp:156] Memory required for data: 326768004
I0928 21:27:07.010149 14300 layer_factory.hpp:77] Creating layer inception_4b/output
I0928 21:27:07.010155 14300 net.cpp:91] Creating Layer inception_4b/output
I0928 21:27:07.010159 14300 net.cpp:425] inception_4b/output <- inception_4b/1x1
I0928 21:27:07.010164 14300 net.cpp:425] inception_4b/output <- inception_4b/3x3
I0928 21:27:07.010170 14300 net.cpp:425] inception_4b/output <- inception_4b/5x5
I0928 21:27:07.010187 14300 net.cpp:425] inception_4b/output <- inception_4b/pool_proj
I0928 21:27:07.010207 14300 net.cpp:399] inception_4b/output -> inception_4b/output
I0928 21:27:07.010232 14300 net.cpp:141] Setting up inception_4b/output
I0928 21:27:07.010238 14300 net.cpp:148] Top shape: 8 512 14 14 (802816)
I0928 21:27:07.010242 14300 net.cpp:156] Memory required for data: 329979268
I0928 21:27:07.010247 14300 layer_factory.hpp:77] Creating layer inception_4b/output_inception_4b/output_0_split
I0928 21:27:07.010253 14300 net.cpp:91] Creating Layer inception_4b/output_inception_4b/output_0_split
I0928 21:27:07.010258 14300 net.cpp:425] inception_4b/output_inception_4b/output_0_split <- inception_4b/output
I0928 21:27:07.010264 14300 net.cpp:399] inception_4b/output_inception_4b/output_0_split -> inception_4b/output_inception_4b/output_0_split_0
I0928 21:27:07.010272 14300 net.cpp:399] inception_4b/output_inception_4b/output_0_split -> inception_4b/output_inception_4b/output_0_split_1
I0928 21:27:07.010288 14300 net.cpp:399] inception_4b/output_inception_4b/output_0_split -> inception_4b/output_inception_4b/output_0_split_2
I0928 21:27:07.010294 14300 net.cpp:399] inception_4b/output_inception_4b/output_0_split -> inception_4b/output_inception_4b/output_0_split_3
I0928 21:27:07.010340 14300 net.cpp:141] Setting up inception_4b/output_inception_4b/output_0_split
I0928 21:27:07.010345 14300 net.cpp:148] Top shape: 8 512 14 14 (802816)
I0928 21:27:07.010351 14300 net.cpp:148] Top shape: 8 512 14 14 (802816)
I0928 21:27:07.010356 14300 net.cpp:148] Top shape: 8 512 14 14 (802816)
I0928 21:27:07.010361 14300 net.cpp:148] Top shape: 8 512 14 14 (802816)
I0928 21:27:07.010365 14300 net.cpp:156] Memory required for data: 342824324
I0928 21:27:07.010368 14300 layer_factory.hpp:77] Creating layer inception_4c/1x1
I0928 21:27:07.010376 14300 net.cpp:91] Creating Layer inception_4c/1x1
I0928 21:27:07.010381 14300 net.cpp:425] inception_4c/1x1 <- inception_4b/output_inception_4b/output_0_split_0
I0928 21:27:07.010387 14300 net.cpp:399] inception_4c/1x1 -> inception_4c/1x1
I0928 21:27:07.011529 14300 net.cpp:141] Setting up inception_4c/1x1
I0928 21:27:07.011539 14300 net.cpp:148] Top shape: 8 128 14 14 (200704)
I0928 21:27:07.011543 14300 net.cpp:156] Memory required for data: 343627140
I0928 21:27:07.011549 14300 layer_factory.hpp:77] Creating layer inception_4c/relu_1x1
I0928 21:27:07.011557 14300 net.cpp:91] Creating Layer inception_4c/relu_1x1
I0928 21:27:07.011562 14300 net.cpp:425] inception_4c/relu_1x1 <- inception_4c/1x1
I0928 21:27:07.011569 14300 net.cpp:386] inception_4c/relu_1x1 -> inception_4c/1x1 (in-place)
I0928 21:27:07.011682 14300 net.cpp:141] Setting up inception_4c/relu_1x1
I0928 21:27:07.011690 14300 net.cpp:148] Top shape: 8 128 14 14 (200704)
I0928 21:27:07.011695 14300 net.cpp:156] Memory required for data: 344429956
I0928 21:27:07.011698 14300 layer_factory.hpp:77] Creating layer inception_4c/3x3_reduce
I0928 21:27:07.011710 14300 net.cpp:91] Creating Layer inception_4c/3x3_reduce
I0928 21:27:07.011714 14300 net.cpp:425] inception_4c/3x3_reduce <- inception_4b/output_inception_4b/output_0_split_1
I0928 21:27:07.011723 14300 net.cpp:399] inception_4c/3x3_reduce -> inception_4c/3x3_reduce
I0928 21:27:07.012856 14300 net.cpp:141] Setting up inception_4c/3x3_reduce
I0928 21:27:07.012866 14300 net.cpp:148] Top shape: 8 128 14 14 (200704)
I0928 21:27:07.012869 14300 net.cpp:156] Memory required for data: 345232772
I0928 21:27:07.012876 14300 layer_factory.hpp:77] Creating layer inception_4c/relu_3x3_reduce
I0928 21:27:07.012882 14300 net.cpp:91] Creating Layer inception_4c/relu_3x3_reduce
I0928 21:27:07.012888 14300 net.cpp:425] inception_4c/relu_3x3_reduce <- inception_4c/3x3_reduce
I0928 21:27:07.012894 14300 net.cpp:386] inception_4c/relu_3x3_reduce -> inception_4c/3x3_reduce (in-place)
I0928 21:27:07.013108 14300 net.cpp:141] Setting up inception_4c/relu_3x3_reduce
I0928 21:27:07.013115 14300 net.cpp:148] Top shape: 8 128 14 14 (200704)
I0928 21:27:07.013119 14300 net.cpp:156] Memory required for data: 346035588
I0928 21:27:07.013123 14300 layer_factory.hpp:77] Creating layer inception_4c/3x3
I0928 21:27:07.013133 14300 net.cpp:91] Creating Layer inception_4c/3x3
I0928 21:27:07.013137 14300 net.cpp:425] inception_4c/3x3 <- inception_4c/3x3_reduce
I0928 21:27:07.013145 14300 net.cpp:399] inception_4c/3x3 -> inception_4c/3x3
I0928 21:27:07.015946 14300 net.cpp:141] Setting up inception_4c/3x3
I0928 21:27:07.015956 14300 net.cpp:148] Top shape: 8 256 14 14 (401408)
I0928 21:27:07.015960 14300 net.cpp:156] Memory required for data: 347641220
I0928 21:27:07.015980 14300 layer_factory.hpp:77] Creating layer inception_4c/relu_3x3
I0928 21:27:07.015985 14300 net.cpp:91] Creating Layer inception_4c/relu_3x3
I0928 21:27:07.015991 14300 net.cpp:425] inception_4c/relu_3x3 <- inception_4c/3x3
I0928 21:27:07.015997 14300 net.cpp:386] inception_4c/relu_3x3 -> inception_4c/3x3 (in-place)
I0928 21:27:07.016216 14300 net.cpp:141] Setting up inception_4c/relu_3x3
I0928 21:27:07.016230 14300 net.cpp:148] Top shape: 8 256 14 14 (401408)
I0928 21:27:07.016234 14300 net.cpp:156] Memory required for data: 349246852
I0928 21:27:07.016239 14300 layer_factory.hpp:77] Creating layer inception_4c/5x5_reduce
I0928 21:27:07.016249 14300 net.cpp:91] Creating Layer inception_4c/5x5_reduce
I0928 21:27:07.016253 14300 net.cpp:425] inception_4c/5x5_reduce <- inception_4b/output_inception_4b/output_0_split_2
I0928 21:27:07.016263 14300 net.cpp:399] inception_4c/5x5_reduce -> inception_4c/5x5_reduce
I0928 21:27:07.017076 14300 net.cpp:141] Setting up inception_4c/5x5_reduce
I0928 21:27:07.017084 14300 net.cpp:148] Top shape: 8 24 14 14 (37632)
I0928 21:27:07.017088 14300 net.cpp:156] Memory required for data: 349397380
I0928 21:27:07.017096 14300 layer_factory.hpp:77] Creating layer inception_4c/relu_5x5_reduce
I0928 21:27:07.017102 14300 net.cpp:91] Creating Layer inception_4c/relu_5x5_reduce
I0928 21:27:07.017107 14300 net.cpp:425] inception_4c/relu_5x5_reduce <- inception_4c/5x5_reduce
I0928 21:27:07.017113 14300 net.cpp:386] inception_4c/relu_5x5_reduce -> inception_4c/5x5_reduce (in-place)
I0928 21:27:07.017230 14300 net.cpp:141] Setting up inception_4c/relu_5x5_reduce
I0928 21:27:07.017236 14300 net.cpp:148] Top shape: 8 24 14 14 (37632)
I0928 21:27:07.017241 14300 net.cpp:156] Memory required for data: 349547908
I0928 21:27:07.017244 14300 layer_factory.hpp:77] Creating layer inception_4c/5x5
I0928 21:27:07.017253 14300 net.cpp:91] Creating Layer inception_4c/5x5
I0928 21:27:07.017258 14300 net.cpp:425] inception_4c/5x5 <- inception_4c/5x5_reduce
I0928 21:27:07.017266 14300 net.cpp:399] inception_4c/5x5 -> inception_4c/5x5
I0928 21:27:07.018525 14300 net.cpp:141] Setting up inception_4c/5x5
I0928 21:27:07.018534 14300 net.cpp:148] Top shape: 8 64 14 14 (100352)
I0928 21:27:07.018538 14300 net.cpp:156] Memory required for data: 349949316
I0928 21:27:07.018545 14300 layer_factory.hpp:77] Creating layer inception_4c/relu_5x5
I0928 21:27:07.018553 14300 net.cpp:91] Creating Layer inception_4c/relu_5x5
I0928 21:27:07.018558 14300 net.cpp:425] inception_4c/relu_5x5 <- inception_4c/5x5
I0928 21:27:07.018564 14300 net.cpp:386] inception_4c/relu_5x5 -> inception_4c/5x5 (in-place)
I0928 21:27:07.018780 14300 net.cpp:141] Setting up inception_4c/relu_5x5
I0928 21:27:07.018788 14300 net.cpp:148] Top shape: 8 64 14 14 (100352)
I0928 21:27:07.018792 14300 net.cpp:156] Memory required for data: 350350724
I0928 21:27:07.018797 14300 layer_factory.hpp:77] Creating layer inception_4c/pool
I0928 21:27:07.018805 14300 net.cpp:91] Creating Layer inception_4c/pool
I0928 21:27:07.018810 14300 net.cpp:425] inception_4c/pool <- inception_4b/output_inception_4b/output_0_split_3
I0928 21:27:07.018817 14300 net.cpp:399] inception_4c/pool -> inception_4c/pool
I0928 21:27:07.018853 14300 net.cpp:141] Setting up inception_4c/pool
I0928 21:27:07.018859 14300 net.cpp:148] Top shape: 8 512 14 14 (802816)
I0928 21:27:07.018863 14300 net.cpp:156] Memory required for data: 353561988
I0928 21:27:07.018868 14300 layer_factory.hpp:77] Creating layer inception_4c/pool_proj
I0928 21:27:07.018877 14300 net.cpp:91] Creating Layer inception_4c/pool_proj
I0928 21:27:07.018882 14300 net.cpp:425] inception_4c/pool_proj <- inception_4c/pool
I0928 21:27:07.018888 14300 net.cpp:399] inception_4c/pool_proj -> inception_4c/pool_proj
I0928 21:27:07.019729 14300 net.cpp:141] Setting up inception_4c/pool_proj
I0928 21:27:07.019739 14300 net.cpp:148] Top shape: 8 64 14 14 (100352)
I0928 21:27:07.019743 14300 net.cpp:156] Memory required for data: 353963396
I0928 21:27:07.019749 14300 layer_factory.hpp:77] Creating layer inception_4c/relu_pool_proj
I0928 21:27:07.019757 14300 net.cpp:91] Creating Layer inception_4c/relu_pool_proj
I0928 21:27:07.019762 14300 net.cpp:425] inception_4c/relu_pool_proj <- inception_4c/pool_proj
I0928 21:27:07.019767 14300 net.cpp:386] inception_4c/relu_pool_proj -> inception_4c/pool_proj (in-place)
I0928 21:27:07.019986 14300 net.cpp:141] Setting up inception_4c/relu_pool_proj
I0928 21:27:07.019994 14300 net.cpp:148] Top shape: 8 64 14 14 (100352)
I0928 21:27:07.020007 14300 net.cpp:156] Memory required for data: 354364804
I0928 21:27:07.020011 14300 layer_factory.hpp:77] Creating layer inception_4c/output
I0928 21:27:07.020020 14300 net.cpp:91] Creating Layer inception_4c/output
I0928 21:27:07.020023 14300 net.cpp:425] inception_4c/output <- inception_4c/1x1
I0928 21:27:07.020030 14300 net.cpp:425] inception_4c/output <- inception_4c/3x3
I0928 21:27:07.020035 14300 net.cpp:425] inception_4c/output <- inception_4c/5x5
I0928 21:27:07.020040 14300 net.cpp:425] inception_4c/output <- inception_4c/pool_proj
I0928 21:27:07.020045 14300 net.cpp:399] inception_4c/output -> inception_4c/output
I0928 21:27:07.020071 14300 net.cpp:141] Setting up inception_4c/output
I0928 21:27:07.020076 14300 net.cpp:148] Top shape: 8 512 14 14 (802816)
I0928 21:27:07.020081 14300 net.cpp:156] Memory required for data: 357576068
I0928 21:27:07.020086 14300 layer_factory.hpp:77] Creating layer inception_4c/output_inception_4c/output_0_split
I0928 21:27:07.020092 14300 net.cpp:91] Creating Layer inception_4c/output_inception_4c/output_0_split
I0928 21:27:07.020095 14300 net.cpp:425] inception_4c/output_inception_4c/output_0_split <- inception_4c/output
I0928 21:27:07.020102 14300 net.cpp:399] inception_4c/output_inception_4c/output_0_split -> inception_4c/output_inception_4c/output_0_split_0
I0928 21:27:07.020109 14300 net.cpp:399] inception_4c/output_inception_4c/output_0_split -> inception_4c/output_inception_4c/output_0_split_1
I0928 21:27:07.020115 14300 net.cpp:399] inception_4c/output_inception_4c/output_0_split -> inception_4c/output_inception_4c/output_0_split_2
I0928 21:27:07.020123 14300 net.cpp:399] inception_4c/output_inception_4c/output_0_split -> inception_4c/output_inception_4c/output_0_split_3
I0928 21:27:07.020174 14300 net.cpp:141] Setting up inception_4c/output_inception_4c/output_0_split
I0928 21:27:07.020180 14300 net.cpp:148] Top shape: 8 512 14 14 (802816)
I0928 21:27:07.020185 14300 net.cpp:148] Top shape: 8 512 14 14 (802816)
I0928 21:27:07.020190 14300 net.cpp:148] Top shape: 8 512 14 14 (802816)
I0928 21:27:07.020195 14300 net.cpp:148] Top shape: 8 512 14 14 (802816)
I0928 21:27:07.020200 14300 net.cpp:156] Memory required for data: 370421124
I0928 21:27:07.020205 14300 layer_factory.hpp:77] Creating layer inception_4d/1x1
I0928 21:27:07.020213 14300 net.cpp:91] Creating Layer inception_4d/1x1
I0928 21:27:07.020217 14300 net.cpp:425] inception_4d/1x1 <- inception_4c/output_inception_4c/output_0_split_0
I0928 21:27:07.020223 14300 net.cpp:399] inception_4d/1x1 -> inception_4d/1x1
I0928 21:27:07.021317 14300 net.cpp:141] Setting up inception_4d/1x1
I0928 21:27:07.021327 14300 net.cpp:148] Top shape: 8 112 14 14 (175616)
I0928 21:27:07.021329 14300 net.cpp:156] Memory required for data: 371123588
I0928 21:27:07.021337 14300 layer_factory.hpp:77] Creating layer inception_4d/relu_1x1
I0928 21:27:07.021343 14300 net.cpp:91] Creating Layer inception_4d/relu_1x1
I0928 21:27:07.021348 14300 net.cpp:425] inception_4d/relu_1x1 <- inception_4d/1x1
I0928 21:27:07.021354 14300 net.cpp:386] inception_4d/relu_1x1 -> inception_4d/1x1 (in-place)
I0928 21:27:07.021472 14300 net.cpp:141] Setting up inception_4d/relu_1x1
I0928 21:27:07.021481 14300 net.cpp:148] Top shape: 8 112 14 14 (175616)
I0928 21:27:07.021484 14300 net.cpp:156] Memory required for data: 371826052
I0928 21:27:07.021488 14300 layer_factory.hpp:77] Creating layer inception_4d/3x3_reduce
I0928 21:27:07.021498 14300 net.cpp:91] Creating Layer inception_4d/3x3_reduce
I0928 21:27:07.021503 14300 net.cpp:425] inception_4d/3x3_reduce <- inception_4c/output_inception_4c/output_0_split_1
I0928 21:27:07.021510 14300 net.cpp:399] inception_4d/3x3_reduce -> inception_4d/3x3_reduce
I0928 21:27:07.023195 14300 net.cpp:141] Setting up inception_4d/3x3_reduce
I0928 21:27:07.023205 14300 net.cpp:148] Top shape: 8 144 14 14 (225792)
I0928 21:27:07.023210 14300 net.cpp:156] Memory required for data: 372729220
I0928 21:27:07.023216 14300 layer_factory.hpp:77] Creating layer inception_4d/relu_3x3_reduce
I0928 21:27:07.023228 14300 net.cpp:91] Creating Layer inception_4d/relu_3x3_reduce
I0928 21:27:07.023233 14300 net.cpp:425] inception_4d/relu_3x3_reduce <- inception_4d/3x3_reduce
I0928 21:27:07.023241 14300 net.cpp:386] inception_4d/relu_3x3_reduce -> inception_4d/3x3_reduce (in-place)
I0928 21:27:07.023480 14300 net.cpp:141] Setting up inception_4d/relu_3x3_reduce
I0928 21:27:07.023488 14300 net.cpp:148] Top shape: 8 144 14 14 (225792)
I0928 21:27:07.023493 14300 net.cpp:156] Memory required for data: 373632388
I0928 21:27:07.023496 14300 layer_factory.hpp:77] Creating layer inception_4d/3x3
I0928 21:27:07.023507 14300 net.cpp:91] Creating Layer inception_4d/3x3
I0928 21:27:07.023512 14300 net.cpp:425] inception_4d/3x3 <- inception_4d/3x3_reduce
I0928 21:27:07.023520 14300 net.cpp:399] inception_4d/3x3 -> inception_4d/3x3
I0928 21:27:07.028993 14300 net.cpp:141] Setting up inception_4d/3x3
I0928 21:27:07.029003 14300 net.cpp:148] Top shape: 8 288 14 14 (451584)
I0928 21:27:07.029007 14300 net.cpp:156] Memory required for data: 375438724
I0928 21:27:07.029016 14300 layer_factory.hpp:77] Creating layer inception_4d/relu_3x3
I0928 21:27:07.029021 14300 net.cpp:91] Creating Layer inception_4d/relu_3x3
I0928 21:27:07.029026 14300 net.cpp:425] inception_4d/relu_3x3 <- inception_4d/3x3
I0928 21:27:07.029034 14300 net.cpp:386] inception_4d/relu_3x3 -> inception_4d/3x3 (in-place)
I0928 21:27:07.029520 14300 net.cpp:141] Setting up inception_4d/relu_3x3
I0928 21:27:07.029528 14300 net.cpp:148] Top shape: 8 288 14 14 (451584)
I0928 21:27:07.029532 14300 net.cpp:156] Memory required for data: 377245060
I0928 21:27:07.029536 14300 layer_factory.hpp:77] Creating layer inception_4d/5x5_reduce
I0928 21:27:07.029548 14300 net.cpp:91] Creating Layer inception_4d/5x5_reduce
I0928 21:27:07.029552 14300 net.cpp:425] inception_4d/5x5_reduce <- inception_4c/output_inception_4c/output_0_split_2
I0928 21:27:07.029562 14300 net.cpp:399] inception_4d/5x5_reduce -> inception_4d/5x5_reduce
I0928 21:27:07.032403 14300 net.cpp:141] Setting up inception_4d/5x5_reduce
I0928 21:27:07.032412 14300 net.cpp:148] Top shape: 8 32 14 14 (50176)
I0928 21:27:07.032413 14300 net.cpp:156] Memory required for data: 377445764
I0928 21:27:07.032418 14300 layer_factory.hpp:77] Creating layer inception_4d/relu_5x5_reduce
I0928 21:27:07.032423 14300 net.cpp:91] Creating Layer inception_4d/relu_5x5_reduce
I0928 21:27:07.032425 14300 net.cpp:425] inception_4d/relu_5x5_reduce <- inception_4d/5x5_reduce
I0928 21:27:07.032428 14300 net.cpp:386] inception_4d/relu_5x5_reduce -> inception_4d/5x5_reduce (in-place)
I0928 21:27:07.032546 14300 net.cpp:141] Setting up inception_4d/relu_5x5_reduce
I0928 21:27:07.032552 14300 net.cpp:148] Top shape: 8 32 14 14 (50176)
I0928 21:27:07.032553 14300 net.cpp:156] Memory required for data: 377646468
I0928 21:27:07.032555 14300 layer_factory.hpp:77] Creating layer inception_4d/5x5
I0928 21:27:07.032562 14300 net.cpp:91] Creating Layer inception_4d/5x5
I0928 21:27:07.032564 14300 net.cpp:425] inception_4d/5x5 <- inception_4d/5x5_reduce
I0928 21:27:07.032568 14300 net.cpp:399] inception_4d/5x5 -> inception_4d/5x5
I0928 21:27:07.033656 14300 net.cpp:141] Setting up inception_4d/5x5
I0928 21:27:07.033664 14300 net.cpp:148] Top shape: 8 64 14 14 (100352)
I0928 21:27:07.033668 14300 net.cpp:156] Memory required for data: 378047876
I0928 21:27:07.033671 14300 layer_factory.hpp:77] Creating layer inception_4d/relu_5x5
I0928 21:27:07.033675 14300 net.cpp:91] Creating Layer inception_4d/relu_5x5
I0928 21:27:07.033677 14300 net.cpp:425] inception_4d/relu_5x5 <- inception_4d/5x5
I0928 21:27:07.033681 14300 net.cpp:386] inception_4d/relu_5x5 -> inception_4d/5x5 (in-place)
I0928 21:27:07.033892 14300 net.cpp:141] Setting up inception_4d/relu_5x5
I0928 21:27:07.033898 14300 net.cpp:148] Top shape: 8 64 14 14 (100352)
I0928 21:27:07.033900 14300 net.cpp:156] Memory required for data: 378449284
I0928 21:27:07.033902 14300 layer_factory.hpp:77] Creating layer inception_4d/pool
I0928 21:27:07.033907 14300 net.cpp:91] Creating Layer inception_4d/pool
I0928 21:27:07.033918 14300 net.cpp:425] inception_4d/pool <- inception_4c/output_inception_4c/output_0_split_3
I0928 21:27:07.033922 14300 net.cpp:399] inception_4d/pool -> inception_4d/pool
I0928 21:27:07.033957 14300 net.cpp:141] Setting up inception_4d/pool
I0928 21:27:07.033962 14300 net.cpp:148] Top shape: 8 512 14 14 (802816)
I0928 21:27:07.033963 14300 net.cpp:156] Memory required for data: 381660548
I0928 21:27:07.033965 14300 layer_factory.hpp:77] Creating layer inception_4d/pool_proj
I0928 21:27:07.033970 14300 net.cpp:91] Creating Layer inception_4d/pool_proj
I0928 21:27:07.033974 14300 net.cpp:425] inception_4d/pool_proj <- inception_4d/pool
I0928 21:27:07.033977 14300 net.cpp:399] inception_4d/pool_proj -> inception_4d/pool_proj
I0928 21:27:07.034838 14300 net.cpp:141] Setting up inception_4d/pool_proj
I0928 21:27:07.034845 14300 net.cpp:148] Top shape: 8 64 14 14 (100352)
I0928 21:27:07.034847 14300 net.cpp:156] Memory required for data: 382061956
I0928 21:27:07.034852 14300 layer_factory.hpp:77] Creating layer inception_4d/relu_pool_proj
I0928 21:27:07.034855 14300 net.cpp:91] Creating Layer inception_4d/relu_pool_proj
I0928 21:27:07.034857 14300 net.cpp:425] inception_4d/relu_pool_proj <- inception_4d/pool_proj
I0928 21:27:07.034862 14300 net.cpp:386] inception_4d/relu_pool_proj -> inception_4d/pool_proj (in-place)
I0928 21:27:07.035106 14300 net.cpp:141] Setting up inception_4d/relu_pool_proj
I0928 21:27:07.035114 14300 net.cpp:148] Top shape: 8 64 14 14 (100352)
I0928 21:27:07.035115 14300 net.cpp:156] Memory required for data: 382463364
I0928 21:27:07.035117 14300 layer_factory.hpp:77] Creating layer inception_4d/output
I0928 21:27:07.035122 14300 net.cpp:91] Creating Layer inception_4d/output
I0928 21:27:07.035125 14300 net.cpp:425] inception_4d/output <- inception_4d/1x1
I0928 21:27:07.035127 14300 net.cpp:425] inception_4d/output <- inception_4d/3x3
I0928 21:27:07.035130 14300 net.cpp:425] inception_4d/output <- inception_4d/5x5
I0928 21:27:07.035132 14300 net.cpp:425] inception_4d/output <- inception_4d/pool_proj
I0928 21:27:07.035136 14300 net.cpp:399] inception_4d/output -> inception_4d/output
I0928 21:27:07.035158 14300 net.cpp:141] Setting up inception_4d/output
I0928 21:27:07.035162 14300 net.cpp:148] Top shape: 8 528 14 14 (827904)
I0928 21:27:07.035164 14300 net.cpp:156] Memory required for data: 385774980
I0928 21:27:07.035166 14300 layer_factory.hpp:77] Creating layer inception_4d/output_inception_4d/output_0_split
I0928 21:27:07.035169 14300 net.cpp:91] Creating Layer inception_4d/output_inception_4d/output_0_split
I0928 21:27:07.035171 14300 net.cpp:425] inception_4d/output_inception_4d/output_0_split <- inception_4d/output
I0928 21:27:07.035176 14300 net.cpp:399] inception_4d/output_inception_4d/output_0_split -> inception_4d/output_inception_4d/output_0_split_0
I0928 21:27:07.035181 14300 net.cpp:399] inception_4d/output_inception_4d/output_0_split -> inception_4d/output_inception_4d/output_0_split_1
I0928 21:27:07.035183 14300 net.cpp:399] inception_4d/output_inception_4d/output_0_split -> inception_4d/output_inception_4d/output_0_split_2
I0928 21:27:07.035187 14300 net.cpp:399] inception_4d/output_inception_4d/output_0_split -> inception_4d/output_inception_4d/output_0_split_3
I0928 21:27:07.035190 14300 net.cpp:399] inception_4d/output_inception_4d/output_0_split -> inception_4d/output_inception_4d/output_0_split_4
I0928 21:27:07.035248 14300 net.cpp:141] Setting up inception_4d/output_inception_4d/output_0_split
I0928 21:27:07.035251 14300 net.cpp:148] Top shape: 8 528 14 14 (827904)
I0928 21:27:07.035254 14300 net.cpp:148] Top shape: 8 528 14 14 (827904)
I0928 21:27:07.035256 14300 net.cpp:148] Top shape: 8 528 14 14 (827904)
I0928 21:27:07.035259 14300 net.cpp:148] Top shape: 8 528 14 14 (827904)
I0928 21:27:07.035260 14300 net.cpp:148] Top shape: 8 528 14 14 (827904)
I0928 21:27:07.035262 14300 net.cpp:156] Memory required for data: 402333060
I0928 21:27:07.035264 14300 layer_factory.hpp:77] Creating layer loss2/ave_pool
I0928 21:27:07.035267 14300 net.cpp:91] Creating Layer loss2/ave_pool
I0928 21:27:07.035275 14300 net.cpp:425] loss2/ave_pool <- inception_4d/output_inception_4d/output_0_split_0
I0928 21:27:07.035279 14300 net.cpp:399] loss2/ave_pool -> loss2/ave_pool
I0928 21:27:07.035406 14300 net.cpp:141] Setting up loss2/ave_pool
I0928 21:27:07.035411 14300 net.cpp:148] Top shape: 8 528 4 4 (67584)
I0928 21:27:07.035413 14300 net.cpp:156] Memory required for data: 402603396
I0928 21:27:07.035415 14300 layer_factory.hpp:77] Creating layer loss2/conv
I0928 21:27:07.035421 14300 net.cpp:91] Creating Layer loss2/conv
I0928 21:27:07.035423 14300 net.cpp:425] loss2/conv <- loss2/ave_pool
I0928 21:27:07.035429 14300 net.cpp:399] loss2/conv -> loss2/conv
I0928 21:27:07.036638 14300 net.cpp:141] Setting up loss2/conv
I0928 21:27:07.036648 14300 net.cpp:148] Top shape: 8 128 4 4 (16384)
I0928 21:27:07.036651 14300 net.cpp:156] Memory required for data: 402668932
I0928 21:27:07.036658 14300 layer_factory.hpp:77] Creating layer loss2/relu_conv
I0928 21:27:07.036664 14300 net.cpp:91] Creating Layer loss2/relu_conv
I0928 21:27:07.036669 14300 net.cpp:425] loss2/relu_conv <- loss2/conv
I0928 21:27:07.036676 14300 net.cpp:386] loss2/relu_conv -> loss2/conv (in-place)
I0928 21:27:07.036900 14300 net.cpp:141] Setting up loss2/relu_conv
I0928 21:27:07.036908 14300 net.cpp:148] Top shape: 8 128 4 4 (16384)
I0928 21:27:07.036912 14300 net.cpp:156] Memory required for data: 402734468
I0928 21:27:07.036916 14300 layer_factory.hpp:77] Creating layer loss2/fc
I0928 21:27:07.036926 14300 net.cpp:91] Creating Layer loss2/fc
I0928 21:27:07.036929 14300 net.cpp:425] loss2/fc <- loss2/conv
I0928 21:27:07.036936 14300 net.cpp:399] loss2/fc -> loss2/fc
I0928 21:27:07.052757 14300 net.cpp:141] Setting up loss2/fc
I0928 21:27:07.052783 14300 net.cpp:148] Top shape: 8 1024 (8192)
I0928 21:27:07.052786 14300 net.cpp:156] Memory required for data: 402767236
I0928 21:27:07.052796 14300 layer_factory.hpp:77] Creating layer loss2/relu_fc
I0928 21:27:07.052808 14300 net.cpp:91] Creating Layer loss2/relu_fc
I0928 21:27:07.052814 14300 net.cpp:425] loss2/relu_fc <- loss2/fc
I0928 21:27:07.052825 14300 net.cpp:386] loss2/relu_fc -> loss2/fc (in-place)
I0928 21:27:07.053000 14300 net.cpp:141] Setting up loss2/relu_fc
I0928 21:27:07.053010 14300 net.cpp:148] Top shape: 8 1024 (8192)
I0928 21:27:07.053014 14300 net.cpp:156] Memory required for data: 402800004
I0928 21:27:07.053020 14300 layer_factory.hpp:77] Creating layer loss2/drop_fc
I0928 21:27:07.053026 14300 net.cpp:91] Creating Layer loss2/drop_fc
I0928 21:27:07.053031 14300 net.cpp:425] loss2/drop_fc <- loss2/fc
I0928 21:27:07.053036 14300 net.cpp:386] loss2/drop_fc -> loss2/fc (in-place)
I0928 21:27:07.053066 14300 net.cpp:141] Setting up loss2/drop_fc
I0928 21:27:07.053071 14300 net.cpp:148] Top shape: 8 1024 (8192)
I0928 21:27:07.053074 14300 net.cpp:156] Memory required for data: 402832772
I0928 21:27:07.053078 14300 layer_factory.hpp:77] Creating layer loss2/classifier
I0928 21:27:07.053087 14300 net.cpp:91] Creating Layer loss2/classifier
I0928 21:27:07.053091 14300 net.cpp:425] loss2/classifier <- loss2/fc
I0928 21:27:07.053097 14300 net.cpp:399] loss2/classifier -> loss2/classifier
I0928 21:27:07.060236 14300 net.cpp:141] Setting up loss2/classifier
I0928 21:27:07.060255 14300 net.cpp:148] Top shape: 8 1000 (8000)
I0928 21:27:07.060258 14300 net.cpp:156] Memory required for data: 402864772
I0928 21:27:07.060281 14300 layer_factory.hpp:77] Creating layer loss2/loss
I0928 21:27:07.060289 14300 net.cpp:91] Creating Layer loss2/loss
I0928 21:27:07.060295 14300 net.cpp:425] loss2/loss <- loss2/classifier
I0928 21:27:07.060302 14300 net.cpp:425] loss2/loss <- label_data_1_split_1
I0928 21:27:07.060307 14300 net.cpp:399] loss2/loss -> loss2/loss1
I0928 21:27:07.060318 14300 layer_factory.hpp:77] Creating layer loss2/loss
I0928 21:27:07.060709 14300 net.cpp:141] Setting up loss2/loss
I0928 21:27:07.060719 14300 net.cpp:148] Top shape: (1)
I0928 21:27:07.060736 14300 net.cpp:151]     with loss weight 0.3
I0928 21:27:07.060745 14300 net.cpp:156] Memory required for data: 402864776
I0928 21:27:07.060760 14300 layer_factory.hpp:77] Creating layer inception_4e/1x1
I0928 21:27:07.060772 14300 net.cpp:91] Creating Layer inception_4e/1x1
I0928 21:27:07.060778 14300 net.cpp:425] inception_4e/1x1 <- inception_4d/output_inception_4d/output_0_split_1
I0928 21:27:07.060786 14300 net.cpp:399] inception_4e/1x1 -> inception_4e/1x1
I0928 21:27:07.062685 14300 net.cpp:141] Setting up inception_4e/1x1
I0928 21:27:07.062693 14300 net.cpp:148] Top shape: 8 256 14 14 (401408)
I0928 21:27:07.062711 14300 net.cpp:156] Memory required for data: 404470408
I0928 21:27:07.062719 14300 layer_factory.hpp:77] Creating layer inception_4e/relu_1x1
I0928 21:27:07.062726 14300 net.cpp:91] Creating Layer inception_4e/relu_1x1
I0928 21:27:07.062731 14300 net.cpp:425] inception_4e/relu_1x1 <- inception_4e/1x1
I0928 21:27:07.062738 14300 net.cpp:386] inception_4e/relu_1x1 -> inception_4e/1x1 (in-place)
I0928 21:27:07.062861 14300 net.cpp:141] Setting up inception_4e/relu_1x1
I0928 21:27:07.062868 14300 net.cpp:148] Top shape: 8 256 14 14 (401408)
I0928 21:27:07.062885 14300 net.cpp:156] Memory required for data: 406076040
I0928 21:27:07.062891 14300 layer_factory.hpp:77] Creating layer inception_4e/3x3_reduce
I0928 21:27:07.062913 14300 net.cpp:91] Creating Layer inception_4e/3x3_reduce
I0928 21:27:07.062917 14300 net.cpp:425] inception_4e/3x3_reduce <- inception_4d/output_inception_4d/output_0_split_2
I0928 21:27:07.062927 14300 net.cpp:399] inception_4e/3x3_reduce -> inception_4e/3x3_reduce
I0928 21:27:07.064219 14300 net.cpp:141] Setting up inception_4e/3x3_reduce
I0928 21:27:07.064229 14300 net.cpp:148] Top shape: 8 160 14 14 (250880)
I0928 21:27:07.064246 14300 net.cpp:156] Memory required for data: 407079560
I0928 21:27:07.064254 14300 layer_factory.hpp:77] Creating layer inception_4e/relu_3x3_reduce
I0928 21:27:07.064260 14300 net.cpp:91] Creating Layer inception_4e/relu_3x3_reduce
I0928 21:27:07.064266 14300 net.cpp:425] inception_4e/relu_3x3_reduce <- inception_4e/3x3_reduce
I0928 21:27:07.064275 14300 net.cpp:386] inception_4e/relu_3x3_reduce -> inception_4e/3x3_reduce (in-place)
I0928 21:27:07.064497 14300 net.cpp:141] Setting up inception_4e/relu_3x3_reduce
I0928 21:27:07.064505 14300 net.cpp:148] Top shape: 8 160 14 14 (250880)
I0928 21:27:07.064509 14300 net.cpp:156] Memory required for data: 408083080
I0928 21:27:07.064514 14300 layer_factory.hpp:77] Creating layer inception_4e/3x3
I0928 21:27:07.064524 14300 net.cpp:91] Creating Layer inception_4e/3x3
I0928 21:27:07.064529 14300 net.cpp:425] inception_4e/3x3 <- inception_4e/3x3_reduce
I0928 21:27:07.064537 14300 net.cpp:399] inception_4e/3x3 -> inception_4e/3x3
I0928 21:27:07.069322 14300 net.cpp:141] Setting up inception_4e/3x3
I0928 21:27:07.069336 14300 net.cpp:148] Top shape: 8 320 14 14 (501760)
I0928 21:27:07.069353 14300 net.cpp:156] Memory required for data: 410090120
I0928 21:27:07.069361 14300 layer_factory.hpp:77] Creating layer inception_4e/relu_3x3
I0928 21:27:07.069370 14300 net.cpp:91] Creating Layer inception_4e/relu_3x3
I0928 21:27:07.069375 14300 net.cpp:425] inception_4e/relu_3x3 <- inception_4e/3x3
I0928 21:27:07.069381 14300 net.cpp:386] inception_4e/relu_3x3 -> inception_4e/3x3 (in-place)
I0928 21:27:07.069622 14300 net.cpp:141] Setting up inception_4e/relu_3x3
I0928 21:27:07.069630 14300 net.cpp:148] Top shape: 8 320 14 14 (501760)
I0928 21:27:07.069648 14300 net.cpp:156] Memory required for data: 412097160
I0928 21:27:07.069653 14300 layer_factory.hpp:77] Creating layer inception_4e/5x5_reduce
I0928 21:27:07.069664 14300 net.cpp:91] Creating Layer inception_4e/5x5_reduce
I0928 21:27:07.069669 14300 net.cpp:425] inception_4e/5x5_reduce <- inception_4d/output_inception_4d/output_0_split_3
I0928 21:27:07.069675 14300 net.cpp:399] inception_4e/5x5_reduce -> inception_4e/5x5_reduce
I0928 21:27:07.070574 14300 net.cpp:141] Setting up inception_4e/5x5_reduce
I0928 21:27:07.070581 14300 net.cpp:148] Top shape: 8 32 14 14 (50176)
I0928 21:27:07.070600 14300 net.cpp:156] Memory required for data: 412297864
I0928 21:27:07.070607 14300 layer_factory.hpp:77] Creating layer inception_4e/relu_5x5_reduce
I0928 21:27:07.070622 14300 net.cpp:91] Creating Layer inception_4e/relu_5x5_reduce
I0928 21:27:07.070628 14300 net.cpp:425] inception_4e/relu_5x5_reduce <- inception_4e/5x5_reduce
I0928 21:27:07.070634 14300 net.cpp:386] inception_4e/relu_5x5_reduce -> inception_4e/5x5_reduce (in-place)
I0928 21:27:07.070770 14300 net.cpp:141] Setting up inception_4e/relu_5x5_reduce
I0928 21:27:07.070777 14300 net.cpp:148] Top shape: 8 32 14 14 (50176)
I0928 21:27:07.070796 14300 net.cpp:156] Memory required for data: 412498568
I0928 21:27:07.070801 14300 layer_factory.hpp:77] Creating layer inception_4e/5x5
I0928 21:27:07.070822 14300 net.cpp:91] Creating Layer inception_4e/5x5
I0928 21:27:07.070825 14300 net.cpp:425] inception_4e/5x5 <- inception_4e/5x5_reduce
I0928 21:27:07.070833 14300 net.cpp:399] inception_4e/5x5 -> inception_4e/5x5
I0928 21:27:07.072545 14300 net.cpp:141] Setting up inception_4e/5x5
I0928 21:27:07.072554 14300 net.cpp:148] Top shape: 8 128 14 14 (200704)
I0928 21:27:07.072558 14300 net.cpp:156] Memory required for data: 413301384
I0928 21:27:07.072566 14300 layer_factory.hpp:77] Creating layer inception_4e/relu_5x5
I0928 21:27:07.072573 14300 net.cpp:91] Creating Layer inception_4e/relu_5x5
I0928 21:27:07.072579 14300 net.cpp:425] inception_4e/relu_5x5 <- inception_4e/5x5
I0928 21:27:07.072585 14300 net.cpp:386] inception_4e/relu_5x5 -> inception_4e/5x5 (in-place)
I0928 21:27:07.072710 14300 net.cpp:141] Setting up inception_4e/relu_5x5
I0928 21:27:07.072716 14300 net.cpp:148] Top shape: 8 128 14 14 (200704)
I0928 21:27:07.072721 14300 net.cpp:156] Memory required for data: 414104200
I0928 21:27:07.072723 14300 layer_factory.hpp:77] Creating layer inception_4e/pool
I0928 21:27:07.072731 14300 net.cpp:91] Creating Layer inception_4e/pool
I0928 21:27:07.072736 14300 net.cpp:425] inception_4e/pool <- inception_4d/output_inception_4d/output_0_split_4
I0928 21:27:07.072742 14300 net.cpp:399] inception_4e/pool -> inception_4e/pool
I0928 21:27:07.072782 14300 net.cpp:141] Setting up inception_4e/pool
I0928 21:27:07.072788 14300 net.cpp:148] Top shape: 8 528 14 14 (827904)
I0928 21:27:07.072793 14300 net.cpp:156] Memory required for data: 417415816
I0928 21:27:07.072795 14300 layer_factory.hpp:77] Creating layer inception_4e/pool_proj
I0928 21:27:07.072805 14300 net.cpp:91] Creating Layer inception_4e/pool_proj
I0928 21:27:07.072809 14300 net.cpp:425] inception_4e/pool_proj <- inception_4e/pool
I0928 21:27:07.072816 14300 net.cpp:399] inception_4e/pool_proj -> inception_4e/pool_proj
I0928 21:27:07.074131 14300 net.cpp:141] Setting up inception_4e/pool_proj
I0928 21:27:07.074141 14300 net.cpp:148] Top shape: 8 128 14 14 (200704)
I0928 21:27:07.074146 14300 net.cpp:156] Memory required for data: 418218632
I0928 21:27:07.074151 14300 layer_factory.hpp:77] Creating layer inception_4e/relu_pool_proj
I0928 21:27:07.074157 14300 net.cpp:91] Creating Layer inception_4e/relu_pool_proj
I0928 21:27:07.074162 14300 net.cpp:425] inception_4e/relu_pool_proj <- inception_4e/pool_proj
I0928 21:27:07.074168 14300 net.cpp:386] inception_4e/relu_pool_proj -> inception_4e/pool_proj (in-place)
I0928 21:27:07.074394 14300 net.cpp:141] Setting up inception_4e/relu_pool_proj
I0928 21:27:07.074403 14300 net.cpp:148] Top shape: 8 128 14 14 (200704)
I0928 21:27:07.074406 14300 net.cpp:156] Memory required for data: 419021448
I0928 21:27:07.074410 14300 layer_factory.hpp:77] Creating layer inception_4e/output
I0928 21:27:07.074419 14300 net.cpp:91] Creating Layer inception_4e/output
I0928 21:27:07.074422 14300 net.cpp:425] inception_4e/output <- inception_4e/1x1
I0928 21:27:07.074429 14300 net.cpp:425] inception_4e/output <- inception_4e/3x3
I0928 21:27:07.074434 14300 net.cpp:425] inception_4e/output <- inception_4e/5x5
I0928 21:27:07.074439 14300 net.cpp:425] inception_4e/output <- inception_4e/pool_proj
I0928 21:27:07.074445 14300 net.cpp:399] inception_4e/output -> inception_4e/output
I0928 21:27:07.074471 14300 net.cpp:141] Setting up inception_4e/output
I0928 21:27:07.074478 14300 net.cpp:148] Top shape: 8 832 14 14 (1304576)
I0928 21:27:07.074489 14300 net.cpp:156] Memory required for data: 424239752
I0928 21:27:07.074494 14300 layer_factory.hpp:77] Creating layer pool4/3x3_s2
I0928 21:27:07.074501 14300 net.cpp:91] Creating Layer pool4/3x3_s2
I0928 21:27:07.074504 14300 net.cpp:425] pool4/3x3_s2 <- inception_4e/output
I0928 21:27:07.074511 14300 net.cpp:399] pool4/3x3_s2 -> pool4/3x3_s2
I0928 21:27:07.074548 14300 net.cpp:141] Setting up pool4/3x3_s2
I0928 21:27:07.074553 14300 net.cpp:148] Top shape: 8 832 7 7 (326144)
I0928 21:27:07.074558 14300 net.cpp:156] Memory required for data: 425544328
I0928 21:27:07.074561 14300 layer_factory.hpp:77] Creating layer pool4/3x3_s2_pool4/3x3_s2_0_split
I0928 21:27:07.074568 14300 net.cpp:91] Creating Layer pool4/3x3_s2_pool4/3x3_s2_0_split
I0928 21:27:07.074573 14300 net.cpp:425] pool4/3x3_s2_pool4/3x3_s2_0_split <- pool4/3x3_s2
I0928 21:27:07.074579 14300 net.cpp:399] pool4/3x3_s2_pool4/3x3_s2_0_split -> pool4/3x3_s2_pool4/3x3_s2_0_split_0
I0928 21:27:07.074585 14300 net.cpp:399] pool4/3x3_s2_pool4/3x3_s2_0_split -> pool4/3x3_s2_pool4/3x3_s2_0_split_1
I0928 21:27:07.074592 14300 net.cpp:399] pool4/3x3_s2_pool4/3x3_s2_0_split -> pool4/3x3_s2_pool4/3x3_s2_0_split_2
I0928 21:27:07.074599 14300 net.cpp:399] pool4/3x3_s2_pool4/3x3_s2_0_split -> pool4/3x3_s2_pool4/3x3_s2_0_split_3
I0928 21:27:07.074653 14300 net.cpp:141] Setting up pool4/3x3_s2_pool4/3x3_s2_0_split
I0928 21:27:07.074659 14300 net.cpp:148] Top shape: 8 832 7 7 (326144)
I0928 21:27:07.074664 14300 net.cpp:148] Top shape: 8 832 7 7 (326144)
I0928 21:27:07.074669 14300 net.cpp:148] Top shape: 8 832 7 7 (326144)
I0928 21:27:07.074674 14300 net.cpp:148] Top shape: 8 832 7 7 (326144)
I0928 21:27:07.074677 14300 net.cpp:156] Memory required for data: 430762632
I0928 21:27:07.074681 14300 layer_factory.hpp:77] Creating layer inception_5a/1x1
I0928 21:27:07.074690 14300 net.cpp:91] Creating Layer inception_5a/1x1
I0928 21:27:07.074694 14300 net.cpp:425] inception_5a/1x1 <- pool4/3x3_s2_pool4/3x3_s2_0_split_0
I0928 21:27:07.074702 14300 net.cpp:399] inception_5a/1x1 -> inception_5a/1x1
I0928 21:27:07.077069 14300 net.cpp:141] Setting up inception_5a/1x1
I0928 21:27:07.077080 14300 net.cpp:148] Top shape: 8 256 7 7 (100352)
I0928 21:27:07.077083 14300 net.cpp:156] Memory required for data: 431164040
I0928 21:27:07.077090 14300 layer_factory.hpp:77] Creating layer inception_5a/relu_1x1
I0928 21:27:07.077097 14300 net.cpp:91] Creating Layer inception_5a/relu_1x1
I0928 21:27:07.077102 14300 net.cpp:425] inception_5a/relu_1x1 <- inception_5a/1x1
I0928 21:27:07.077108 14300 net.cpp:386] inception_5a/relu_1x1 -> inception_5a/1x1 (in-place)
I0928 21:27:07.077234 14300 net.cpp:141] Setting up inception_5a/relu_1x1
I0928 21:27:07.077240 14300 net.cpp:148] Top shape: 8 256 7 7 (100352)
I0928 21:27:07.077244 14300 net.cpp:156] Memory required for data: 431565448
I0928 21:27:07.077249 14300 layer_factory.hpp:77] Creating layer inception_5a/3x3_reduce
I0928 21:27:07.077257 14300 net.cpp:91] Creating Layer inception_5a/3x3_reduce
I0928 21:27:07.077261 14300 net.cpp:425] inception_5a/3x3_reduce <- pool4/3x3_s2_pool4/3x3_s2_0_split_1
I0928 21:27:07.077268 14300 net.cpp:399] inception_5a/3x3_reduce -> inception_5a/3x3_reduce
I0928 21:27:07.079164 14300 net.cpp:141] Setting up inception_5a/3x3_reduce
I0928 21:27:07.079174 14300 net.cpp:148] Top shape: 8 160 7 7 (62720)
I0928 21:27:07.079179 14300 net.cpp:156] Memory required for data: 431816328
I0928 21:27:07.079185 14300 layer_factory.hpp:77] Creating layer inception_5a/relu_3x3_reduce
I0928 21:27:07.079192 14300 net.cpp:91] Creating Layer inception_5a/relu_3x3_reduce
I0928 21:27:07.079197 14300 net.cpp:425] inception_5a/relu_3x3_reduce <- inception_5a/3x3_reduce
I0928 21:27:07.079203 14300 net.cpp:386] inception_5a/relu_3x3_reduce -> inception_5a/3x3_reduce (in-place)
I0928 21:27:07.079330 14300 net.cpp:141] Setting up inception_5a/relu_3x3_reduce
I0928 21:27:07.079337 14300 net.cpp:148] Top shape: 8 160 7 7 (62720)
I0928 21:27:07.079340 14300 net.cpp:156] Memory required for data: 432067208
I0928 21:27:07.079351 14300 layer_factory.hpp:77] Creating layer inception_5a/3x3
I0928 21:27:07.079362 14300 net.cpp:91] Creating Layer inception_5a/3x3
I0928 21:27:07.079367 14300 net.cpp:425] inception_5a/3x3 <- inception_5a/3x3_reduce
I0928 21:27:07.079375 14300 net.cpp:399] inception_5a/3x3 -> inception_5a/3x3
I0928 21:27:07.083447 14300 net.cpp:141] Setting up inception_5a/3x3
I0928 21:27:07.083458 14300 net.cpp:148] Top shape: 8 320 7 7 (125440)
I0928 21:27:07.083462 14300 net.cpp:156] Memory required for data: 432568968
I0928 21:27:07.083468 14300 layer_factory.hpp:77] Creating layer inception_5a/relu_3x3
I0928 21:27:07.083475 14300 net.cpp:91] Creating Layer inception_5a/relu_3x3
I0928 21:27:07.083482 14300 net.cpp:425] inception_5a/relu_3x3 <- inception_5a/3x3
I0928 21:27:07.083487 14300 net.cpp:386] inception_5a/relu_3x3 -> inception_5a/3x3 (in-place)
I0928 21:27:07.083720 14300 net.cpp:141] Setting up inception_5a/relu_3x3
I0928 21:27:07.083729 14300 net.cpp:148] Top shape: 8 320 7 7 (125440)
I0928 21:27:07.083732 14300 net.cpp:156] Memory required for data: 433070728
I0928 21:27:07.083736 14300 layer_factory.hpp:77] Creating layer inception_5a/5x5_reduce
I0928 21:27:07.083747 14300 net.cpp:91] Creating Layer inception_5a/5x5_reduce
I0928 21:27:07.083751 14300 net.cpp:425] inception_5a/5x5_reduce <- pool4/3x3_s2_pool4/3x3_s2_0_split_2
I0928 21:27:07.083760 14300 net.cpp:399] inception_5a/5x5_reduce -> inception_5a/5x5_reduce
I0928 21:27:07.084728 14300 net.cpp:141] Setting up inception_5a/5x5_reduce
I0928 21:27:07.084738 14300 net.cpp:148] Top shape: 8 32 7 7 (12544)
I0928 21:27:07.084741 14300 net.cpp:156] Memory required for data: 433120904
I0928 21:27:07.084748 14300 layer_factory.hpp:77] Creating layer inception_5a/relu_5x5_reduce
I0928 21:27:07.084754 14300 net.cpp:91] Creating Layer inception_5a/relu_5x5_reduce
I0928 21:27:07.084759 14300 net.cpp:425] inception_5a/relu_5x5_reduce <- inception_5a/5x5_reduce
I0928 21:27:07.084766 14300 net.cpp:386] inception_5a/relu_5x5_reduce -> inception_5a/5x5_reduce (in-place)
I0928 21:27:07.084990 14300 net.cpp:141] Setting up inception_5a/relu_5x5_reduce
I0928 21:27:07.084997 14300 net.cpp:148] Top shape: 8 32 7 7 (12544)
I0928 21:27:07.085001 14300 net.cpp:156] Memory required for data: 433171080
I0928 21:27:07.085006 14300 layer_factory.hpp:77] Creating layer inception_5a/5x5
I0928 21:27:07.085016 14300 net.cpp:91] Creating Layer inception_5a/5x5
I0928 21:27:07.085021 14300 net.cpp:425] inception_5a/5x5 <- inception_5a/5x5_reduce
I0928 21:27:07.085028 14300 net.cpp:399] inception_5a/5x5 -> inception_5a/5x5
I0928 21:27:07.086447 14300 net.cpp:141] Setting up inception_5a/5x5
I0928 21:27:07.086455 14300 net.cpp:148] Top shape: 8 128 7 7 (50176)
I0928 21:27:07.086459 14300 net.cpp:156] Memory required for data: 433371784
I0928 21:27:07.086465 14300 layer_factory.hpp:77] Creating layer inception_5a/relu_5x5
I0928 21:27:07.086472 14300 net.cpp:91] Creating Layer inception_5a/relu_5x5
I0928 21:27:07.086477 14300 net.cpp:425] inception_5a/relu_5x5 <- inception_5a/5x5
I0928 21:27:07.086484 14300 net.cpp:386] inception_5a/relu_5x5 -> inception_5a/5x5 (in-place)
I0928 21:27:07.086611 14300 net.cpp:141] Setting up inception_5a/relu_5x5
I0928 21:27:07.086617 14300 net.cpp:148] Top shape: 8 128 7 7 (50176)
I0928 21:27:07.086621 14300 net.cpp:156] Memory required for data: 433572488
I0928 21:27:07.086625 14300 layer_factory.hpp:77] Creating layer inception_5a/pool
I0928 21:27:07.086632 14300 net.cpp:91] Creating Layer inception_5a/pool
I0928 21:27:07.086637 14300 net.cpp:425] inception_5a/pool <- pool4/3x3_s2_pool4/3x3_s2_0_split_3
I0928 21:27:07.086642 14300 net.cpp:399] inception_5a/pool -> inception_5a/pool
I0928 21:27:07.086683 14300 net.cpp:141] Setting up inception_5a/pool
I0928 21:27:07.086688 14300 net.cpp:148] Top shape: 8 832 7 7 (326144)
I0928 21:27:07.086693 14300 net.cpp:156] Memory required for data: 434877064
I0928 21:27:07.086696 14300 layer_factory.hpp:77] Creating layer inception_5a/pool_proj
I0928 21:27:07.086705 14300 net.cpp:91] Creating Layer inception_5a/pool_proj
I0928 21:27:07.086716 14300 net.cpp:425] inception_5a/pool_proj <- inception_5a/pool
I0928 21:27:07.086724 14300 net.cpp:399] inception_5a/pool_proj -> inception_5a/pool_proj
I0928 21:27:07.088444 14300 net.cpp:141] Setting up inception_5a/pool_proj
I0928 21:27:07.088454 14300 net.cpp:148] Top shape: 8 128 7 7 (50176)
I0928 21:27:07.088459 14300 net.cpp:156] Memory required for data: 435077768
I0928 21:27:07.088465 14300 layer_factory.hpp:77] Creating layer inception_5a/relu_pool_proj
I0928 21:27:07.088470 14300 net.cpp:91] Creating Layer inception_5a/relu_pool_proj
I0928 21:27:07.088476 14300 net.cpp:425] inception_5a/relu_pool_proj <- inception_5a/pool_proj
I0928 21:27:07.088484 14300 net.cpp:386] inception_5a/relu_pool_proj -> inception_5a/pool_proj (in-place)
I0928 21:27:07.088709 14300 net.cpp:141] Setting up inception_5a/relu_pool_proj
I0928 21:27:07.088718 14300 net.cpp:148] Top shape: 8 128 7 7 (50176)
I0928 21:27:07.088721 14300 net.cpp:156] Memory required for data: 435278472
I0928 21:27:07.088726 14300 layer_factory.hpp:77] Creating layer inception_5a/output
I0928 21:27:07.088733 14300 net.cpp:91] Creating Layer inception_5a/output
I0928 21:27:07.088737 14300 net.cpp:425] inception_5a/output <- inception_5a/1x1
I0928 21:27:07.088742 14300 net.cpp:425] inception_5a/output <- inception_5a/3x3
I0928 21:27:07.088747 14300 net.cpp:425] inception_5a/output <- inception_5a/5x5
I0928 21:27:07.088752 14300 net.cpp:425] inception_5a/output <- inception_5a/pool_proj
I0928 21:27:07.088762 14300 net.cpp:399] inception_5a/output -> inception_5a/output
I0928 21:27:07.088788 14300 net.cpp:141] Setting up inception_5a/output
I0928 21:27:07.088794 14300 net.cpp:148] Top shape: 8 832 7 7 (326144)
I0928 21:27:07.088798 14300 net.cpp:156] Memory required for data: 436583048
I0928 21:27:07.088804 14300 layer_factory.hpp:77] Creating layer inception_5a/output_inception_5a/output_0_split
I0928 21:27:07.088809 14300 net.cpp:91] Creating Layer inception_5a/output_inception_5a/output_0_split
I0928 21:27:07.088814 14300 net.cpp:425] inception_5a/output_inception_5a/output_0_split <- inception_5a/output
I0928 21:27:07.088819 14300 net.cpp:399] inception_5a/output_inception_5a/output_0_split -> inception_5a/output_inception_5a/output_0_split_0
I0928 21:27:07.088827 14300 net.cpp:399] inception_5a/output_inception_5a/output_0_split -> inception_5a/output_inception_5a/output_0_split_1
I0928 21:27:07.088834 14300 net.cpp:399] inception_5a/output_inception_5a/output_0_split -> inception_5a/output_inception_5a/output_0_split_2
I0928 21:27:07.088840 14300 net.cpp:399] inception_5a/output_inception_5a/output_0_split -> inception_5a/output_inception_5a/output_0_split_3
I0928 21:27:07.088898 14300 net.cpp:141] Setting up inception_5a/output_inception_5a/output_0_split
I0928 21:27:07.088903 14300 net.cpp:148] Top shape: 8 832 7 7 (326144)
I0928 21:27:07.088909 14300 net.cpp:148] Top shape: 8 832 7 7 (326144)
I0928 21:27:07.088914 14300 net.cpp:148] Top shape: 8 832 7 7 (326144)
I0928 21:27:07.088919 14300 net.cpp:148] Top shape: 8 832 7 7 (326144)
I0928 21:27:07.088923 14300 net.cpp:156] Memory required for data: 441801352
I0928 21:27:07.088927 14300 layer_factory.hpp:77] Creating layer inception_5b/1x1
I0928 21:27:07.088937 14300 net.cpp:91] Creating Layer inception_5b/1x1
I0928 21:27:07.088942 14300 net.cpp:425] inception_5b/1x1 <- inception_5a/output_inception_5a/output_0_split_0
I0928 21:27:07.088948 14300 net.cpp:399] inception_5b/1x1 -> inception_5b/1x1
I0928 21:27:07.091989 14300 net.cpp:141] Setting up inception_5b/1x1
I0928 21:27:07.091998 14300 net.cpp:148] Top shape: 8 384 7 7 (150528)
I0928 21:27:07.092002 14300 net.cpp:156] Memory required for data: 442403464
I0928 21:27:07.092010 14300 layer_factory.hpp:77] Creating layer inception_5b/relu_1x1
I0928 21:27:07.092016 14300 net.cpp:91] Creating Layer inception_5b/relu_1x1
I0928 21:27:07.092021 14300 net.cpp:425] inception_5b/relu_1x1 <- inception_5b/1x1
I0928 21:27:07.092027 14300 net.cpp:386] inception_5b/relu_1x1 -> inception_5b/1x1 (in-place)
I0928 21:27:07.092154 14300 net.cpp:141] Setting up inception_5b/relu_1x1
I0928 21:27:07.092166 14300 net.cpp:148] Top shape: 8 384 7 7 (150528)
I0928 21:27:07.092170 14300 net.cpp:156] Memory required for data: 443005576
I0928 21:27:07.092175 14300 layer_factory.hpp:77] Creating layer inception_5b/3x3_reduce
I0928 21:27:07.092185 14300 net.cpp:91] Creating Layer inception_5b/3x3_reduce
I0928 21:27:07.092190 14300 net.cpp:425] inception_5b/3x3_reduce <- inception_5a/output_inception_5a/output_0_split_1
I0928 21:27:07.092197 14300 net.cpp:399] inception_5b/3x3_reduce -> inception_5b/3x3_reduce
I0928 21:27:07.094251 14300 net.cpp:141] Setting up inception_5b/3x3_reduce
I0928 21:27:07.094261 14300 net.cpp:148] Top shape: 8 192 7 7 (75264)
I0928 21:27:07.094264 14300 net.cpp:156] Memory required for data: 443306632
I0928 21:27:07.094271 14300 layer_factory.hpp:77] Creating layer inception_5b/relu_3x3_reduce
I0928 21:27:07.094279 14300 net.cpp:91] Creating Layer inception_5b/relu_3x3_reduce
I0928 21:27:07.094283 14300 net.cpp:425] inception_5b/relu_3x3_reduce <- inception_5b/3x3_reduce
I0928 21:27:07.094291 14300 net.cpp:386] inception_5b/relu_3x3_reduce -> inception_5b/3x3_reduce (in-place)
I0928 21:27:07.094415 14300 net.cpp:141] Setting up inception_5b/relu_3x3_reduce
I0928 21:27:07.094424 14300 net.cpp:148] Top shape: 8 192 7 7 (75264)
I0928 21:27:07.094426 14300 net.cpp:156] Memory required for data: 443607688
I0928 21:27:07.094430 14300 layer_factory.hpp:77] Creating layer inception_5b/3x3
I0928 21:27:07.094441 14300 net.cpp:91] Creating Layer inception_5b/3x3
I0928 21:27:07.094445 14300 net.cpp:425] inception_5b/3x3 <- inception_5b/3x3_reduce
I0928 21:27:07.094454 14300 net.cpp:399] inception_5b/3x3 -> inception_5b/3x3
I0928 21:27:07.100083 14300 net.cpp:141] Setting up inception_5b/3x3
I0928 21:27:07.100101 14300 net.cpp:148] Top shape: 8 384 7 7 (150528)
I0928 21:27:07.100105 14300 net.cpp:156] Memory required for data: 444209800
I0928 21:27:07.100126 14300 layer_factory.hpp:77] Creating layer inception_5b/relu_3x3
I0928 21:27:07.100136 14300 net.cpp:91] Creating Layer inception_5b/relu_3x3
I0928 21:27:07.100154 14300 net.cpp:425] inception_5b/relu_3x3 <- inception_5b/3x3
I0928 21:27:07.100162 14300 net.cpp:386] inception_5b/relu_3x3 -> inception_5b/3x3 (in-place)
I0928 21:27:07.100420 14300 net.cpp:141] Setting up inception_5b/relu_3x3
I0928 21:27:07.100428 14300 net.cpp:148] Top shape: 8 384 7 7 (150528)
I0928 21:27:07.100446 14300 net.cpp:156] Memory required for data: 444811912
I0928 21:27:07.100450 14300 layer_factory.hpp:77] Creating layer inception_5b/5x5_reduce
I0928 21:27:07.100461 14300 net.cpp:91] Creating Layer inception_5b/5x5_reduce
I0928 21:27:07.100466 14300 net.cpp:425] inception_5b/5x5_reduce <- inception_5a/output_inception_5a/output_0_split_2
I0928 21:27:07.100486 14300 net.cpp:399] inception_5b/5x5_reduce -> inception_5b/5x5_reduce
I0928 21:27:07.102036 14300 net.cpp:141] Setting up inception_5b/5x5_reduce
I0928 21:27:07.102046 14300 net.cpp:148] Top shape: 8 48 7 7 (18816)
I0928 21:27:07.102051 14300 net.cpp:156] Memory required for data: 444887176
I0928 21:27:07.102057 14300 layer_factory.hpp:77] Creating layer inception_5b/relu_5x5_reduce
I0928 21:27:07.102064 14300 net.cpp:91] Creating Layer inception_5b/relu_5x5_reduce
I0928 21:27:07.102071 14300 net.cpp:425] inception_5b/relu_5x5_reduce <- inception_5b/5x5_reduce
I0928 21:27:07.102075 14300 net.cpp:386] inception_5b/relu_5x5_reduce -> inception_5b/5x5_reduce (in-place)
I0928 21:27:07.102203 14300 net.cpp:141] Setting up inception_5b/relu_5x5_reduce
I0928 21:27:07.102210 14300 net.cpp:148] Top shape: 8 48 7 7 (18816)
I0928 21:27:07.102213 14300 net.cpp:156] Memory required for data: 444962440
I0928 21:27:07.102217 14300 layer_factory.hpp:77] Creating layer inception_5b/5x5
I0928 21:27:07.102227 14300 net.cpp:91] Creating Layer inception_5b/5x5
I0928 21:27:07.102231 14300 net.cpp:425] inception_5b/5x5 <- inception_5b/5x5_reduce
I0928 21:27:07.102239 14300 net.cpp:399] inception_5b/5x5 -> inception_5b/5x5
I0928 21:27:07.104049 14300 net.cpp:141] Setting up inception_5b/5x5
I0928 21:27:07.104066 14300 net.cpp:148] Top shape: 8 128 7 7 (50176)
I0928 21:27:07.104070 14300 net.cpp:156] Memory required for data: 445163144
I0928 21:27:07.104077 14300 layer_factory.hpp:77] Creating layer inception_5b/relu_5x5
I0928 21:27:07.104084 14300 net.cpp:91] Creating Layer inception_5b/relu_5x5
I0928 21:27:07.104089 14300 net.cpp:425] inception_5b/relu_5x5 <- inception_5b/5x5
I0928 21:27:07.104094 14300 net.cpp:386] inception_5b/relu_5x5 -> inception_5b/5x5 (in-place)
I0928 21:27:07.104223 14300 net.cpp:141] Setting up inception_5b/relu_5x5
I0928 21:27:07.104230 14300 net.cpp:148] Top shape: 8 128 7 7 (50176)
I0928 21:27:07.104234 14300 net.cpp:156] Memory required for data: 445363848
I0928 21:27:07.104238 14300 layer_factory.hpp:77] Creating layer inception_5b/pool
I0928 21:27:07.104246 14300 net.cpp:91] Creating Layer inception_5b/pool
I0928 21:27:07.104251 14300 net.cpp:425] inception_5b/pool <- inception_5a/output_inception_5a/output_0_split_3
I0928 21:27:07.104257 14300 net.cpp:399] inception_5b/pool -> inception_5b/pool
I0928 21:27:07.104300 14300 net.cpp:141] Setting up inception_5b/pool
I0928 21:27:07.104305 14300 net.cpp:148] Top shape: 8 832 7 7 (326144)
I0928 21:27:07.104310 14300 net.cpp:156] Memory required for data: 446668424
I0928 21:27:07.104313 14300 layer_factory.hpp:77] Creating layer inception_5b/pool_proj
I0928 21:27:07.104322 14300 net.cpp:91] Creating Layer inception_5b/pool_proj
I0928 21:27:07.104326 14300 net.cpp:425] inception_5b/pool_proj <- inception_5b/pool
I0928 21:27:07.104332 14300 net.cpp:399] inception_5b/pool_proj -> inception_5b/pool_proj
I0928 21:27:07.106073 14300 net.cpp:141] Setting up inception_5b/pool_proj
I0928 21:27:07.106083 14300 net.cpp:148] Top shape: 8 128 7 7 (50176)
I0928 21:27:07.106087 14300 net.cpp:156] Memory required for data: 446869128
I0928 21:27:07.106094 14300 layer_factory.hpp:77] Creating layer inception_5b/relu_pool_proj
I0928 21:27:07.106101 14300 net.cpp:91] Creating Layer inception_5b/relu_pool_proj
I0928 21:27:07.106106 14300 net.cpp:425] inception_5b/relu_pool_proj <- inception_5b/pool_proj
I0928 21:27:07.106113 14300 net.cpp:386] inception_5b/relu_pool_proj -> inception_5b/pool_proj (in-place)
I0928 21:27:07.106437 14300 net.cpp:141] Setting up inception_5b/relu_pool_proj
I0928 21:27:07.106446 14300 net.cpp:148] Top shape: 8 128 7 7 (50176)
I0928 21:27:07.106449 14300 net.cpp:156] Memory required for data: 447069832
I0928 21:27:07.106453 14300 layer_factory.hpp:77] Creating layer inception_5b/output
I0928 21:27:07.106461 14300 net.cpp:91] Creating Layer inception_5b/output
I0928 21:27:07.106465 14300 net.cpp:425] inception_5b/output <- inception_5b/1x1
I0928 21:27:07.106472 14300 net.cpp:425] inception_5b/output <- inception_5b/3x3
I0928 21:27:07.106477 14300 net.cpp:425] inception_5b/output <- inception_5b/5x5
I0928 21:27:07.106482 14300 net.cpp:425] inception_5b/output <- inception_5b/pool_proj
I0928 21:27:07.106487 14300 net.cpp:399] inception_5b/output -> inception_5b/output
I0928 21:27:07.106516 14300 net.cpp:141] Setting up inception_5b/output
I0928 21:27:07.106523 14300 net.cpp:148] Top shape: 8 1024 7 7 (401408)
I0928 21:27:07.106528 14300 net.cpp:156] Memory required for data: 448675464
I0928 21:27:07.106531 14300 layer_factory.hpp:77] Creating layer pool5/7x7_s1
I0928 21:27:07.106537 14300 net.cpp:91] Creating Layer pool5/7x7_s1
I0928 21:27:07.106541 14300 net.cpp:425] pool5/7x7_s1 <- inception_5b/output
I0928 21:27:07.106549 14300 net.cpp:399] pool5/7x7_s1 -> pool5/7x7_s1
I0928 21:27:07.106696 14300 net.cpp:141] Setting up pool5/7x7_s1
I0928 21:27:07.106703 14300 net.cpp:148] Top shape: 8 1024 1 1 (8192)
I0928 21:27:07.106706 14300 net.cpp:156] Memory required for data: 448708232
I0928 21:27:07.106711 14300 layer_factory.hpp:77] Creating layer pool5/drop_7x7_s1
I0928 21:27:07.106719 14300 net.cpp:91] Creating Layer pool5/drop_7x7_s1
I0928 21:27:07.106722 14300 net.cpp:425] pool5/drop_7x7_s1 <- pool5/7x7_s1
I0928 21:27:07.106727 14300 net.cpp:386] pool5/drop_7x7_s1 -> pool5/7x7_s1 (in-place)
I0928 21:27:07.106755 14300 net.cpp:141] Setting up pool5/drop_7x7_s1
I0928 21:27:07.106765 14300 net.cpp:148] Top shape: 8 1024 1 1 (8192)
I0928 21:27:07.106770 14300 net.cpp:156] Memory required for data: 448741000
I0928 21:27:07.106775 14300 layer_factory.hpp:77] Creating layer loss3/classifier
I0928 21:27:07.106782 14300 net.cpp:91] Creating Layer loss3/classifier
I0928 21:27:07.106786 14300 net.cpp:425] loss3/classifier <- pool5/7x7_s1
I0928 21:27:07.106793 14300 net.cpp:399] loss3/classifier -> loss3/classifier
I0928 21:27:07.106986 14300 net.cpp:141] Setting up loss3/classifier
I0928 21:27:07.106992 14300 net.cpp:148] Top shape: 8 12 (96)
I0928 21:27:07.106995 14300 net.cpp:156] Memory required for data: 448741384
I0928 21:27:07.107002 14300 layer_factory.hpp:77] Creating layer loss3/loss3
I0928 21:27:07.107013 14300 net.cpp:91] Creating Layer loss3/loss3
I0928 21:27:07.107017 14300 net.cpp:425] loss3/loss3 <- loss3/classifier
I0928 21:27:07.107023 14300 net.cpp:425] loss3/loss3 <- label_data_1_split_2
I0928 21:27:07.107028 14300 net.cpp:399] loss3/loss3 -> loss3/loss3
…
I0928 21:27:07.110221 14300 net.cpp:313] The NetState phase (1) differed from the phase (0) specified by a rule in layer data
I0928 21:27:07.110749 14300 net.cpp:49] Initializing net from parameters: 
name: "GoogleNet"
state {
  phase: TEST
}
layer {
  name: "data"
  type: "Data"
  top: "data"
  top: "label"
  include {
    phase: TEST
  }
  transform_param {
    mirror: false
    crop_size: 224
    mean_file: "/media/red/BRIDGE/data/BOT/mean.binaryproto"
  }
  data_param {
    source: "/media/red/DATA/data/BOT/ccrvc_test_lmdb"
    batch_size: 8
    backend: LMDB
  }
}
layer {
  name: "conv1/7x7_s2"
  type: "Convolution"
  bottom: "data"
  top: "conv1/7x7_s2"
  param {
    lr_mult: 1
    decay_mult: 1
  }
  param {
    lr_mult: 2
    decay_mult: 0
  }
  convolution_param {
    num_output: 64
    pad: 3
    kernel_size: 7
    stride: 2
    weight_filler {
      type: "xavier"
    }
    bias_filler {
      type: "constant"
      value: 0.2
    }
  }
}
layer {
  name: "conv1/relu_7x7"
  type: "ReLU"
  bottom: "conv1/7x7_s2"
  top: "conv1/7x7_s2"
}
layer {
  name: "pool1/3x3_s2"
  type: "Pooling"
  bottom: "conv1/7x7_s2"
  top: "pool1/3x3_s2"
  pooling_param {
    pool: MAX
    kernel_size: 3
    stride: 2
  }
}
layer {
  name: "pool1/norm1"
  type: "LRN"
  bottom: "pool1/3x3_s2"
  top: "pool1/norm1"
  lrn_param {
    local_size: 5
    alpha: 0.0001
    beta: 0.75
  }
}
layer {
  name: "conv2/3x3_reduce"
  type: "Convolution"
  bottom: "pool1/norm1"
  top: "conv2/3x3_reduce"
  param {
    lr_mult: 1
    decay_mult: 1
  }
  param {
    lr_mult: 2
    decay_mult: 0
  }
  convolution_param {
    num_output: 64
    kernel_size: 1
    weight_filler {
      type: "xavier"
    }
    bias_filler {
      type: "constant"
      value: 0.2
    }
  }
}
layer {
  name: "conv2/relu_3x3_reduce"
  type: "ReLU"
  bottom: "conv2/3x3_reduce"
  top: "conv2/3x3_reduce"
}
layer {
  name: "conv2/3x3"
  type: "Convolution"
  bottom: "conv2/3x3_reduce"
  top: "conv2/3x3"
  param {
    lr_mult: 1
    decay_mult: 1
  }
  param {
    lr_mult: 2
    decay_mult: 0
  }
  convolution_param {
    num_output: 192
    pad: 1
    kernel_size: 3
    weight_filler {
      type: "xavier"
    }
    bias_filler {
      type: "constant"
      value: 0.2
    }
  }
}
layer {
  name: "conv2/relu_3x3"
  type: "ReLU"
  bottom: "conv2/3x3"
  top: "conv2/3x3"
}
layer {
  name: "conv2/norm2"
  type: "LRN"
  bottom: "conv2/3x3"
  top: "conv2/norm2"
  lrn_param {
    local_size: 5
    alpha: 0.0001
    beta: 0.75
  }
}
layer {
  name: "pool2/3x3_s2"
  type: "Pooling"
  bottom: "conv2/norm2"
  top: "pool2/3x3_s2"
  pooling_param {
    pool: MAX
    kernel_size: 3
    stride: 2
  }
}
layer {
  name: "inception_3a/1x1"
  type: "Convolution"
  bottom: "pool2/3x3_s2"
  top: "inception_3a/1x1"
  param {
    lr_mult: 1
    decay_mult: 1
  }
  param {
    lr_mult: 2
    decay_mult: 0
  }
  convolution_param {
    num_output: 64
    kernel_size: 1
    weight_filler {
      type: "xavier"
    }
    bias_filler {
      type: "constant"
      value: 0.2
    }
  }
}
layer {
  name: "inception_3a/relu_1x1"
  type: "ReLU"
  bottom: "inception_3a/1x1"
  top: "inception_3a/1x1"
}
layer {
  name: "inception_3a/3x3_reduce"
  type: "Convolution"
  bottom: "pool2/3x3_s2"
  top: "inception_3a/3x3_reduce"
  param {
    lr_mult: 1
    decay_mult: 1
  }
  param {
    lr_mult: 2
    decay_mult: 0
  }
  convolution_param {
    num_output: 96
    kernel_size: 1
    weight_filler {
      type: "xavier"
    }
    bias_filler {
      type: "constant"
      value: 0.2
    }
  }
}
layer {
  name: "inception_3a/relu_3x3_reduce"
  type: "ReLU"
  bottom: "inception_3a/3x3_reduce"
  top: "inception_3a/3x3_reduce"
}
layer {
  name: "inception_3a/3x3"
  type: "Convolution"
  bottom: "inception_3a/3x3_reduce"
  top: "inception_3a/3x3"
  param {
    lr_mult: 1
    decay_mult: 1
  }
  param {
    lr_mult: 2
    decay_mult: 0
  }
  convolution_param {
    num_output: 128
    pad: 1
    kernel_size: 3
    weight_filler {
      type: "xavier"
    }
    bias_filler {
      type: "constant"
      value: 0.2
    }
  }
}
layer {
  name: "inception_3a/relu_3x3"
  type: "ReLU"
  bottom: "inception_3a/3x3"
  top: "inception_3a/3x3"
}
layer {
  name: "inception_3a/5x5_reduce"
  type: "Convolution"
  bottom: "pool2/3x3_s2"
  top: "inception_3a/5x5_reduce"
  param {
    lr_mult: 1
    decay_mult: 1
  }
  param {
    lr_mult: 2
    decay_mult: 0
  }
  convolution_param {
    num_output: 16
    kernel_size: 1
    weight_filler {
      type: "xavier"
    }
    bias_filler {
      type: "constant"
      value: 0.2
    }
  }
}
layer {
  name: "inception_3a/relu_5x5_reduce"
  type: "ReLU"
  bottom: "inception_3a/5x5_reduce"
  top: "inception_3a/5x5_reduce"
}
layer {
  name: "inception_3a/5x5"
  type: "Convolution"
  bottom: "inception_3a/5x5_reduce"
  top: "inception_3a/5x5"
  param {
    lr_mult: 1
    decay_mult: 1
  }
  param {
    lr_mult: 2
    decay_mult: 0
  }
  convolution_param {
    num_output: 32
    pad: 2
    kernel_size: 5
    weight_filler {
      type: "xavier"
    }
    bias_filler {
      type: "constant"
      value: 0.2
    }
  }
}
layer {
  name: "inception_3a/relu_5x5"
  type: "ReLU"
  bottom: "inception_3a/5x5"
  top: "inception_3a/5x5"
}
layer {
  name: "inception_3a/pool"
  type: "Pooling"
  bottom: "pool2/3x3_s2"
  top: "inception_3a/pool"
  pooling_param {
    pool: MAX
    kernel_size: 3
    stride: 1
    pad: 1
  }
}
layer {
  name: "inception_3a/pool_proj"
  type: "Convolution"
  bottom: "inception_3a/pool"
  top: "inception_3a/pool_proj"
  param {
    lr_mult: 1
    decay_mult: 1
  }
  param {
    lr_mult: 2
    decay_mult: 0
  }
  convolution_param {
    num_output: 32
    kernel_size: 1
    weight_filler {
      type: "xavier"
    }
    bias_filler {
      type: "constant"
      value: 0.2
    }
  }
}
layer {
  name: "inception_3a/relu_pool_proj"
  type: "ReLU"
  bottom: "inception_3a/pool_proj"
  top: "inception_3a/pool_proj"
}
layer {
  name: "inception_3a/output"
  type: "Concat"
  bottom: "inception_3a/1x1"
  bottom: "inception_3a/3x3"
  bottom: "inception_3a/5x5"
  bottom: "inception_3a/pool_proj"
  top: "inception_3a/output"
}
layer {
  name: "inception_3b/1x1"
  type: "Convolution"
  bottom: "inception_3a/output"
  top: "inception_3b/1x1"
  param {
    lr_mult: 1
    decay_mult: 1
  }
  param {
    lr_mult: 2
    decay_mult: 0
  }
  convolution_param {
    num_output: 128
    kernel_size: 1
    weight_filler {
      type: "xavier"
    }
    bias_filler {
      type: "constant"
      value: 0.2
    }
  }
}
layer {
  name: "inception_3b/relu_1x1"
  type: "ReLU"
  bottom: "inception_3b/1x1"
  top: "inception_3b/1x1"
}
layer {
  name: "inception_3b/3x3_reduce"
  type: "Convolution"
  bottom: "inception_3a/output"
  top: "inception_3b/3x3_reduce"
  param {
    lr_mult: 1
    decay_mult: 1
  }
  param {
    lr_mult: 2
    decay_mult: 0
  }
  convolution_param {
    num_output: 128
    kernel_size: 1
    weight_filler {
      type: "xavier"
    }
    bias_filler {
      type: "constant"
      value: 0.2
    }
  }
}
layer {
  name: "inception_3b/relu_3x3_reduce"
  type: "ReLU"
  bottom: "inception_3b/3x3_reduce"
  top: "inception_3b/3x3_reduce"
}
layer {
  name: "inception_3b/3x3"
  type: "Convolution"
  bottom: "inception_3b/3x3_reduce"
  top: "inception_3b/3x3"
  param {
    lr_mult: 1
    decay_mult: 1
  }
  param {
    lr_mult: 2
    decay_mult: 0
  }
  convolution_param {
    num_output: 192
    pad: 1
    kernel_size: 3
    weight_filler {
      type: "xavier"
    }
    bias_filler {
      type: "constant"
      value: 0.2
    }
  }
}
layer {
  name: "inception_3b/relu_3x3"
  type: "ReLU"
  bottom: "inception_3b/3x3"
  top: "inception_3b/3x3"
}
layer {
  name: "inception_3b/5x5_reduce"
  type: "Convolution"
  bottom: "inception_3a/output"
  top: "inception_3b/5x5_reduce"
  param {
    lr_mult: 1
    decay_mult: 1
  }
  param {
    lr_mult: 2
    decay_mult: 0
  }
  convolution_param {
    num_output: 32
    kernel_size: 1
    weight_filler {
      type: "xavier"
    }
    bias_filler {
      type: "constant"
      value: 0.2
    }
  }
}
layer {
  name: "inception_3b/relu_5x5_reduce"
  type: "ReLU"
  bottom: "inception_3b/5x5_reduce"
  top: "inception_3b/5x5_reduce"
}
layer {
  name: "inception_3b/5x5"
  type: "Convolution"
  bottom: "inception_3b/5x5_reduce"
  top: "inception_3b/5x5"
  param {
    lr_mult: 1
    decay_mult: 1
  }
  param {
    lr_mult: 2
    decay_mult: 0
  }
  convolution_param {
    num_output: 96
    pad: 2
    kernel_size: 5
    weight_filler {
      type: "xavier"
    }
    bias_filler {
      type: "constant"
      value: 0.2
    }
  }
}
layer {
  name: "inception_3b/relu_5x5"
  type: "ReLU"
  bottom: "inception_3b/5x5"
  top: "inception_3b/5x5"
}
layer {
  name: "inception_3b/pool"
  type: "Pooling"
  bottom: "inception_3a/output"
  top: "inception_3b/pool"
  pooling_param {
    pool: MAX
    kernel_size: 3
    stride: 1
    pad: 1
  }
}
layer {
  name: "inception_3b/pool_proj"
  type: "Convolution"
  bottom: "inception_3b/pool"
  top: "inception_3b/pool_proj"
  param {
    lr_mult: 1
    decay_mult: 1
  }
  param {
    lr_mult: 2
    decay_mult: 0
  }
  convolution_param {
    num_output: 64
    kernel_size: 1
    weight_filler {
      type: "xavier"
    }
    bias_filler {
      type: "constant"
      value: 0.2
    }
  }
}
layer {
  name: "inception_3b/relu_pool_proj"
  type: "ReLU"
  bottom: "inception_3b/pool_proj"
  top: "inception_3b/pool_proj"
}
layer {
  name: "inception_3b/output"
  type: "Concat"
  bottom: "inception_3b/1x1"
  bottom: "inception_3b/3x3"
  bottom: "inception_3b/5x5"
  bottom: "inception_3b/pool_proj"
  top: "inception_3b/output"
}
layer {
  name: "pool3/3x3_s2"
  type: "Pooling"
  bottom: "inception_3b/output"
  top: "pool3/3x3_s2"
  pooling_param {
    pool: MAX
    kernel_size: 3
    stride: 2
  }
}
layer {
  name: "inception_4a/1x1"
  type: "Convolution"
  bottom: "pool3/3x3_s2"
  top: "inception_4a/1x1"
  param {
    lr_mult: 1
    decay_mult: 1
  }
  param {
    lr_mult: 2
    decay_mult: 0
  }
  convolution_param {
    num_output: 192
    kernel_size: 1
    weight_filler {
      type: "xavier"
    }
    bias_filler {
      type: "constant"
      value: 0.2
    }
  }
}
layer {
  name: "inception_4a/relu_1x1"
  type: "ReLU"
  bottom: "inception_4a/1x1"
  top: "inception_4a/1x1"
}
layer {
  name: "inception_4a/3x3_reduce"
  type: "Convolution"
  bottom: "pool3/3x3_s2"
  top: "inception_4a/3x3_reduce"
  param {
    lr_mult: 1
    decay_mult: 1
  }
  param {
    lr_mult: 2
    decay_mult: 0
  }
  convolution_param {
    num_output: 96
    kernel_size: 1
    weight_filler {
      type: "xavier"
    }
    bias_filler {
      type: "constant"
      value: 0.2
    }
  }
}
layer {
  name: "inception_4a/relu_3x3_reduce"
  type: "ReLU"
  bottom: "inception_4a/3x3_reduce"
  top: "inception_4a/3x3_reduce"
}
layer {
  name: "inception_4a/3x3"
  type: "Convolution"
  bottom: "inception_4a/3x3_reduce"
  top: "inception_4a/3x3"
  param {
    lr_mult: 1
    decay_mult: 1
  }
  param {
    lr_mult: 2
    decay_mult: 0
  }
  convolution_param {
    num_output: 208
    pad: 1
    kernel_size: 3
    weight_filler {
      type: "xavier"
    }
    bias_filler {
      type: "constant"
      value: 0.2
    }
  }
}
layer {
  name: "inception_4a/relu_3x3"
  type: "ReLU"
  bottom: "inception_4a/3x3"
  top: "inception_4a/3x3"
}
layer {
  name: "inception_4a/5x5_reduce"
  type: "Convolution"
  bottom: "pool3/3x3_s2"
  top: "inception_4a/5x5_reduce"
  param {
    lr_mult: 1
    decay_mult: 1
  }
  param {
    lr_mult: 2
    decay_mult: 0
  }
  convolution_param {
    num_output: 16
    kernel_size: 1
    weight_filler {
      type: "xavier"
    }
    bias_filler {
      type: "constant"
      value: 0.2
    }
  }
}
layer {
  name: "inception_4a/relu_5x5_reduce"
  type: "ReLU"
  bottom: "inception_4a/5x5_reduce"
  top: "inception_4a/5x5_reduce"
}
layer {
  name: "inception_4a/5x5"
  type: "Convolution"
  bottom: "inception_4a/5x5_reduce"
  top: "inception_4a/5x5"
  param {
    lr_mult: 1
    decay_mult: 1
  }
  param {
    lr_mult: 2
    decay_mult: 0
  }
  convolution_param {
    num_output: 48
    pad: 2
    kernel_size: 5
    weight_filler {
      type: "xavier"
    }
    bias_filler {
      type: "constant"
      value: 0.2
    }
  }
}
layer {
  name: "inception_4a/relu_5x5"
  type: "ReLU"
  bottom: "inception_4a/5x5"
  top: "inception_4a/5x5"
}
layer {
  name: "inception_4a/pool"
  type: "Pooling"
  bottom: "pool3/3x3_s2"
  top: "inception_4a/pool"
  pooling_param {
    pool: MAX
    kernel_size: 3
    stride: 1
    pad: 1
  }
}
layer {
  name: "inception_4a/pool_proj"
  type: "Convolution"
  bottom: "inception_4a/pool"
  top: "inception_4a/pool_proj"
  param {
    lr_mult: 1
    decay_mult: 1
  }
  param {
    lr_mult: 2
    decay_mult: 0
  }
  convolution_param {
    num_output: 64
    kernel_size: 1
    weight_filler {
      type: "xavier"
    }
    bias_filler {
      type: "constant"
      value: 0.2
    }
  }
}
layer {
  name: "inception_4a/relu_pool_proj"
  type: "ReLU"
  bottom: "inception_4a/pool_proj"
  top: "inception_4a/pool_proj"
}
layer {
  name: "inception_4a/output"
  type: "Concat"
  bottom: "inception_4a/1x1"
  bottom: "inception_4a/3x3"
  bottom: "inception_4a/5x5"
  bottom: "inception_4a/pool_proj"
  top: "inception_4a/output"
}
layer {
  name: "loss1/ave_pool"
  type: "Pooling"
  bottom: "inception_4a/output"
  top: "loss1/ave_pool"
  pooling_param {
    pool: AVE
    kernel_size: 5
    stride: 3
  }
}
layer {
  name: "loss1/conv"
  type: "Convolution"
  bottom: "loss1/ave_pool"
  top: "loss1/conv"
  param {
    lr_mult: 1
    decay_mult: 1
  }
  param {
    lr_mult: 2
    decay_mult: 0
  }
  convolution_param {
    num_output: 128
    kernel_size: 1
    weight_filler {
      type: "xavier"
    }
    bias_filler {
      type: "constant"
      value: 0.2
    }
  }
}
layer {
  name: "loss1/relu_conv"
  type: "ReLU"
  bottom: "loss1/conv"
  top: "loss1/conv"
}
layer {
  name: "loss1/fc"
  type: "InnerProduct"
  bottom: "loss1/conv"
  top: "loss1/fc"
  param {
    lr_mult: 1
    decay_mult: 1
  }
  param {
    lr_mult: 2
    decay_mult: 0
  }
  inner_product_param {
    num_output: 1024
    weight_filler {
      type: "xavier"
    }
    bias_filler {
      type: "constant"
      value: 0.2
    }
  }
}
layer {
  name: "loss1/relu_fc"
  type: "ReLU"
  bottom: "loss1/fc"
  top: "loss1/fc"
}
layer {
  name: "loss1/drop_fc"
  type: "Dropout"
  bottom: "loss1/fc"
  top: "loss1/fc"
  dropout_param {
    dropout_ratio: 0.7
  }
}
layer {
  name: "loss1/classifier"
  type: "InnerProduct"
  bottom: "loss1/fc"
  top: "loss1/classifier"
  param {
    lr_mult: 1
    decay_mult: 1
  }
  param {
    lr_mult: 2
    decay_mult: 0
  }
  inner_product_param {
    num_output: 1000
    weight_filler {
      type: "xavier"
    }
    bias_filler {
      type: "constant"
      value: 0
    }
  }
}
layer {
  name: "loss1/loss"
  type: "SoftmaxWithLoss"
  bottom: "loss1/classifier"
  bottom: "label"
  top: "loss1/loss1"
  loss_weight: 0.3
}
layer {
  name: "loss1/top-1"
  type: "Accuracy"
  bottom: "loss1/classifier"
…
I0928 21:27:07.219213 14300 net.cpp:425] inception_4c/relu_5x5 <- inception_4c/5x5
I0928 21:27:07.219216 14300 net.cpp:386] inception_4c/relu_5x5 -> inception_4c/5x5 (in-place)
I0928 21:27:07.219456 14300 net.cpp:141] Setting up inception_4c/relu_5x5
I0928 21:27:07.219475 14300 net.cpp:148] Top shape: 8 64 14 14 (100352)
I0928 21:27:07.219477 14300 net.cpp:156] Memory required for data: 350446924
I0928 21:27:07.219480 14300 layer_factory.hpp:77] Creating layer inception_4c/pool
I0928 21:27:07.219485 14300 net.cpp:91] Creating Layer inception_4c/pool
I0928 21:27:07.219487 14300 net.cpp:425] inception_4c/pool <- inception_4b/output_inception_4b/output_0_split_3
I0928 21:27:07.219491 14300 net.cpp:399] inception_4c/pool -> inception_4c/pool
I0928 21:27:07.219535 14300 net.cpp:141] Setting up inception_4c/pool
I0928 21:27:07.219539 14300 net.cpp:148] Top shape: 8 512 14 14 (802816)
I0928 21:27:07.219542 14300 net.cpp:156] Memory required for data: 353658188
I0928 21:27:07.219542 14300 layer_factory.hpp:77] Creating layer inception_4c/pool_proj
I0928 21:27:07.219548 14300 net.cpp:91] Creating Layer inception_4c/pool_proj
I0928 21:27:07.219552 14300 net.cpp:425] inception_4c/pool_proj <- inception_4c/pool
I0928 21:27:07.219555 14300 net.cpp:399] inception_4c/pool_proj -> inception_4c/pool_proj
I0928 21:27:07.220587 14300 net.cpp:141] Setting up inception_4c/pool_proj
I0928 21:27:07.220595 14300 net.cpp:148] Top shape: 8 64 14 14 (100352)
I0928 21:27:07.220597 14300 net.cpp:156] Memory required for data: 354059596
I0928 21:27:07.220602 14300 layer_factory.hpp:77] Creating layer inception_4c/relu_pool_proj
I0928 21:27:07.220605 14300 net.cpp:91] Creating Layer inception_4c/relu_pool_proj
I0928 21:27:07.220608 14300 net.cpp:425] inception_4c/relu_pool_proj <- inception_4c/pool_proj
I0928 21:27:07.220613 14300 net.cpp:386] inception_4c/relu_pool_proj -> inception_4c/pool_proj (in-place)
I0928 21:27:07.220860 14300 net.cpp:141] Setting up inception_4c/relu_pool_proj
I0928 21:27:07.220866 14300 net.cpp:148] Top shape: 8 64 14 14 (100352)
I0928 21:27:07.220868 14300 net.cpp:156] Memory required for data: 354461004
I0928 21:27:07.220870 14300 layer_factory.hpp:77] Creating layer inception_4c/output
I0928 21:27:07.220875 14300 net.cpp:91] Creating Layer inception_4c/output
I0928 21:27:07.220877 14300 net.cpp:425] inception_4c/output <- inception_4c/1x1
I0928 21:27:07.220881 14300 net.cpp:425] inception_4c/output <- inception_4c/3x3
I0928 21:27:07.220885 14300 net.cpp:425] inception_4c/output <- inception_4c/5x5
I0928 21:27:07.220887 14300 net.cpp:425] inception_4c/output <- inception_4c/pool_proj
I0928 21:27:07.220891 14300 net.cpp:399] inception_4c/output -> inception_4c/output
I0928 21:27:07.220921 14300 net.cpp:141] Setting up inception_4c/output
I0928 21:27:07.220927 14300 net.cpp:148] Top shape: 8 512 14 14 (802816)
I0928 21:27:07.220928 14300 net.cpp:156] Memory required for data: 357672268
I0928 21:27:07.220930 14300 layer_factory.hpp:77] Creating layer inception_4c/output_inception_4c/output_0_split
I0928 21:27:07.220934 14300 net.cpp:91] Creating Layer inception_4c/output_inception_4c/output_0_split
I0928 21:27:07.220937 14300 net.cpp:425] inception_4c/output_inception_4c/output_0_split <- inception_4c/output
I0928 21:27:07.220939 14300 net.cpp:399] inception_4c/output_inception_4c/output_0_split -> inception_4c/output_inception_4c/output_0_split_0
I0928 21:27:07.220943 14300 net.cpp:399] inception_4c/output_inception_4c/output_0_split -> inception_4c/output_inception_4c/output_0_split_1
I0928 21:27:07.220947 14300 net.cpp:399] inception_4c/output_inception_4c/output_0_split -> inception_4c/output_inception_4c/output_0_split_2
I0928 21:27:07.220960 14300 net.cpp:399] inception_4c/output_inception_4c/output_0_split -> inception_4c/output_inception_4c/output_0_split_3
I0928 21:27:07.221034 14300 net.cpp:141] Setting up inception_4c/output_inception_4c/output_0_split
I0928 21:27:07.221037 14300 net.cpp:148] Top shape: 8 512 14 14 (802816)
I0928 21:27:07.221040 14300 net.cpp:148] Top shape: 8 512 14 14 (802816)
I0928 21:27:07.221042 14300 net.cpp:148] Top shape: 8 512 14 14 (802816)
I0928 21:27:07.221045 14300 net.cpp:148] Top shape: 8 512 14 14 (802816)
I0928 21:27:07.221046 14300 net.cpp:156] Memory required for data: 370517324
I0928 21:27:07.221048 14300 layer_factory.hpp:77] Creating layer inception_4d/1x1
I0928 21:27:07.221055 14300 net.cpp:91] Creating Layer inception_4d/1x1
I0928 21:27:07.221056 14300 net.cpp:425] inception_4d/1x1 <- inception_4c/output_inception_4c/output_0_split_0
I0928 21:27:07.221061 14300 net.cpp:399] inception_4d/1x1 -> inception_4d/1x1
I0928 21:27:07.222388 14300 net.cpp:141] Setting up inception_4d/1x1
I0928 21:27:07.222396 14300 net.cpp:148] Top shape: 8 112 14 14 (175616)
I0928 21:27:07.222398 14300 net.cpp:156] Memory required for data: 371219788
I0928 21:27:07.222403 14300 layer_factory.hpp:77] Creating layer inception_4d/relu_1x1
I0928 21:27:07.222407 14300 net.cpp:91] Creating Layer inception_4d/relu_1x1
I0928 21:27:07.222410 14300 net.cpp:425] inception_4d/relu_1x1 <- inception_4d/1x1
I0928 21:27:07.222414 14300 net.cpp:386] inception_4d/relu_1x1 -> inception_4d/1x1 (in-place)
I0928 21:27:07.222542 14300 net.cpp:141] Setting up inception_4d/relu_1x1
I0928 21:27:07.222546 14300 net.cpp:148] Top shape: 8 112 14 14 (175616)
I0928 21:27:07.222548 14300 net.cpp:156] Memory required for data: 371922252
I0928 21:27:07.222550 14300 layer_factory.hpp:77] Creating layer inception_4d/3x3_reduce
I0928 21:27:07.222555 14300 net.cpp:91] Creating Layer inception_4d/3x3_reduce
I0928 21:27:07.222558 14300 net.cpp:425] inception_4d/3x3_reduce <- inception_4c/output_inception_4c/output_0_split_1
I0928 21:27:07.222563 14300 net.cpp:399] inception_4d/3x3_reduce -> inception_4d/3x3_reduce
I0928 21:27:07.224498 14300 net.cpp:141] Setting up inception_4d/3x3_reduce
I0928 21:27:07.224510 14300 net.cpp:148] Top shape: 8 144 14 14 (225792)
I0928 21:27:07.224512 14300 net.cpp:156] Memory required for data: 372825420
I0928 21:27:07.224516 14300 layer_factory.hpp:77] Creating layer inception_4d/relu_3x3_reduce
I0928 21:27:07.224521 14300 net.cpp:91] Creating Layer inception_4d/relu_3x3_reduce
I0928 21:27:07.224525 14300 net.cpp:425] inception_4d/relu_3x3_reduce <- inception_4d/3x3_reduce
I0928 21:27:07.224529 14300 net.cpp:386] inception_4d/relu_3x3_reduce -> inception_4d/3x3_reduce (in-place)
I0928 21:27:07.224769 14300 net.cpp:141] Setting up inception_4d/relu_3x3_reduce
I0928 21:27:07.224777 14300 net.cpp:148] Top shape: 8 144 14 14 (225792)
I0928 21:27:07.224779 14300 net.cpp:156] Memory required for data: 373728588
I0928 21:27:07.224781 14300 layer_factory.hpp:77] Creating layer inception_4d/3x3
I0928 21:27:07.224788 14300 net.cpp:91] Creating Layer inception_4d/3x3
I0928 21:27:07.224792 14300 net.cpp:425] inception_4d/3x3 <- inception_4d/3x3_reduce
I0928 21:27:07.224795 14300 net.cpp:399] inception_4d/3x3 -> inception_4d/3x3
I0928 21:27:07.228302 14300 net.cpp:141] Setting up inception_4d/3x3
I0928 21:27:07.228310 14300 net.cpp:148] Top shape: 8 288 14 14 (451584)
I0928 21:27:07.228312 14300 net.cpp:156] Memory required for data: 375534924
I0928 21:27:07.228317 14300 layer_factory.hpp:77] Creating layer inception_4d/relu_3x3
I0928 21:27:07.228322 14300 net.cpp:91] Creating Layer inception_4d/relu_3x3
I0928 21:27:07.228325 14300 net.cpp:425] inception_4d/relu_3x3 <- inception_4d/3x3
I0928 21:27:07.228328 14300 net.cpp:386] inception_4d/relu_3x3 -> inception_4d/3x3 (in-place)
I0928 21:27:07.228566 14300 net.cpp:141] Setting up inception_4d/relu_3x3
I0928 21:27:07.228572 14300 net.cpp:148] Top shape: 8 288 14 14 (451584)
I0928 21:27:07.228574 14300 net.cpp:156] Memory required for data: 377341260
I0928 21:27:07.228590 14300 layer_factory.hpp:77] Creating layer inception_4d/5x5_reduce
I0928 21:27:07.228595 14300 net.cpp:91] Creating Layer inception_4d/5x5_reduce
I0928 21:27:07.228600 14300 net.cpp:425] inception_4d/5x5_reduce <- inception_4c/output_inception_4c/output_0_split_2
I0928 21:27:07.228603 14300 net.cpp:399] inception_4d/5x5_reduce -> inception_4d/5x5_reduce
I0928 21:27:07.229620 14300 net.cpp:141] Setting up inception_4d/5x5_reduce
I0928 21:27:07.229627 14300 net.cpp:148] Top shape: 8 32 14 14 (50176)
I0928 21:27:07.229629 14300 net.cpp:156] Memory required for data: 377541964
I0928 21:27:07.229634 14300 layer_factory.hpp:77] Creating layer inception_4d/relu_5x5_reduce
I0928 21:27:07.229638 14300 net.cpp:91] Creating Layer inception_4d/relu_5x5_reduce
I0928 21:27:07.229640 14300 net.cpp:425] inception_4d/relu_5x5_reduce <- inception_4d/5x5_reduce
I0928 21:27:07.229645 14300 net.cpp:386] inception_4d/relu_5x5_reduce -> inception_4d/5x5_reduce (in-place)
I0928 21:27:07.229773 14300 net.cpp:141] Setting up inception_4d/relu_5x5_reduce
I0928 21:27:07.229778 14300 net.cpp:148] Top shape: 8 32 14 14 (50176)
I0928 21:27:07.229779 14300 net.cpp:156] Memory required for data: 377742668
I0928 21:27:07.229781 14300 layer_factory.hpp:77] Creating layer inception_4d/5x5
I0928 21:27:07.229787 14300 net.cpp:91] Creating Layer inception_4d/5x5
I0928 21:27:07.229790 14300 net.cpp:425] inception_4d/5x5 <- inception_4d/5x5_reduce
I0928 21:27:07.229794 14300 net.cpp:399] inception_4d/5x5 -> inception_4d/5x5
I0928 21:27:07.231043 14300 net.cpp:141] Setting up inception_4d/5x5
I0928 21:27:07.231062 14300 net.cpp:148] Top shape: 8 64 14 14 (100352)
I0928 21:27:07.231065 14300 net.cpp:156] Memory required for data: 378144076
I0928 21:27:07.231068 14300 layer_factory.hpp:77] Creating layer inception_4d/relu_5x5
I0928 21:27:07.231073 14300 net.cpp:91] Creating Layer inception_4d/relu_5x5
I0928 21:27:07.231076 14300 net.cpp:425] inception_4d/relu_5x5 <- inception_4d/5x5
I0928 21:27:07.231079 14300 net.cpp:386] inception_4d/relu_5x5 -> inception_4d/5x5 (in-place)
I0928 21:27:07.231315 14300 net.cpp:141] Setting up inception_4d/relu_5x5
I0928 21:27:07.231322 14300 net.cpp:148] Top shape: 8 64 14 14 (100352)
I0928 21:27:07.231324 14300 net.cpp:156] Memory required for data: 378545484
I0928 21:27:07.231328 14300 layer_factory.hpp:77] Creating layer inception_4d/pool
I0928 21:27:07.231331 14300 net.cpp:91] Creating Layer inception_4d/pool
I0928 21:27:07.231333 14300 net.cpp:425] inception_4d/pool <- inception_4c/output_inception_4c/output_0_split_3
I0928 21:27:07.231338 14300 net.cpp:399] inception_4d/pool -> inception_4d/pool
I0928 21:27:07.231384 14300 net.cpp:141] Setting up inception_4d/pool
I0928 21:27:07.231386 14300 net.cpp:148] Top shape: 8 512 14 14 (802816)
I0928 21:27:07.231389 14300 net.cpp:156] Memory required for data: 381756748
I0928 21:27:07.231390 14300 layer_factory.hpp:77] Creating layer inception_4d/pool_proj
I0928 21:27:07.231395 14300 net.cpp:91] Creating Layer inception_4d/pool_proj
I0928 21:27:07.231398 14300 net.cpp:425] inception_4d/pool_proj <- inception_4d/pool
I0928 21:27:07.231402 14300 net.cpp:399] inception_4d/pool_proj -> inception_4d/pool_proj
I0928 21:27:07.232415 14300 net.cpp:141] Setting up inception_4d/pool_proj
I0928 21:27:07.232422 14300 net.cpp:148] Top shape: 8 64 14 14 (100352)
I0928 21:27:07.232425 14300 net.cpp:156] Memory required for data: 382158156
I0928 21:27:07.232429 14300 layer_factory.hpp:77] Creating layer inception_4d/relu_pool_proj
I0928 21:27:07.232432 14300 net.cpp:91] Creating Layer inception_4d/relu_pool_proj
I0928 21:27:07.232435 14300 net.cpp:425] inception_4d/relu_pool_proj <- inception_4d/pool_proj
I0928 21:27:07.232439 14300 net.cpp:386] inception_4d/relu_pool_proj -> inception_4d/pool_proj (in-place)
I0928 21:27:07.232676 14300 net.cpp:141] Setting up inception_4d/relu_pool_proj
I0928 21:27:07.232682 14300 net.cpp:148] Top shape: 8 64 14 14 (100352)
I0928 21:27:07.232684 14300 net.cpp:156] Memory required for data: 382559564
I0928 21:27:07.232692 14300 layer_factory.hpp:77] Creating layer inception_4d/output
I0928 21:27:07.232697 14300 net.cpp:91] Creating Layer inception_4d/output
I0928 21:27:07.232699 14300 net.cpp:425] inception_4d/output <- inception_4d/1x1
I0928 21:27:07.232702 14300 net.cpp:425] inception_4d/output <- inception_4d/3x3
I0928 21:27:07.232705 14300 net.cpp:425] inception_4d/output <- inception_4d/5x5
I0928 21:27:07.232707 14300 net.cpp:425] inception_4d/output <- inception_4d/pool_proj
I0928 21:27:07.232710 14300 net.cpp:399] inception_4d/output -> inception_4d/output
I0928 21:27:07.232738 14300 net.cpp:141] Setting up inception_4d/output
I0928 21:27:07.232743 14300 net.cpp:148] Top shape: 8 528 14 14 (827904)
I0928 21:27:07.232744 14300 net.cpp:156] Memory required for data: 385871180
I0928 21:27:07.232746 14300 layer_factory.hpp:77] Creating layer inception_4d/output_inception_4d/output_0_split
I0928 21:27:07.232750 14300 net.cpp:91] Creating Layer inception_4d/output_inception_4d/output_0_split
I0928 21:27:07.232753 14300 net.cpp:425] inception_4d/output_inception_4d/output_0_split <- inception_4d/output
I0928 21:27:07.232755 14300 net.cpp:399] inception_4d/output_inception_4d/output_0_split -> inception_4d/output_inception_4d/output_0_split_0
I0928 21:27:07.232759 14300 net.cpp:399] inception_4d/output_inception_4d/output_0_split -> inception_4d/output_inception_4d/output_0_split_1
I0928 21:27:07.232764 14300 net.cpp:399] inception_4d/output_inception_4d/output_0_split -> inception_4d/output_inception_4d/output_0_split_2
I0928 21:27:07.232766 14300 net.cpp:399] inception_4d/output_inception_4d/output_0_split -> inception_4d/output_inception_4d/output_0_split_3
I0928 21:27:07.232770 14300 net.cpp:399] inception_4d/output_inception_4d/output_0_split -> inception_4d/output_inception_4d/output_0_split_4
I0928 21:27:07.232857 14300 net.cpp:141] Setting up inception_4d/output_inception_4d/output_0_split
I0928 21:27:07.232861 14300 net.cpp:148] Top shape: 8 528 14 14 (827904)
I0928 21:27:07.232863 14300 net.cpp:148] Top shape: 8 528 14 14 (827904)
I0928 21:27:07.232866 14300 net.cpp:148] Top shape: 8 528 14 14 (827904)
I0928 21:27:07.232867 14300 net.cpp:148] Top shape: 8 528 14 14 (827904)
I0928 21:27:07.232870 14300 net.cpp:148] Top shape: 8 528 14 14 (827904)
I0928 21:27:07.232872 14300 net.cpp:156] Memory required for data: 402429260
I0928 21:27:07.232873 14300 layer_factory.hpp:77] Creating layer loss2/ave_pool
I0928 21:27:07.232877 14300 net.cpp:91] Creating Layer loss2/ave_pool
I0928 21:27:07.232879 14300 net.cpp:425] loss2/ave_pool <- inception_4d/output_inception_4d/output_0_split_0
I0928 21:27:07.232883 14300 net.cpp:399] loss2/ave_pool -> loss2/ave_pool
I0928 21:27:07.233029 14300 net.cpp:141] Setting up loss2/ave_pool
I0928 21:27:07.233034 14300 net.cpp:148] Top shape: 8 528 4 4 (67584)
I0928 21:27:07.233037 14300 net.cpp:156] Memory required for data: 402699596
I0928 21:27:07.233039 14300 layer_factory.hpp:77] Creating layer loss2/conv
I0928 21:27:07.233044 14300 net.cpp:91] Creating Layer loss2/conv
I0928 21:27:07.233047 14300 net.cpp:425] loss2/conv <- loss2/ave_pool
I0928 21:27:07.233052 14300 net.cpp:399] loss2/conv -> loss2/conv
I0928 21:27:07.234375 14300 net.cpp:141] Setting up loss2/conv
I0928 21:27:07.234381 14300 net.cpp:148] Top shape: 8 128 4 4 (16384)
I0928 21:27:07.234385 14300 net.cpp:156] Memory required for data: 402765132
I0928 21:27:07.234387 14300 layer_factory.hpp:77] Creating layer loss2/relu_conv
I0928 21:27:07.234391 14300 net.cpp:91] Creating Layer loss2/relu_conv
I0928 21:27:07.234395 14300 net.cpp:425] loss2/relu_conv <- loss2/conv
I0928 21:27:07.234400 14300 net.cpp:386] loss2/relu_conv -> loss2/conv (in-place)
I0928 21:27:07.234647 14300 net.cpp:141] Setting up loss2/relu_conv
I0928 21:27:07.234653 14300 net.cpp:148] Top shape: 8 128 4 4 (16384)
I0928 21:27:07.234655 14300 net.cpp:156] Memory required for data: 402830668
I0928 21:27:07.234658 14300 layer_factory.hpp:77] Creating layer loss2/fc
I0928 21:27:07.234663 14300 net.cpp:91] Creating Layer loss2/fc
I0928 21:27:07.234670 14300 net.cpp:425] loss2/fc <- loss2/conv
I0928 21:27:07.234674 14300 net.cpp:399] loss2/fc -> loss2/fc
I0928 21:27:07.249182 14300 net.cpp:141] Setting up loss2/fc
I0928 21:27:07.249202 14300 net.cpp:148] Top shape: 8 1024 (8192)
I0928 21:27:07.249205 14300 net.cpp:156] Memory required for data: 402863436
I0928 21:27:07.249212 14300 layer_factory.hpp:77] Creating layer loss2/relu_fc
I0928 21:27:07.249218 14300 net.cpp:91] Creating Layer loss2/relu_fc
I0928 21:27:07.249223 14300 net.cpp:425] loss2/relu_fc <- loss2/fc
I0928 21:27:07.249229 14300 net.cpp:386] loss2/relu_fc -> loss2/fc (in-place)
I0928 21:27:07.249404 14300 net.cpp:141] Setting up loss2/relu_fc
I0928 21:27:07.249409 14300 net.cpp:148] Top shape: 8 1024 (8192)
I0928 21:27:07.249411 14300 net.cpp:156] Memory required for data: 402896204
I0928 21:27:07.249413 14300 layer_factory.hpp:77] Creating layer loss2/drop_fc
I0928 21:27:07.249419 14300 net.cpp:91] Creating Layer loss2/drop_fc
I0928 21:27:07.249423 14300 net.cpp:425] loss2/drop_fc <- loss2/fc
I0928 21:27:07.249424 14300 net.cpp:386] loss2/drop_fc -> loss2/fc (in-place)
I0928 21:27:07.249454 14300 net.cpp:141] Setting up loss2/drop_fc
I0928 21:27:07.249456 14300 net.cpp:148] Top shape: 8 1024 (8192)
I0928 21:27:07.249459 14300 net.cpp:156] Memory required for data: 402928972
I0928 21:27:07.249460 14300 layer_factory.hpp:77] Creating layer loss2/classifier
I0928 21:27:07.249465 14300 net.cpp:91] Creating Layer loss2/classifier
I0928 21:27:07.249469 14300 net.cpp:425] loss2/classifier <- loss2/fc
I0928 21:27:07.249471 14300 net.cpp:399] loss2/classifier -> loss2/classifier
I0928 21:27:07.256785 14300 net.cpp:141] Setting up loss2/classifier
I0928 21:27:07.256804 14300 net.cpp:148] Top shape: 8 1000 (8000)
I0928 21:27:07.256806 14300 net.cpp:156] Memory required for data: 402960972
I0928 21:27:07.256811 14300 layer_factory.hpp:77] Creating layer loss2/classifier_loss2/classifier_0_split
I0928 21:27:07.256819 14300 net.cpp:91] Creating Layer loss2/classifier_loss2/classifier_0_split
I0928 21:27:07.256824 14300 net.cpp:425] loss2/classifier_loss2/classifier_0_split <- loss2/classifier
I0928 21:27:07.256829 14300 net.cpp:399] loss2/classifier_loss2/classifier_0_split -> loss2/classifier_loss2/classifier_0_split_0
I0928 21:27:07.256835 14300 net.cpp:399] loss2/classifier_loss2/classifier_0_split -> loss2/classifier_loss2/classifier_0_split_1
I0928 21:27:07.256839 14300 net.cpp:399] loss2/classifier_loss2/classifier_0_split -> loss2/classifier_loss2/classifier_0_split_2
I0928 21:27:07.256901 14300 net.cpp:141] Setting up loss2/classifier_loss2/classifier_0_split
I0928 21:27:07.256904 14300 net.cpp:148] Top shape: 8 1000 (8000)
I0928 21:27:07.256906 14300 net.cpp:148] Top shape: 8 1000 (8000)
I0928 21:27:07.256908 14300 net.cpp:148] Top shape: 8 1000 (8000)
I0928 21:27:07.256911 14300 net.cpp:156] Memory required for data: 403056972
I0928 21:27:07.256912 14300 layer_factory.hpp:77] Creating layer loss2/loss
I0928 21:27:07.256916 14300 net.cpp:91] Creating Layer loss2/loss
I0928 21:27:07.256918 14300 net.cpp:425] loss2/loss <- loss2/classifier_loss2/classifier_0_split_0
I0928 21:27:07.256922 14300 net.cpp:425] loss2/loss <- label_data_1_split_3
…
I0928 21:27:07.257462 14300 net.cpp:141] Setting up loss2/top-5
I0928 21:27:07.257464 14300 net.cpp:148] Top shape: (1)
I0928 21:27:07.257467 14300 net.cpp:156] Memory required for data: 403056984
I0928 21:27:07.257467 14300 layer_factory.hpp:77] Creating layer inception_4e/1x1
I0928 21:27:07.257475 14300 net.cpp:91] Creating Layer inception_4e/1x1
I0928 21:27:07.257477 14300 net.cpp:425] inception_4e/1x1 <- inception_4d/output_inception_4d/output_0_split_1
I0928 21:27:07.257482 14300 net.cpp:399] inception_4e/1x1 -> inception_4e/1x1
I0928 21:27:07.259563 14300 net.cpp:141] Setting up inception_4e/1x1
I0928 21:27:07.259572 14300 net.cpp:148] Top shape: 8 256 14 14 (401408)
I0928 21:27:07.259573 14300 net.cpp:156] Memory required for data: 404662616
I0928 21:27:07.259577 14300 layer_factory.hpp:77] Creating layer inception_4e/relu_1x1
I0928 21:27:07.259582 14300 net.cpp:91] Creating Layer inception_4e/relu_1x1
I0928 21:27:07.259585 14300 net.cpp:425] inception_4e/relu_1x1 <- inception_4e/1x1
I0928 21:27:07.259588 14300 net.cpp:386] inception_4e/relu_1x1 -> inception_4e/1x1 (in-place)
I0928 21:27:07.259718 14300 net.cpp:141] Setting up inception_4e/relu_1x1
I0928 21:27:07.259723 14300 net.cpp:148] Top shape: 8 256 14 14 (401408)
I0928 21:27:07.259726 14300 net.cpp:156] Memory required for data: 406268248
I0928 21:27:07.259727 14300 layer_factory.hpp:77] Creating layer inception_4e/3x3_reduce
I0928 21:27:07.259743 14300 net.cpp:91] Creating Layer inception_4e/3x3_reduce
I0928 21:27:07.259747 14300 net.cpp:425] inception_4e/3x3_reduce <- inception_4d/output_inception_4d/output_0_split_2
I0928 21:27:07.259750 14300 net.cpp:399] inception_4e/3x3_reduce -> inception_4e/3x3_reduce
I0928 21:27:07.261276 14300 net.cpp:141] Setting up inception_4e/3x3_reduce
I0928 21:27:07.261282 14300 net.cpp:148] Top shape: 8 160 14 14 (250880)
I0928 21:27:07.261286 14300 net.cpp:156] Memory required for data: 407271768
I0928 21:27:07.261289 14300 layer_factory.hpp:77] Creating layer inception_4e/relu_3x3_reduce
I0928 21:27:07.261293 14300 net.cpp:91] Creating Layer inception_4e/relu_3x3_reduce
I0928 21:27:07.261296 14300 net.cpp:425] inception_4e/relu_3x3_reduce <- inception_4e/3x3_reduce
I0928 21:27:07.261299 14300 net.cpp:386] inception_4e/relu_3x3_reduce -> inception_4e/3x3_reduce (in-place)
I0928 21:27:07.261548 14300 net.cpp:141] Setting up inception_4e/relu_3x3_reduce
I0928 21:27:07.261554 14300 net.cpp:148] Top shape: 8 160 14 14 (250880)
I0928 21:27:07.261556 14300 net.cpp:156] Memory required for data: 408275288
I0928 21:27:07.261559 14300 layer_factory.hpp:77] Creating layer inception_4e/3x3
I0928 21:27:07.261564 14300 net.cpp:91] Creating Layer inception_4e/3x3
I0928 21:27:07.261567 14300 net.cpp:425] inception_4e/3x3 <- inception_4e/3x3_reduce
I0928 21:27:07.261571 14300 net.cpp:399] inception_4e/3x3 -> inception_4e/3x3
I0928 21:27:07.265949 14300 net.cpp:141] Setting up inception_4e/3x3
I0928 21:27:07.265959 14300 net.cpp:148] Top shape: 8 320 14 14 (501760)
I0928 21:27:07.265960 14300 net.cpp:156] Memory required for data: 410282328
I0928 21:27:07.265964 14300 layer_factory.hpp:77] Creating layer inception_4e/relu_3x3
I0928 21:27:07.265969 14300 net.cpp:91] Creating Layer inception_4e/relu_3x3
I0928 21:27:07.265971 14300 net.cpp:425] inception_4e/relu_3x3 <- inception_4e/3x3
I0928 21:27:07.265976 14300 net.cpp:386] inception_4e/relu_3x3 -> inception_4e/3x3 (in-place)
I0928 21:27:07.266232 14300 net.cpp:141] Setting up inception_4e/relu_3x3
I0928 21:27:07.266238 14300 net.cpp:148] Top shape: 8 320 14 14 (501760)
I0928 21:27:07.266240 14300 net.cpp:156] Memory required for data: 412289368
I0928 21:27:07.266254 14300 layer_factory.hpp:77] Creating layer inception_4e/5x5_reduce
I0928 21:27:07.266261 14300 net.cpp:91] Creating Layer inception_4e/5x5_reduce
I0928 21:27:07.266264 14300 net.cpp:425] inception_4e/5x5_reduce <- inception_4d/output_inception_4d/output_0_split_3
I0928 21:27:07.266269 14300 net.cpp:399] inception_4e/5x5_reduce -> inception_4e/5x5_reduce
I0928 21:27:07.267168 14300 net.cpp:141] Setting up inception_4e/5x5_reduce
I0928 21:27:07.267176 14300 net.cpp:148] Top shape: 8 32 14 14 (50176)
I0928 21:27:07.267179 14300 net.cpp:156] Memory required for data: 412490072
I0928 21:27:07.267182 14300 layer_factory.hpp:77] Creating layer inception_4e/relu_5x5_reduce
I0928 21:27:07.267185 14300 net.cpp:91] Creating Layer inception_4e/relu_5x5_reduce
I0928 21:27:07.267189 14300 net.cpp:425] inception_4e/relu_5x5_reduce <- inception_4e/5x5_reduce
I0928 21:27:07.267192 14300 net.cpp:386] inception_4e/relu_5x5_reduce -> inception_4e/5x5_reduce (in-place)
I0928 21:27:07.267321 14300 net.cpp:141] Setting up inception_4e/relu_5x5_reduce
I0928 21:27:07.267325 14300 net.cpp:148] Top shape: 8 32 14 14 (50176)
I0928 21:27:07.267328 14300 net.cpp:156] Memory required for data: 412690776
I0928 21:27:07.267329 14300 layer_factory.hpp:77] Creating layer inception_4e/5x5
I0928 21:27:07.267335 14300 net.cpp:91] Creating Layer inception_4e/5x5
I0928 21:27:07.267338 14300 net.cpp:425] inception_4e/5x5 <- inception_4e/5x5_reduce
I0928 21:27:07.267343 14300 net.cpp:399] inception_4e/5x5 -> inception_4e/5x5
I0928 21:27:07.268750 14300 net.cpp:141] Setting up inception_4e/5x5
I0928 21:27:07.268757 14300 net.cpp:148] Top shape: 8 128 14 14 (200704)
I0928 21:27:07.268759 14300 net.cpp:156] Memory required for data: 413493592
I0928 21:27:07.268764 14300 layer_factory.hpp:77] Creating layer inception_4e/relu_5x5
I0928 21:27:07.268767 14300 net.cpp:91] Creating Layer inception_4e/relu_5x5
I0928 21:27:07.268769 14300 net.cpp:425] inception_4e/relu_5x5 <- inception_4e/5x5
I0928 21:27:07.268774 14300 net.cpp:386] inception_4e/relu_5x5 -> inception_4e/5x5 (in-place)
I0928 21:27:07.269013 14300 net.cpp:141] Setting up inception_4e/relu_5x5
I0928 21:27:07.269019 14300 net.cpp:148] Top shape: 8 128 14 14 (200704)
I0928 21:27:07.269021 14300 net.cpp:156] Memory required for data: 414296408
I0928 21:27:07.269023 14300 layer_factory.hpp:77] Creating layer inception_4e/pool
I0928 21:27:07.269028 14300 net.cpp:91] Creating Layer inception_4e/pool
I0928 21:27:07.269032 14300 net.cpp:425] inception_4e/pool <- inception_4d/output_inception_4d/output_0_split_4
I0928 21:27:07.269034 14300 net.cpp:399] inception_4e/pool -> inception_4e/pool
I0928 21:27:07.269062 14300 net.cpp:141] Setting up inception_4e/pool
I0928 21:27:07.269065 14300 net.cpp:148] Top shape: 8 528 14 14 (827904)
I0928 21:27:07.269068 14300 net.cpp:156] Memory required for data: 417608024
I0928 21:27:07.269069 14300 layer_factory.hpp:77] Creating layer inception_4e/pool_proj
I0928 21:27:07.269074 14300 net.cpp:91] Creating Layer inception_4e/pool_proj
I0928 21:27:07.269078 14300 net.cpp:425] inception_4e/pool_proj <- inception_4e/pool
I0928 21:27:07.269081 14300 net.cpp:399] inception_4e/pool_proj -> inception_4e/pool_proj
I0928 21:27:07.270421 14300 net.cpp:141] Setting up inception_4e/pool_proj
I0928 21:27:07.270429 14300 net.cpp:148] Top shape: 8 128 14 14 (200704)
I0928 21:27:07.270431 14300 net.cpp:156] Memory required for data: 418410840
I0928 21:27:07.270434 14300 layer_factory.hpp:77] Creating layer inception_4e/relu_pool_proj
I0928 21:27:07.270438 14300 net.cpp:91] Creating Layer inception_4e/relu_pool_proj
I0928 21:27:07.270442 14300 net.cpp:425] inception_4e/relu_pool_proj <- inception_4e/pool_proj
I0928 21:27:07.270444 14300 net.cpp:386] inception_4e/relu_pool_proj -> inception_4e/pool_proj (in-place)
I0928 21:27:07.270686 14300 net.cpp:141] Setting up inception_4e/relu_pool_proj
I0928 21:27:07.270692 14300 net.cpp:148] Top shape: 8 128 14 14 (200704)
I0928 21:27:07.270694 14300 net.cpp:156] Memory required for data: 419213656
I0928 21:27:07.270704 14300 layer_factory.hpp:77] Creating layer inception_4e/output
I0928 21:27:07.270707 14300 net.cpp:91] Creating Layer inception_4e/output
I0928 21:27:07.270710 14300 net.cpp:425] inception_4e/output <- inception_4e/1x1
I0928 21:27:07.270714 14300 net.cpp:425] inception_4e/output <- inception_4e/3x3
I0928 21:27:07.270716 14300 net.cpp:425] inception_4e/output <- inception_4e/5x5
I0928 21:27:07.270719 14300 net.cpp:425] inception_4e/output <- inception_4e/pool_proj
I0928 21:27:07.270722 14300 net.cpp:399] inception_4e/output -> inception_4e/output
I0928 21:27:07.270740 14300 net.cpp:141] Setting up inception_4e/output
I0928 21:27:07.270745 14300 net.cpp:148] Top shape: 8 832 14 14 (1304576)
I0928 21:27:07.270746 14300 net.cpp:156] Memory required for data: 424431960
I0928 21:27:07.270748 14300 layer_factory.hpp:77] Creating layer pool4/3x3_s2
I0928 21:27:07.270752 14300 net.cpp:91] Creating Layer pool4/3x3_s2
I0928 21:27:07.270754 14300 net.cpp:425] pool4/3x3_s2 <- inception_4e/output
I0928 21:27:07.270757 14300 net.cpp:399] pool4/3x3_s2 -> pool4/3x3_s2
I0928 21:27:07.270781 14300 net.cpp:141] Setting up pool4/3x3_s2
I0928 21:27:07.270783 14300 net.cpp:148] Top shape: 8 832 7 7 (326144)
I0928 21:27:07.270786 14300 net.cpp:156] Memory required for data: 425736536
I0928 21:27:07.270787 14300 layer_factory.hpp:77] Creating layer pool4/3x3_s2_pool4/3x3_s2_0_split
I0928 21:27:07.270792 14300 net.cpp:91] Creating Layer pool4/3x3_s2_pool4/3x3_s2_0_split
I0928 21:27:07.270793 14300 net.cpp:425] pool4/3x3_s2_pool4/3x3_s2_0_split <- pool4/3x3_s2
I0928 21:27:07.270797 14300 net.cpp:399] pool4/3x3_s2_pool4/3x3_s2_0_split -> pool4/3x3_s2_pool4/3x3_s2_0_split_0
I0928 21:27:07.270800 14300 net.cpp:399] pool4/3x3_s2_pool4/3x3_s2_0_split -> pool4/3x3_s2_pool4/3x3_s2_0_split_1
I0928 21:27:07.270804 14300 net.cpp:399] pool4/3x3_s2_pool4/3x3_s2_0_split -> pool4/3x3_s2_pool4/3x3_s2_0_split_2
I0928 21:27:07.270818 14300 net.cpp:399] pool4/3x3_s2_pool4/3x3_s2_0_split -> pool4/3x3_s2_pool4/3x3_s2_0_split_3
I0928 21:27:07.270853 14300 net.cpp:141] Setting up pool4/3x3_s2_pool4/3x3_s2_0_split
I0928 21:27:07.270856 14300 net.cpp:148] Top shape: 8 832 7 7 (326144)
I0928 21:27:07.270859 14300 net.cpp:148] Top shape: 8 832 7 7 (326144)
I0928 21:27:07.270862 14300 net.cpp:148] Top shape: 8 832 7 7 (326144)
I0928 21:27:07.270864 14300 net.cpp:148] Top shape: 8 832 7 7 (326144)
I0928 21:27:07.270866 14300 net.cpp:156] Memory required for data: 430954840
I0928 21:27:07.270869 14300 layer_factory.hpp:77] Creating layer inception_5a/1x1
I0928 21:27:07.270874 14300 net.cpp:91] Creating Layer inception_5a/1x1
I0928 21:27:07.270877 14300 net.cpp:425] inception_5a/1x1 <- pool4/3x3_s2_pool4/3x3_s2_0_split_0
I0928 21:27:07.270880 14300 net.cpp:399] inception_5a/1x1 -> inception_5a/1x1
I0928 21:27:07.273198 14300 net.cpp:141] Setting up inception_5a/1x1
I0928 21:27:07.273206 14300 net.cpp:148] Top shape: 8 256 7 7 (100352)
I0928 21:27:07.273208 14300 net.cpp:156] Memory required for data: 431356248
I0928 21:27:07.273212 14300 layer_factory.hpp:77] Creating layer inception_5a/relu_1x1
I0928 21:27:07.273216 14300 net.cpp:91] Creating Layer inception_5a/relu_1x1
I0928 21:27:07.273218 14300 net.cpp:425] inception_5a/relu_1x1 <- inception_5a/1x1
I0928 21:27:07.273222 14300 net.cpp:386] inception_5a/relu_1x1 -> inception_5a/1x1 (in-place)
I0928 21:27:07.273352 14300 net.cpp:141] Setting up inception_5a/relu_1x1
I0928 21:27:07.273357 14300 net.cpp:148] Top shape: 8 256 7 7 (100352)
I0928 21:27:07.273360 14300 net.cpp:156] Memory required for data: 431757656
I0928 21:27:07.273361 14300 layer_factory.hpp:77] Creating layer inception_5a/3x3_reduce
I0928 21:27:07.273367 14300 net.cpp:91] Creating Layer inception_5a/3x3_reduce
I0928 21:27:07.273370 14300 net.cpp:425] inception_5a/3x3_reduce <- pool4/3x3_s2_pool4/3x3_s2_0_split_1
I0928 21:27:07.273375 14300 net.cpp:399] inception_5a/3x3_reduce -> inception_5a/3x3_reduce
I0928 21:27:07.274951 14300 net.cpp:141] Setting up inception_5a/3x3_reduce
I0928 21:27:07.274958 14300 net.cpp:148] Top shape: 8 160 7 7 (62720)
I0928 21:27:07.274966 14300 net.cpp:156] Memory required for data: 432008536
I0928 21:27:07.274971 14300 layer_factory.hpp:77] Creating layer inception_5a/relu_3x3_reduce
I0928 21:27:07.274974 14300 net.cpp:91] Creating Layer inception_5a/relu_3x3_reduce
I0928 21:27:07.274977 14300 net.cpp:425] inception_5a/relu_3x3_reduce <- inception_5a/3x3_reduce
I0928 21:27:07.274981 14300 net.cpp:386] inception_5a/relu_3x3_reduce -> inception_5a/3x3_reduce (in-place)
I0928 21:27:07.275228 14300 net.cpp:141] Setting up inception_5a/relu_3x3_reduce
I0928 21:27:07.275233 14300 net.cpp:148] Top shape: 8 160 7 7 (62720)
I0928 21:27:07.275236 14300 net.cpp:156] Memory required for data: 432259416
I0928 21:27:07.275238 14300 layer_factory.hpp:77] Creating layer inception_5a/3x3
I0928 21:27:07.275244 14300 net.cpp:91] Creating Layer inception_5a/3x3
I0928 21:27:07.275248 14300 net.cpp:425] inception_5a/3x3 <- inception_5a/3x3_reduce
I0928 21:27:07.275252 14300 net.cpp:399] inception_5a/3x3 -> inception_5a/3x3
I0928 21:27:07.279217 14300 net.cpp:141] Setting up inception_5a/3x3
I0928 21:27:07.279227 14300 net.cpp:148] Top shape: 8 320 7 7 (125440)
I0928 21:27:07.279229 14300 net.cpp:156] Memory required for data: 432761176
I0928 21:27:07.279233 14300 layer_factory.hpp:77] Creating layer inception_5a/relu_3x3
I0928 21:27:07.279238 14300 net.cpp:91] Creating Layer inception_5a/relu_3x3
I0928 21:27:07.279242 14300 net.cpp:425] inception_5a/relu_3x3 <- inception_5a/3x3
I0928 21:27:07.279244 14300 net.cpp:386] inception_5a/relu_3x3 -> inception_5a/3x3 (in-place)
I0928 21:27:07.279496 14300 net.cpp:141] Setting up inception_5a/relu_3x3
I0928 21:27:07.279502 14300 net.cpp:148] Top shape: 8 320 7 7 (125440)
I0928 21:27:07.279505 14300 net.cpp:156] Memory required for data: 433262936
I0928 21:27:07.279507 14300 layer_factory.hpp:77] Creating layer inception_5a/5x5_reduce
I0928 21:27:07.279513 14300 net.cpp:91] Creating Layer inception_5a/5x5_reduce
I0928 21:27:07.279516 14300 net.cpp:425] inception_5a/5x5_reduce <- pool4/3x3_s2_pool4/3x3_s2_0_split_2
I0928 21:27:07.279521 14300 net.cpp:399] inception_5a/5x5_reduce -> inception_5a/5x5_reduce
I0928 21:27:07.280871 14300 net.cpp:141] Setting up inception_5a/5x5_reduce
I0928 21:27:07.280879 14300 net.cpp:148] Top shape: 8 32 7 7 (12544)
I0928 21:27:07.280881 14300 net.cpp:156] Memory required for data: 433313112
I0928 21:27:07.280885 14300 layer_factory.hpp:77] Creating layer inception_5a/relu_5x5_reduce
I0928 21:27:07.280890 14300 net.cpp:91] Creating Layer inception_5a/relu_5x5_reduce
I0928 21:27:07.280894 14300 net.cpp:425] inception_5a/relu_5x5_reduce <- inception_5a/5x5_reduce
I0928 21:27:07.280896 14300 net.cpp:386] inception_5a/relu_5x5_reduce -> inception_5a/5x5_reduce (in-place)
I0928 21:27:07.281038 14300 net.cpp:141] Setting up inception_5a/relu_5x5_reduce
I0928 21:27:07.281044 14300 net.cpp:148] Top shape: 8 32 7 7 (12544)
I0928 21:27:07.281046 14300 net.cpp:156] Memory required for data: 433363288
I0928 21:27:07.281049 14300 layer_factory.hpp:77] Creating layer inception_5a/5x5
I0928 21:27:07.281054 14300 net.cpp:91] Creating Layer inception_5a/5x5
I0928 21:27:07.281056 14300 net.cpp:425] inception_5a/5x5 <- inception_5a/5x5_reduce
I0928 21:27:07.281060 14300 net.cpp:399] inception_5a/5x5 -> inception_5a/5x5
I0928 21:27:07.282850 14300 net.cpp:141] Setting up inception_5a/5x5
I0928 21:27:07.282860 14300 net.cpp:148] Top shape: 8 128 7 7 (50176)
I0928 21:27:07.282861 14300 net.cpp:156] Memory required for data: 433563992
I0928 21:27:07.282866 14300 layer_factory.hpp:77] Creating layer inception_5a/relu_5x5
I0928 21:27:07.282871 14300 net.cpp:91] Creating Layer inception_5a/relu_5x5
I0928 21:27:07.282874 14300 net.cpp:425] inception_5a/relu_5x5 <- inception_5a/5x5
I0928 21:27:07.282877 14300 net.cpp:386] inception_5a/relu_5x5 -> inception_5a/5x5 (in-place)
I0928 21:27:07.283756 14300 net.cpp:141] Setting up inception_5a/relu_5x5
I0928 21:27:07.283762 14300 net.cpp:148] Top shape: 8 128 7 7 (50176)
I0928 21:27:07.283764 14300 net.cpp:156] Memory required for data: 433764696
I0928 21:27:07.283774 14300 layer_factory.hpp:77] Creating layer inception_5a/pool
I0928 21:27:07.283779 14300 net.cpp:91] Creating Layer inception_5a/pool
I0928 21:27:07.283782 14300 net.cpp:425] inception_5a/pool <- pool4/3x3_s2_pool4/3x3_s2_0_split_3
I0928 21:27:07.283787 14300 net.cpp:399] inception_5a/pool -> inception_5a/pool
I0928 21:27:07.283818 14300 net.cpp:141] Setting up inception_5a/pool
I0928 21:27:07.283820 14300 net.cpp:148] Top shape: 8 832 7 7 (326144)
I0928 21:27:07.283823 14300 net.cpp:156] Memory required for data: 435069272
I0928 21:27:07.283824 14300 layer_factory.hpp:77] Creating layer inception_5a/pool_proj
I0928 21:27:07.283830 14300 net.cpp:91] Creating Layer inception_5a/pool_proj
I0928 21:27:07.283833 14300 net.cpp:425] inception_5a/pool_proj <- inception_5a/pool
I0928 21:27:07.283838 14300 net.cpp:399] inception_5a/pool_proj -> inception_5a/pool_proj
I0928 21:27:07.285203 14300 net.cpp:141] Setting up inception_5a/pool_proj
I0928 21:27:07.285212 14300 net.cpp:148] Top shape: 8 128 7 7 (50176)
I0928 21:27:07.285213 14300 net.cpp:156] Memory required for data: 435269976
I0928 21:27:07.285218 14300 layer_factory.hpp:77] Creating layer inception_5a/relu_pool_proj
I0928 21:27:07.285223 14300 net.cpp:91] Creating Layer inception_5a/relu_pool_proj
I0928 21:27:07.285225 14300 net.cpp:425] inception_5a/relu_pool_proj <- inception_5a/pool_proj
I0928 21:27:07.285228 14300 net.cpp:386] inception_5a/relu_pool_proj -> inception_5a/pool_proj (in-place)
I0928 21:27:07.285482 14300 net.cpp:141] Setting up inception_5a/relu_pool_proj
I0928 21:27:07.285490 14300 net.cpp:148] Top shape: 8 128 7 7 (50176)
I0928 21:27:07.285491 14300 net.cpp:156] Memory required for data: 435470680
I0928 21:27:07.285493 14300 layer_factory.hpp:77] Creating layer inception_5a/output
I0928 21:27:07.285497 14300 net.cpp:91] Creating Layer inception_5a/output
I0928 21:27:07.285501 14300 net.cpp:425] inception_5a/output <- inception_5a/1x1
I0928 21:27:07.285503 14300 net.cpp:425] inception_5a/output <- inception_5a/3x3
I0928 21:27:07.285506 14300 net.cpp:425] inception_5a/output <- inception_5a/5x5
I0928 21:27:07.285508 14300 net.cpp:425] inception_5a/output <- inception_5a/pool_proj
I0928 21:27:07.285511 14300 net.cpp:399] inception_5a/output -> inception_5a/output
I0928 21:27:07.285532 14300 net.cpp:141] Setting up inception_5a/output
I0928 21:27:07.285537 14300 net.cpp:148] Top shape: 8 832 7 7 (326144)
I0928 21:27:07.285538 14300 net.cpp:156] Memory required for data: 436775256
I0928 21:27:07.285540 14300 layer_factory.hpp:77] Creating layer inception_5a/output_inception_5a/output_0_split
I0928 21:27:07.285544 14300 net.cpp:91] Creating Layer inception_5a/output_inception_5a/output_0_split
I0928 21:27:07.285547 14300 net.cpp:425] inception_5a/output_inception_5a/output_0_split <- inception_5a/output
I0928 21:27:07.285549 14300 net.cpp:399] inception_5a/output_inception_5a/output_0_split -> inception_5a/output_inception_5a/output_0_split_0
I0928 21:27:07.285553 14300 net.cpp:399] inception_5a/output_inception_5a/output_0_split -> inception_5a/output_inception_5a/output_0_split_1
I0928 21:27:07.285557 14300 net.cpp:399] inception_5a/output_inception_5a/output_0_split -> inception_5a/output_inception_5a/output_0_split_2
I0928 21:27:07.285562 14300 net.cpp:399] inception_5a/output_inception_5a/output_0_split -> inception_5a/output_inception_5a/output_0_split_3
I0928 21:27:07.285600 14300 net.cpp:141] Setting up inception_5a/output_inception_5a/output_0_split
I0928 21:27:07.285604 14300 net.cpp:148] Top shape: 8 832 7 7 (326144)
I0928 21:27:07.285606 14300 net.cpp:148] Top shape: 8 832 7 7 (326144)
I0928 21:27:07.285609 14300 net.cpp:148] Top shape: 8 832 7 7 (326144)
I0928 21:27:07.285610 14300 net.cpp:148] Top shape: 8 832 7 7 (326144)
I0928 21:27:07.285612 14300 net.cpp:156] Memory required for data: 441993560
I0928 21:27:07.285614 14300 layer_factory.hpp:77] Creating layer inception_5b/1x1
I0928 21:27:07.285622 14300 net.cpp:91] Creating Layer inception_5b/1x1
I0928 21:27:07.285624 14300 net.cpp:425] inception_5b/1x1 <- inception_5a/output_inception_5a/output_0_split_0
I0928 21:27:07.285636 14300 net.cpp:399] inception_5b/1x1 -> inception_5b/1x1
I0928 21:27:07.288786 14300 net.cpp:141] Setting up inception_5b/1x1
I0928 21:27:07.288795 14300 net.cpp:148] Top shape: 8 384 7 7 (150528)
I0928 21:27:07.288797 14300 net.cpp:156] Memory required for data: 442595672
I0928 21:27:07.288801 14300 layer_factory.hpp:77] Creating layer inception_5b/relu_1x1
I0928 21:27:07.288806 14300 net.cpp:91] Creating Layer inception_5b/relu_1x1
I0928 21:27:07.288810 14300 net.cpp:425] inception_5b/relu_1x1 <- inception_5b/1x1
I0928 21:27:07.288812 14300 net.cpp:386] inception_5b/relu_1x1 -> inception_5b/1x1 (in-place)
I0928 21:27:07.288936 14300 net.cpp:141] Setting up inception_5b/relu_1x1
I0928 21:27:07.288941 14300 net.cpp:148] Top shape: 8 384 7 7 (150528)
I0928 21:27:07.288944 14300 net.cpp:156] Memory required for data: 443197784
I0928 21:27:07.288945 14300 layer_factory.hpp:77] Creating layer inception_5b/3x3_reduce
I0928 21:27:07.288950 14300 net.cpp:91] Creating Layer inception_5b/3x3_reduce
I0928 21:27:07.288954 14300 net.cpp:425] inception_5b/3x3_reduce <- inception_5a/output_inception_5a/output_0_split_1
I0928 21:27:07.288957 14300 net.cpp:399] inception_5b/3x3_reduce -> inception_5b/3x3_reduce
I0928 21:27:07.290971 14300 net.cpp:141] Setting up inception_5b/3x3_reduce
I0928 21:27:07.290978 14300 net.cpp:148] Top shape: 8 192 7 7 (75264)
I0928 21:27:07.290980 14300 net.cpp:156] Memory required for data: 443498840
I0928 21:27:07.290984 14300 layer_factory.hpp:77] Creating layer inception_5b/relu_3x3_reduce
I0928 21:27:07.290988 14300 net.cpp:91] Creating Layer inception_5b/relu_3x3_reduce
I0928 21:27:07.290992 14300 net.cpp:425] inception_5b/relu_3x3_reduce <- inception_5b/3x3_reduce
I0928 21:27:07.290995 14300 net.cpp:386] inception_5b/relu_3x3_reduce -> inception_5b/3x3_reduce (in-place)
I0928 21:27:07.291272 14300 net.cpp:141] Setting up inception_5b/relu_3x3_reduce
I0928 21:27:07.291280 14300 net.cpp:148] Top shape: 8 192 7 7 (75264)
I0928 21:27:07.291281 14300 net.cpp:156] Memory required for data: 443799896
I0928 21:27:07.291283 14300 layer_factory.hpp:77] Creating layer inception_5b/3x3
I0928 21:27:07.291290 14300 net.cpp:91] Creating Layer inception_5b/3x3
I0928 21:27:07.291293 14300 net.cpp:425] inception_5b/3x3 <- inception_5b/3x3_reduce
I0928 21:27:07.291297 14300 net.cpp:399] inception_5b/3x3 -> inception_5b/3x3
I0928 21:27:07.296607 14300 net.cpp:141] Setting up inception_5b/3x3
I0928 21:27:07.296617 14300 net.cpp:148] Top shape: 8 384 7 7 (150528)
I0928 21:27:07.296618 14300 net.cpp:156] Memory required for data: 444402008
I0928 21:27:07.296622 14300 layer_factory.hpp:77] Creating layer inception_5b/relu_3x3
I0928 21:27:07.296627 14300 net.cpp:91] Creating Layer inception_5b/relu_3x3
I0928 21:27:07.296629 14300 net.cpp:425] inception_5b/relu_3x3 <- inception_5b/3x3
I0928 21:27:07.296633 14300 net.cpp:386] inception_5b/relu_3x3 -> inception_5b/3x3 (in-place)
I0928 21:27:07.296890 14300 net.cpp:141] Setting up inception_5b/relu_3x3
I0928 21:27:07.296895 14300 net.cpp:148] Top shape: 8 384 7 7 (150528)
I0928 21:27:07.296898 14300 net.cpp:156] Memory required for data: 445004120
I0928 21:27:07.296900 14300 layer_factory.hpp:77] Creating layer inception_5b/5x5_reduce
I0928 21:27:07.296906 14300 net.cpp:91] Creating Layer inception_5b/5x5_reduce
I0928 21:27:07.296910 14300 net.cpp:425] inception_5b/5x5_reduce <- inception_5a/output_inception_5a/output_0_split_2
I0928 21:27:07.296914 14300 net.cpp:399] inception_5b/5x5_reduce -> inception_5b/5x5_reduce
I0928 21:27:07.297962 14300 net.cpp:141] Setting up inception_5b/5x5_reduce
I0928 21:27:07.297969 14300 net.cpp:148] Top shape: 8 48 7 7 (18816)
I0928 21:27:07.297971 14300 net.cpp:156] Memory required for data: 445079384
I0928 21:27:07.297976 14300 layer_factory.hpp:77] Creating layer inception_5b/relu_5x5_reduce
I0928 21:27:07.297981 14300 net.cpp:91] Creating Layer inception_5b/relu_5x5_reduce
I0928 21:27:07.297983 14300 net.cpp:425] inception_5b/relu_5x5_reduce <- inception_5b/5x5_reduce
I0928 21:27:07.298001 14300 net.cpp:386] inception_5b/relu_5x5_reduce -> inception_5b/5x5_reduce (in-place)
I0928 21:27:07.298133 14300 net.cpp:141] Setting up inception_5b/relu_5x5_reduce
I0928 21:27:07.298137 14300 net.cpp:148] Top shape: 8 48 7 7 (18816)
I0928 21:27:07.298140 14300 net.cpp:156] Memory required for data: 445154648
I0928 21:27:07.298141 14300 layer_factory.hpp:77] Creating layer inception_5b/5x5
I0928 21:27:07.298148 14300 net.cpp:91] Creating Layer inception_5b/5x5
I0928 21:27:07.298151 14300 net.cpp:425] inception_5b/5x5 <- inception_5b/5x5_reduce
I0928 21:27:07.298156 14300 net.cpp:399] inception_5b/5x5 -> inception_5b/5x5
I0928 21:27:07.300154 14300 net.cpp:141] Setting up inception_5b/5x5
I0928 21:27:07.300163 14300 net.cpp:148] Top shape: 8 128 7 7 (50176)
I0928 21:27:07.300164 14300 net.cpp:156] Memory required for data: 445355352
I0928 21:27:07.300168 14300 layer_factory.hpp:77] Creating layer inception_5b/relu_5x5
I0928 21:27:07.300173 14300 net.cpp:91] Creating Layer inception_5b/relu_5x5
I0928 21:27:07.300174 14300 net.cpp:425] inception_5b/relu_5x5 <- inception_5b/5x5
I0928 21:27:07.300179 14300 net.cpp:386] inception_5b/relu_5x5 -> inception_5b/5x5 (in-place)
I0928 21:27:07.300421 14300 net.cpp:141] Setting up inception_5b/relu_5x5
I0928 21:27:07.300428 14300 net.cpp:148] Top shape: 8 128 7 7 (50176)
I0928 21:27:07.300431 14300 net.cpp:156] Memory required for data: 445556056
I0928 21:27:07.300432 14300 layer_factory.hpp:77] Creating layer inception_5b/pool
I0928 21:27:07.300437 14300 net.cpp:91] Creating Layer inception_5b/pool
I0928 21:27:07.300441 14300 net.cpp:425] inception_5b/pool <- inception_5a/output_inception_5a/output_0_split_3
I0928 21:27:07.300444 14300 net.cpp:399] inception_5b/pool -> inception_5b/pool
I0928 21:27:07.300472 14300 net.cpp:141] Setting up inception_5b/pool
I0928 21:27:07.300477 14300 net.cpp:148] Top shape: 8 832 7 7 (326144)
I0928 21:27:07.300478 14300 net.cpp:156] Memory required for data: 446860632
I0928 21:27:07.300480 14300 layer_factory.hpp:77] Creating layer inception_5b/pool_proj
I0928 21:27:07.300487 14300 net.cpp:91] Creating Layer inception_5b/pool_proj
I0928 21:27:07.300489 14300 net.cpp:425] inception_5b/pool_proj <- inception_5b/pool
I0928 21:27:07.300493 14300 net.cpp:399] inception_5b/pool_proj -> inception_5b/pool_proj
I0928 21:27:07.301956 14300 net.cpp:141] Setting up inception_5b/pool_proj
I0928 21:27:07.301964 14300 net.cpp:148] Top shape: 8 128 7 7 (50176)
I0928 21:27:07.301966 14300 net.cpp:156] Memory required for data: 447061336
I0928 21:27:07.301970 14300 layer_factory.hpp:77] Creating layer inception_5b/relu_pool_proj
I0928 21:27:07.301975 14300 net.cpp:91] Creating Layer inception_5b/relu_pool_proj
I0928 21:27:07.301977 14300 net.cpp:425] inception_5b/relu_pool_proj <- inception_5b/pool_proj
I0928 21:27:07.301980 14300 net.cpp:386] inception_5b/relu_pool_proj -> inception_5b/pool_proj (in-place)
I0928 21:27:07.302232 14300 net.cpp:141] Setting up inception_5b/relu_pool_proj
I0928 21:27:07.302238 14300 net.cpp:148] Top shape: 8 128 7 7 (50176)
I0928 21:27:07.302240 14300 net.cpp:156] Memory required for data: 447262040
I0928 21:27:07.302242 14300 layer_factory.hpp:77] Creating layer inception_5b/output
I0928 21:27:07.302247 14300 net.cpp:91] Creating Layer inception_5b/output
I0928 21:27:07.302249 14300 net.cpp:425] inception_5b/output <- inception_5b/1x1
I0928 21:27:07.302253 14300 net.cpp:425] inception_5b/output <- inception_5b/3x3
I0928 21:27:07.302255 14300 net.cpp:425] inception_5b/output <- inception_5b/5x5
I0928 21:27:07.302258 14300 net.cpp:425] inception_5b/output <- inception_5b/pool_proj
I0928 21:27:07.302261 14300 net.cpp:399] inception_5b/output -> inception_5b/output
I0928 21:27:07.302279 14300 net.cpp:141] Setting up inception_5b/output
I0928 21:27:07.302284 14300 net.cpp:148] Top shape: 8 1024 7 7 (401408)
I0928 21:27:07.302285 14300 net.cpp:156] Memory required for data: 448867672
I0928 21:27:07.302286 14300 layer_factory.hpp:77] Creating layer pool5/7x7_s1
I0928 21:27:07.302291 14300 net.cpp:91] Creating Layer pool5/7x7_s1
I0928 21:27:07.302301 14300 net.cpp:425] pool5/7x7_s1 <- inception_5b/output
I0928 21:27:07.302305 14300 net.cpp:399] pool5/7x7_s1 -> pool5/7x7_s1
I0928 21:27:07.302449 14300 net.cpp:141] Setting up pool5/7x7_s1
I0928 21:27:07.302454 14300 net.cpp:148] Top shape: 8 1024 1 1 (8192)
I0928 21:27:07.302456 14300 net.cpp:156] Memory required for data: 448900440
I0928 21:27:07.302459 14300 layer_factory.hpp:77] Creating layer pool5/drop_7x7_s1
I0928 21:27:07.302462 14300 net.cpp:91] Creating Layer pool5/drop_7x7_s1
I0928 21:27:07.302464 14300 net.cpp:425] pool5/drop_7x7_s1 <- pool5/7x7_s1
I0928 21:27:07.302469 14300 net.cpp:386] pool5/drop_7x7_s1 -> pool5/7x7_s1 (in-place)
I0928 21:27:07.302482 14300 net.cpp:141] Setting up pool5/drop_7x7_s1
I0928 21:27:07.302485 14300 net.cpp:148] Top shape: 8 1024 1 1 (8192)
I0928 21:27:07.302487 14300 net.cpp:156] Memory required for data: 448933208
I0928 21:27:07.302489 14300 layer_factory.hpp:77] Creating layer loss3/classifier
I0928 21:27:07.302495 14300 net.cpp:91] Creating Layer loss3/classifier
I0928 21:27:07.302496 14300 net.cpp:425] loss3/classifier <- pool5/7x7_s1
I0928 21:27:07.302500 14300 net.cpp:399] loss3/classifier -> loss3/classifier
I0928 21:27:07.302657 14300 net.cpp:141] Setting up loss3/classifier
I0928 21:27:07.302661 14300 net.cpp:148] Top shape: 8 12 (96)
I0928 21:27:07.302664 14300 net.cpp:156] Memory required for data: 448933592
I0928 21:27:07.302666 14300 layer_factory.hpp:77] Creating layer loss3/classifier_loss3/classifier_0_split
I0928 21:27:07.302670 14300 net.cpp:91] Creating Layer loss3/classifier_loss3/classifier_0_split
I0928 21:27:07.302672 14300 net.cpp:425] loss3/classifier_loss3/classifier_0_split <- loss3/classifier
I0928 21:27:07.302675 14300 net.cpp:399] loss3/classifier_loss3/classifier_0_split -> loss3/classifier_loss3/classifier_0_split_0
I0928 21:27:07.302680 14300 net.cpp:399] loss3/classifier_loss3/classifier_0_split -> loss3/classifier_loss3/classifier_0_split_1
I0928 21:27:07.302683 14300 net.cpp:399] loss3/classifier_loss3/classifier_0_split -> loss3/classifier_loss3/classifier_0_split_2
I0928 21:27:07.302716 14300 net.cpp:141] Setting up loss3/classifier_loss3/classifier_0_split
I0928 21:27:07.302721 14300 net.cpp:148] Top shape: 8 12 (96)
I0928 21:27:07.302722 14300 net.cpp:148] Top shape: 8 12 (96)
I0928 21:27:07.302726 14300 net.cpp:148] Top shape: 8 12 (96)
I0928 21:27:07.302726 14300 net.cpp:156] Memory required for data: 448934744
I0928 21:27:07.302728 14300 layer_factory.hpp:77] Creating layer loss3/loss3
I0928 21:27:07.302732 14300 net.cpp:91] Creating Layer loss3/loss3
I0928 21:27:07.302734 14300 net.cpp:425] loss3/loss3 <- loss3/classifier_loss3/classifier_0_split_0
I0928 21:27:07.302737 14300 net.cpp:425] loss3/loss3 <- label_data_1_split_6
…
